Trained/CNN_Net.pth (torch, 137415 bytes, 10 tensors)

conv1.weight f4 [24, 1, 5, 5]
0.30275136 0.04526792 0.06842298 -0.0045396965 -0.045062274 0.027347185 0.16967626 0.016959475
-0.009640038 0.07420899 0.16987607 0.1838013 -0.1075664 -0.15324903 -0.16920431 0.24878298
-0.04368727 -0.13082018 0.043789215 -0.1432909 0.028566748 0.1463737 -0.10620039 -0.16625914
-0.28159076 -0.025329335 -0.0775787 -0.10524812 -0.20255773 0.049393248 0.0033092273 0.06481741
-0.099546984 -0.079486154 -0.00709922 -0.005684908 0.029509617 0.075229436 0.13437806 0.11923352
-0.062210634 0.036366478 0.19805986 0.02408264 0.24703887 -0.03271176 -0.1320243 0.24737369
0.17173979 0.20391086 0.1527206 0.21737744 0.24707825 0.15637979 0.21251902 0.04872763
0.101400144 -0.005557516 0.15902504 -0.028998641 0.08760549 0.02022818 0.11372669 -0.00071259914
0.098031946 -0.09909451 -0.07152055 -0.20468184 -0.2381587 -0.1759248 -0.1657248 0.06308848
-0.049694795 0.07926323 0.01291874 0.11226079 0.038558148 -0.05770703 -0.20823339 -0.029764378
-0.22497906 0.012718521 0.21692997 -0.18676838 0.12895742 -0.13141286 -0.01773051 0.12313119
0.015851075 -0.06328049 -0.12203189 0.13095252 0.20444846 0.010138387 0.07148213 -0.06783676
0.12731507 0.16037855 -0.03495122 -0.13129734 -0.09139978 -0.13443209 -0.05129751 -0.11474587
-0.03979056 0.06282583 -0.15626648 -0.116087765 -0.19250941 -0.15585244 -0.061895136 0.0280277
-0.03820402 -0.0013386684 0.058394197 -0.07987239 -0.12138744 0.031316124 -0.09746346 0.031532872
-0.0950104 0.2406699 0.2401276 0.22793368 0.072886705 0.037099194 0.039702218 0.122843996
-0.20823328 0.02549736 -0.046261314 0.21293955 -0.17781007 0.069775954 -0.13491735 -0.14402995
0.15267009 -0.10047619 -0.08890055 0.15045324 0.063842855 0.09003293 -0.090895556 0.009992612
0.03253669 -0.058136396 0.19711994 0.04579083 -0.095842585 -0.033122685 0.10344113 -0.013183314
0.20584863 -0.012621513 0.10153759 0.0072155125 0.045957495 -0.040759537 0.23558202 0.2415069
-0.077793814 -0.011158973 0.13631263 0.06747689 -0.06586277 -0.119459555 -0.21094939 -0.074170485
-0.10998915 -0.18776439 0.067686364 0.034193706 -0.20047833 -0.13713402 0.08986503 0.24150714
0.18237397 0.23123464 0.10236187 0.16187511 0.031059321 -0.011869968 -0.009404476 0.054545607
0.043831088 0.008250082 -0.17223494 -0.19856343 0.1045951 -0.15279947 -0.081320696 -0.17305836
0.022544902 0.041340884 -0.17828281 0.050096612 -0.026375549 -0.051628493 -0.19807747 0.066849105
0.044498965 -0.10696924 -0.05238641 -0.25102913 -0.15666637 0.1010675 0.10188893 -0.10534136
-0.1344181 -0.27949587 -0.06943863 0.16311432 -0.123211645 -0.05762196 -0.22232689 0.25363278
-0.08081981 0.17636211 0.050268263 -0.15186997 0.2768578 0.07365015 0.2629389 0.15378691
0.03334591 0.12534072 0.14630465 0.15315348 0.057623755 0.19183502 -0.2808576 -0.23622982
0.005849522 0.22078685 -0.017143866 0.06716242 -0.072822906 0.0092597855 -0.019060988 0.19476928
-0.2234339 -0.16729802 -0.023967136 0.047329597 0.18021114 -0.039653786 -0.18842492 -0.16713095
0.113339275 0.022953218 -0.06896914 -0.24758372 0.09723937 0.11078656 -0.08855593 -0.176936
00000000: 3a02 9b3e db6a 393d 5921 8c3d bcc1 94bb
00000010: 3893 38bd 3407 e03c 9dbf 2d3e 99ee 8a3c
00000020: 40f1 1dbc e2fa 973d fef3 2d3e 6836 3c3e
00000030: c64b dcbd 50ed 1cbe e543 2dbe f7c0 7e3e
00000040: 6cf1 32bd baf5 05be 525c 333d daba 12be
00000050: d004 ea3c fde2 153e 977f d9bd d63f 2abe
00000060: aa2c 90be 777f cfbc 95e1 9ebd 548c d7bd
00000070: 4b6b 4fbe 9350 4a3d 9fdf 583b febe 843d
00000080: 4adf cbbd a3c9 a2bd 93a0 e8bb 7748 babb
00000090: 27be f13c e411 9a3d 679a 093e b430 f43d
000000a0: 94d0 7ebd 04f5 143d 34d0 4a3e f548 c53c
000000b0: c2f7 7c3e c4fc 05bd 6131 07be 874f 7d3e
000000c0: 8edc 2f3e 02ce 503e ca62 1c3e 3198 5e3e
000000d0: 1502 7d3e 0622 203e 969e 593e a096 473d
000000e0: e1aa cf3d d31b b6bb 76d7 223e 8f8e edbc
000000f0: 826a b33d 91b5 a53c 8ae9 e83d b8cd 3aba
00000100: f9c4 c83d 10f2 cabd 5e79 92bd 1e98 51be
00000110: e0df 73be a125 34be c3b3 29be 8834 813d
00000120: c58c 4bbd c354 a23d 1fa9 533c fce8 e53d
00000130: 26ef 1d3d 355e 6cbd 223b 55be 6dd4 f3bc
00000140: e960 66be 5861 503c e422 5e3e 3640 3fbe
00000150: 6a0d 043e 1891 06be 933f 91bc 352c fc3d
00000160: 1dda 813c 3499 81bd dbeb f9bd 6b18 063e
00000170: f05a 513e 7a1b 263c 3965 923d 00ee 8abd
00000180: e25e 023e 463a 243e 0329 0fbd cf72 06be
00000190: cf2f bbbd 91a8 09be 561d 52bd e2ff eabd
000001a0: 6dfb 22bd d4aa 803d 5204 20be 6cbf edbd
000001b0: 3021 45be c897 1fbe c185 7dbd 599a e53c
000001c0: d27b 1cbd 4276 afba c12e 6f3d 2394 a3bd
000001d0: fa99 f8bd 5645 003d ec9a c7bd 9d28 013d
000001e0: d094 c2bd 2c72 763e 02e4 753e 7267 693e
000001f0: a045 953d 53f5 173d cb9e 223d a295 fb3d
00000200: 1b3b 55be d7df d03c 817c 3dbd d30c 5a3e
00000210: d813 36be b2e6 8e3d c627 0abe 967c 13be
00000220: 8c55 1c3e 76c6 cdbd 7e11 b6bd 6a10 1a3e
00000230: 0bc0 823d 2f63 b83d 7327 babd 0db8 233c
00000240: 3145 053d 6e20 6ebd cfd9 493e 2a8f 3b3d
00000250: 1e49 c4bd a7ab 07bd f1d8 d33d d4fe 57bc
00000260: fcc9 523e 76ca 4ebc f1f2 cf3d 1b70 ec3b
00000270: ed3d 3c3d 79f3 26bd 6a3c 713e 964d 773e
00000280: 5d52 9fbd 20d4 36bc 8a95 0b3e 5331 8a3d
00000290: 0fe3 86bd 36a7 f4bd 1e03 58be b2e6 97bd
000002a0: fe41 e1bd 4f45 40be 269f 8a3d b30e 0c3d
000002b0: 314a 4dbe dc6c 0cbe 280b b83d a64d 773e
000002c0: 3ec0 3a3e c6c8 6c3e 1aa3 d13d 97c2 253e
000002d0: 1e70 fe3c 417a 42bc 3b15 1abc 376b 5f3d
000002e0: 3a88 333d 5a2b 073c 5b5e 30be 3654 4bbe
000002f0: f535 d63d 7777 1cbe 778b a6bd 3636 31be
00000300: 16b0 b83c 0f55 293d c58f 36be 1b32 4d3d
00000310: 8911 d8bc 6678 53bd d2d4 4abe 2fe8 883d
00000320: 8c44 363d b012 dbbd 2293 56bd e486 80be
00000330: 266d 20be 7afc ce3d 25ab d03d 36bd d7bd
00000340: e6a4 09be 151a 8fbe d735 8ebd 7107 273e
00000350: 6356 fcbd 0105 6cbd a9a9 63be 28dc 813e
00000360: db84 a5bd 4598 343e 18e6 4d3d cd83 1bbe
00000370: 4ec0 8d3e e4d5 963d ed9f 863e 517a 1d3e
00000380: b995 083d 5159 003e e3d0 153e 44d4 1c3e
00000390: e306 6c3d 6670 443e 91cc 8fbe 3be6 71be
000003a0: 59ad bf3b f315 623e 4b71 8cbc 738c 893d
000003b0: 2d24 95bd 5bb6 173c ca25 9cbc 9971 473e
000003c0: dbcb 64be 2c50 2bbe ba56 c4bc aedc 413d
000003d0: 4589 383e 026c 22bd 76f2 40be 6024 2bbe
000003e0: 6c1e e83d 6308 bc3c b13f 8dbd 9686 7dbe
000003f0: 6f25 c73d 10e4 e23d d05c b5bd b62e 35be

conv1.bias f4 [24]
-0.112702034 0.0021505682 -0.08502409 -0.061299257 -0.11313823 0.019555723 -0.04712284 0.0014830744
-0.033644453 -0.07898525 0.033663474 -0.08254332 -0.13132016 0.027130047 0.046350945 -0.102588624
-0.060108628 0.021032736 0.104932874 -0.05232755 0.00560529 0.13208948 -0.017481731 0.017866952
00000000: 53d0 e6bd 8cf0 0c3b 1c21 aebd ee14 7bbd
00000010: 04b5 e7bd 5333 a03c e103 41bd b863 c23a
00000020: c4ce 09bd 05c3 a1bd b6e2 093d 790c a9bd
00000030: cb78 06be d53f de3c 7dda 3d3d fc19 d2bd
00000040: 7734 76bd d84c ac3c 0ce7 d63d 6a55 56bd
00000050: 95ac b73b 7742 073e d935 8fbc b75d 923c

conv2.weight f4 [36, 24, 4, 4]
0.0038476777 0.0075898687 0.021762885 -0.00754923 -0.031581946 -0.046403088 -0.03978303 -0.011361405
-0.081759244 -0.102226995 -0.047858395 0.0061699827 -0.001117564 0.016576529 -0.012454485 0.018605208
-0.1160177 -0.12331196 -0.11484761 -0.09017509 -0.10051096 -0.06415797 -0.07785145 -0.037852407
0.0035477781 0.0038678711 0.01873504 -0.038965434 -0.04034401 -0.040556245 0.020557744 -0.029195301
0.00029144538 -0.02467457 -0.059873536 -0.040085603 -0.02268586 -0.0014900878 -0.012356713 0.014288043
-0.019536754 0.004600448 -0.06624854 -0.052047335 0.0038457797 -0.0021187768 -0.023661038 0.013934358
0.008093559 -0.014245699 0.006970405 0.041955028 0.042935077 0.032621168 0.0015173397 0.0425282
0.08459228 0.075022146 0.098882616 0.07028293 0.03587744 0.001776556 0.014173654 -0.0023350685
-0.06324914 -0.028608682 -0.0486119 -0.083876505 -0.062203687 0.025982186 0.013107417 0.013060716
0.0101497695 0.055922844 0.03482207 0.05620109 -0.04414329 -0.10450043 -0.1197957 -0.13035178
-0.0028627175 0.026885547 -0.0067600356 0.04870059 -0.027977988 -0.034758825 0.022446701 -0.022045862
-0.0070697363 0.015214841 0.014372453 0.02260043 -0.0057069305 -0.014292448 0.04157089 0.008671543
-0.03628595 -0.027582554 -0.032650333 -0.03961794 0.00859925 -0.012474832 0.027495807 0.0035069743
0.07250711 0.014172453 -0.018016126 0.0553967 0.055279784 0.06287665 -0.0035663769 0.035893027
0.050864574 0.032444756 0.046660867 -0.0140538 -0.021961572 0.009364345 0.03261118 0.034162734
0.017450754 -0.03586917 -0.04687304 0.018762901 0.012917538 0.0526424 0.0947152 0.045025893
-0.095756516 -0.12396136 -0.111309014 -0.105137885 0.035919636 -0.007514763 -0.025241 0.06409175
0.14689942 0.12153681 0.15941505 0.14206584 -0.05037546 -0.048859093 -0.016805518 -0.055037916
-0.01837512 -0.01712742 0.050287418 0.010084372 -0.041360382 -0.007913313 0.0064633326 0.014574178
-0.0015636764 -0.017713344 -0.049194567 -0.024746265 0.04414198 0.050356798 0.008044672 0.03775263
-0.072537795 -0.11864922 -0.09907957 -0.058538776 0.017607424 0.008612651 0.026146146 0.05258416
0.17425162 0.18888699 0.18623777 0.1556749 -0.04108048 -0.036950998 -0.011397068 0.014434356
0.04110134 -0.024694007 -0.015988667 0.04773904 0.0331017 -0.025126964 0.028450113 0.04271144
0.029694565 -0.03030296 -0.014316017 0.020620415 -0.03135286 -0.034292012 0.022010934 -0.032208715
-0.05249515 -0.061497148 -0.032691292 -0.04044085 0.002739437 -0.035945166 -0.043058965 -0.031465746
0.067453004 0.09699088 0.06363672 0.103466466 0.023357235 0.03332036 0.020497669 0.052798502
-0.03776771 0.023062382 -0.013175818 -0.026189249 -0.049291234 0.0029287715 -0.023396851 -0.03470742
-0.06818604 -0.07740888 -0.06962736 -0.09313713 -0.0036019515 -0.005357895 -0.0031788927 0.029439798
-0.06003618 -0.030038113 -0.03333892 0.010812818 -0.03923948 0.014896757 0.041100472 -0.012978451
0.028192656 0.057218615 0.10608118 0.03503413 -0.031634863 -0.018870592 0.0015176076 -0.03663851
-0.021858357 -0.046618372 0.03134594 -0.040050004 -0.020681234 0.03250109 -0.030899152 0.02191861
0.069878146 0.07430752 0.07326021 0.033042938 0.016864687 0.040323235 0.04200819 0.022153433
00000000: 5229 7c3b 6fb4 f83b 1448 b23c 885f f7bb
00000010: 125c 01bd 2a11 3ebd 88f3 22bd 3025 3abc
00000020: 6471 a7bd 635c d1bd 2a07 44bd 912d ca3b
00000030: 3a7b 92ba 80cb 873c e50d 4cbc f369 983c
00000040: b09a edbd fb8a fcbd 3935 ebbd b8ad b8bd
00000050: b1d8 cdbd 4165 83bd 9570 9fbd 200b 1bbd
00000060: d781 683b 1c7c 7d3b 3a7a 993c 389a 1fbd
00000070: c33f 25bd 4e1e 26bd b768 a83c fc2a efbc
00000080: 23cd 9839 5322 cabc f43d 75bd cd30 24bd
00000090: b2d7 b9bc 0d4f c3ba d073 4abc 6518 6a3c
000000a0: 8b0b a0bc 5bbf 963b 51ad 87bd 962f 55bd
000000b0: 7a09 7c3b 2ddb 0abb cbd4 c1bc ef4c 643c
000000c0: d99a 043c cb66 69bc ff67 e43b 09d9 2b3d
000000d0: b1dc 2f3d c69d 053d 79e1 c63a 0d32 2e3d
000000e0: b83e ad3d 36a5 993d f882 ca3d 7ff0 8f3d
000000f0: 39f4 123d 54db e83a 9d38 683c f307 19bb
00000100: c488 81bd c15c eabc 461d 47bd 72c7 abbd
00000110: 4bc9 7ebd 98d8 d43c 7ec0 563c 9dfc 553c
00000120: 384b 263c 5a0f 653d 96a1 0e3d 1d33 663d
00000130: 98cf 34bd 5204 d6bd 7357 f5bd f07a 05be
00000140: 6e9c 3bbb 143f dc3c 4a83 ddbb 457a 473d
00000150: 1832 e5bc 455f 0ebd 25e2 b73c 8699 b4bc
00000160: 3fa9 e7bb ab47 793c 707a 6b3c 8924 b93c
00000170: 3401 bbbb df2a 6abc 3d46 2a3d 1613 0e3c
00000180: 94a0 14bd cff4 e1bc 5bbc 05bd 6c46 22bd
00000190: dee3 0c3c 3d63 4cbc e33e e13c 44d5 653b
000001a0: 9c7e 943d 9433 683c 8e96 93bc a6e7 623d
000001b0: 0e6d 623d 79c5 803d e0b9 69bb 9104 133d
000001c0: 5f57 503d cbe4 043d 771f 3f3d e941 66bc
000001d0: c1e8 b3bc e96c 193c 4d93 053d 39ee 0b3d
000001e0: e2f4 8e3c 8deb 12bd f2fd 3fbd a8b4 993c
000001f0: 15a4 533c 8f9f 573d 0bfa c13d 126d 383d
00000200: fe1b c4bd 74df fdbd fbf5 e3bd 8852 d7bd
00000210: 7820 133d 673e f6bb 37c6 cebc 8942 833d
00000220: cd6c 163e 4be8 f83d b33d 233e b579 113e
00000230: 8056 4ebd 7920 48bd baab 89bc 706f 61bd
00000240: 6b87 96bc ce4e 8cbc 2efa 4d3d ec38 253c
00000250: 8169 29bd d7a6 01bc 5dca d33b 88c8 6e3c
00000260: 46f4 ccba 931b 91bc 3e80 49bd aeb8 cabc
00000270: 39ce 343d ee42 4e3d cdcd 033c 80a2 1a3d
00000280: b28e 94bd 5dfe f2bd 3bea cabd 5bc6 6fbd
00000290: 723d 903c 141c 0d3c 7130 d63c 7d62 573d
000002a0: 046f 323e 976b 413e 1db5 3e3e 3e69 1f3e
000002b0: 0144 28bd ee59 17bd c5ba 3abc 147e 6c3c
000002c0: e159 283d 164b cabc aafa 82bc 038a 433d
000002d0: a695 073d 10d7 cdbc 3610 e93c 31f2 2e3d
000002e0: 0442 f33c ea3d f8bc ba8d 6abc 25ec a83c
000002f0: db6b 00bd c875 0cbd 4650 b43c 49ed 03bd
00000300: 2805 57bd 6fe4 7bbd 4ee7 05bd 4ea5 25bd
00000310: 2088 333b 3d3b 13bd 995e 30bd 3ae2 00bd
00000320: cd24 8a3d 28a3 c63d f853 823d 3ae6 d33d
00000330: ac57 bf3c ee7a 083d baea a73c 3e43 583d
00000340: 50b2 1abd 52ed bc3c 63df 57bc d68a d6bc
00000350: 9be5 49bd a2f0 3f3b c1aa bfbc 5e29 0ebd
00000360: 1fa5 8bbd 8c88 9ebd ca98 8ebd aebe bebd
00000370: b80e 6cbb 4891 afbb f854 50bb bb2b f13c
00000380: 7fe8 75bd 7d12 f6bc 648e 08bd 3f28 313c
00000390: 94b9 20bd 8711 743c f858 283d 92a3 54bc
000003a0: 49f4 e63c 115e 6a3d 1741 d93d f37f 0f3d
000003b0: 8f93 01bd 8096 9abc 76ea c63a 4312 16bd
000003c0: 4c10 b3bc e8f2 3ebd 9a64 003d 790b 24bd
000003d0: b16b a9bc dd1f 053d 3820 fdbc a88e b33c
000003e0: 461c 8f3d 8b2e 983d 7309 963d 0858 073d
000003f0: d027 8a3c fa29 253d c810 2c3d 1e7b b53c

conv2.bias f4 [36]
0.03630384 -0.030940779 -1.589724e-25 0.01384562 -0.0003242539 -0.057014544 -0.050646026 -0.002159235
-0.0074527794 -0.06680718 0.06596739 -0.02337425 0.015377377 7.427373e-07 0.0028499751 -5.244553e-07
-0.0014178433 0.03460681 6.5448774e-07 -0.031326104 0.07940984 -6.6244475e-06 -0.011098683 -0.02274799
-0.03635459 -1.514081e-05 -0.002012905 -0.07852967 -0.0024077569 -1.2223907e-09 -0.018832747 -0.06763113
-0.012661318 -0.0059743132 -0.044685464 0.032083455
00000000: 56b3 143d 8477 fdbc 5dcc 4496 bdd8 623c
00000010: 9f00 aab9 1588 69bd 3572 4fbd f481 0dbb
00000020: 7236 f4bb 34d2 88bd e919 873d 5b7b bfbc
00000030: 65f1 7b3c 8560 4735 a6c6 3a3b 4bc8 0cb5
00000040: edd6 b9ba dfbf 0d3d 0eb0 2f35 cd4f 00bd
00000050: a0a1 a23d 9247 deb6 40d7 35bc fe59 babc
00000060: 8de8 14bd 4905 7eb7 f1ea 03bb 2ad4 a0bd
00000070: 75cb 1dbb 0d01 a8b0 2247 9abc 3182 8abd
00000080: 6b71 4fbc 2cc4 c3bb 1b08 37bd f169 033d

conv3.weight f4 [48, 36, 3, 3]
0.018363828 -0.0462303 0.025473813 -0.013059471 -0.049319986 0.0022915294 0.021233492 0.0256487
0.06848694 -0.05701064 -0.021220295 -0.053753935 -0.025057811 -0.0032071234 0.0046373843 -0.061255615
-0.091057114 -0.09502051 -2.2387707e-25 9.235574e-25 4.3371385e-25 1.678004e-25 5.8053487e-25 -2.3780546e-26
-9.833007e-25 -3.0963222e-25 -7.650744e-25 0.0003321086 -0.0008628102 0.011138391 0.041765187 0.017734
-0.01981351 0.06527254 0.045752488 0.11731033 -0.0029032433 -0.008437626 -0.008116475 -0.0029967544
-0.00997794 -0.008947437 -0.0016770777 -0.00067133055 -0.001816545 0.0791474 0.06692426 0.07717133
0.037103668 -0.018488694 0.052588962 -0.094894096 -0.0586084 -0.13199085 -0.11440122 -0.10125017
-0.12267617 -0.13907845 -0.10686385 -0.15755443 -0.23845771 -0.2084785 -0.23488814 -0.0047644484
0.006744247 0.0052449936 0.0008638337 -0.006608855 -0.011705685 -0.009824346 -0.008544743 -0.006808313
-0.040256847 -0.0070433524 0.01597638 0.018997997 -0.02997377 -0.0017830431 -0.06257268 -0.03548729
-0.045139845 0.10455497 0.09530415 0.05520694 0.03092698 0.008637267 0.079477765 0.044511806
-0.03806761 -0.024780765 -0.010057811 -0.02032956 0.0028853314 -0.009549188 0.04318699 0.0050507854
0.06467745 0.04717362 0.08459459 -0.009436126 -0.009082846 -0.012891839 -0.007050377 -0.00805944
-0.0064198477 -0.0059853178 -0.0054735662 -0.005472811 0.08076033 0.060861755 0.0072398884 -0.0076216385
0.008257618 0.023810357 0.027212493 0.05106141 0.06716342 2.308612e-06 1.0140459e-06 9.684892e-07
-4.441134e-06 -2.8378802e-06 -3.2668133e-06 4.7442086e-06 3.85316e-06 3.1712416e-06 -0.0031960509 -0.01224646
-0.009033171 -0.014722651 -0.0027959442 -0.019188307 -0.045264218 -0.049421854 -0.063524656 -0.0025444787
-0.0035487637 0.0022283318 0.0054652407 -0.00690567 0.0027386448 0.00227161 0.004828632 -0.010554015
-0.024985412 -0.027545905 -0.01271109 -0.022921553 0.0004886212 -0.032938868 -0.0006553745 -0.022272622
-0.0042864583 0.06548701 0.09966206 0.015919577 0.05367994 0.0647401 -0.002760895 0.009310221
0.06587128 -0.0054819346 -2.4479168e-06 -4.6890304e-06 -6.0587167e-06 -3.841406e-06 -6.223892e-06 -5.961002e-06
-1.7445409e-06 -3.4654267e-06 -3.3988445e-06 -0.025748868 -0.037764482 -0.030937193 -0.060670063 -0.0062397425
-0.08024388 -0.03912737 -0.08263912 -0.0074465205 0.010162999 -0.031008543 0.019700434 0.054787595
-0.03733841 -0.04002572 0.036129557 0.010923864 -0.037696507 0.008336006 -0.007348694 -0.0028003196
0.0007291587 0.011592363 0.010855299 0.006011627 -0.0048414823 0.0070901695 0.0047023366 0.0076114903
0.0086055 0.0006724507 -0.0047427383 0.0019160132 0.006835965 0.009289902 0.015161601 0.14883451
0.10400168 0.04631036 0.0070145903 -0.073773436 -0.04028509 -0.16456048 -0.21858405 -0.23972668
-0.052612882 -0.049264267 -0.06272318 -0.056262735 -0.042521138 -0.05589444 -0.05106444 -0.023774786
-0.019104945 0.011806123 -0.0068367235 0.008650024 0.009907853 0.010054199 0.010408062 -0.004453803
-0.006558345 -0.007542828 0.07934779 0.07333161 0.061437264 0.018211268 -0.005014077 0.008064027
-0.087320074 -0.14093277 -0.097764246 -0.04092634 -0.15524638 -0.17697369 0.015320973 -0.05877453
-0.10945875 0.03887406 -0.0011749499 0.010769046 -0.08917998 -0.06110844 -0.07034158 -0.106995
00000000: bd6f 963c fc5b 3dbd 75ae d03c 64f7 55bc
00000010: c103 4abd 7c2d 163b dcf1 ad3c 391d d23c
00000020: e142 8c3d fd83 69bd 2fd6 adbc 162d 5cbd
00000030: 0a46 cdbc 9a2e 52bb 33f5 973b 2be7 7abd
00000040: 277c babd 1d9a c2bd bd92 8a96 e1e9 8e17
00000050: 5a3a 0617 12ba 4f16 b6aa 3317 d982 eb94
00000060: 8e28 9897 2fa7 bf96 70c7 6c97 dd1e ae39
00000070: 362e 62ba cc7d 363c f911 2b3d e546 913c
00000080: f14f a2bc 9cad 853d f666 3b3d 6640 f03d
00000090: 5744 3ebb f83d 0abc f7fa 04bc 3265 44bb
000000a0: 837a 23bc 4598 12bc 64d1 dbba 3bfc 2fba
000000b0: 2319 eeba 0818 a23d 960f 893d 010c 9e3d
000000c0: 04fa 173d 9a75 97bc 8667 573d d657 c2bd
000000d0: 5d0f 70bd 9c28 07be 304b eabd 405c cfbd
000000e0: a53d fbbd 956a 0ebe 6fdb dabd f355 21be
000000f0: 422e 74be 637b 55be 8486 70be 171f 9cbb
00000100: d8fe dc3b 32de ab3b e672 623a 188f d8bb
00000110: 34c9 3fbc 4bf6 20bc 40ff 0bbc 4518 dfbb
00000120: 5de4 24bd eccb e6bb e6e0 823c b0a1 9b3c
00000130: 8d8b f5bc 00b5 e9ba 1b26 80bd 1f5b 11bd
00000140: 8fe4 38bd eb20 d63d d22e c33d ac20 623d
00000150: 945a fd3c 5383 0d3c 3dc5 a23d 0352 363d
00000160: c8ec 1bbd 0801 cbbc 84c9 24bc 2d8a a6bc
00000170: d417 3d3b 3374 1cbc d7e4 303d 0f81 a53b
00000180: 9c75 843d 2039 413d ee3f ad3d fb99 1abc
00000190: 38d0 14bc 4b38 53bc d906 e7bb be0b 04bc
000001a0: 965d d2bb 7c20 c4bb 9a5b b3bb 4455 b3bb
000001b0: ac65 a53d 2d4a 793d 963c ed3b f0be f9bb
000001c0: f64a 073c f00d c33c bcec de3c c525 513d
000001d0: fa8c 893d a7ed 1a36 5a1a 8835 09fd 8135
000001e0: 0d05 95b6 6972 3eb6 6d3b 5bb6 7130 9f36
000001f0: 644a 8136 84d1 5436 d674 51bb 60a5 48bc
00000200: deff 13bc 4637 71bc 293c 37bb cc30 9dbc
00000210: f966 39bd 926e 4abd 3719 82bd 45c1 26bb
00000220: 6092 68bb 3409 123b c315 b33b f548 e2bb
00000230: d67a 333b 4bdf 143b 8039 9e3b bfea 2cbc
00000240: 35ae ccbc f3a7 e1bc 2d42 50bc fbc5 bbbc
00000250: d016 003a e8ea 06bd 70cd 2bba 1375 b6bc
00000260: 6b75 8cbb 0e1e 863d 9f1b cc3d c669 823c
00000270: 7fdf 5b3d 7596 843d 22f0 34bb e689 183c
00000280: 86e7 863d cda1 b3bb e446 24b6 7756 9db6
00000290: fb4b cbb6 6de5 80b6 d3d6 d0b6 9e04 c8b6
000002a0: f825 eab5 948f 68b6 b417 64b6 4aef d2bc
000002b0: eeae 1abd ff6f fdbc 2c81 78bd c176 ccbb
000002c0: e756 a4bd 0544 20bd b33e a9bd f101 f4bb
000002d0: b582 263c a105 febc ce62 a13c f568 603d
000002e0: 29f0 18bd 02f2 23bd 96fc 133d 02fa 323c
000002f0: a767 1abd be93 083c 50cd f0bb 9185 37bb
00000300: 0325 3f3a e5ed 3d3c 6dda 313c 2ffd c43b
00000310: 4ca5 9ebb a754 e83b 0f16 9a3b cf69 f93b
00000320: 15fe 0c3c 6747 303a f968 9bbb bc22 fb3a
00000330: 3b00 e03b ac34 183c 5d68 783c 1368 183e
00000340: d5fe d43d efaf 3d3d a6da e53b 8716 97bd
00000350: fb01 25bd 8b82 28be 7fd4 5fbe e97a 75be
00000360: 9b80 57bd 54c9 49bd 0375 80bd c173 66bd
00000370: a52a 2ebd 91f1 64bd f228 51bd 57c3 c2bc
00000380: f981 9cbc 786e 413c 9806 e0bb d5b8 0d3c
00000390: 8c54 223c 5eba 243c 9386 2a3c 35f1 91bb
000003a0: 63e7 d6bb d429 f7bb 1881 a23d e22e 963d
000003b0: a4a5 7b3d cc2f 953c 204d a4bb fb1e 043c
000003c0: ded4 b2bd ae50 10be 9f38 c8bd 61a2 27bd
000003d0: e8f8 1ebe 9738 35be d104 7b3c 90bd 70bd
000003e0: e92b e0bd 683a 1f3d c700 9aba a770 303c
000003f0: fea3 b6bd d84c 7abd 3f0f 90bd 3220 dbbd

conv3.bias f4 [48]
0.050896913 0.13965398 0.04830498 -1.3885599e-05 -0.00143132 -0.10811783 -0.07800606 0.0069802306
-0.09396312 -5.636199e-05 -9.7069955e-05 0.050648022 -0.08862069 -2.910174e-05 -0.06952522 -0.008140029
-0.067161664 0.03619828 -0.048692618 0.025969187 -5.9572125e-05 -0.014907426 0.05040567 0.023752525
-0.0001146026 0.012522523 -5.4143937e-05 0.14489762 -0.03509538 0.023322957 -6.478424e-05 -0.01113107
0.0073957792 -3.23419e-16 0.0061786654 3.3734577e-25 -0.020300698 0.049588505 -0.062060505 -0.04663041
-0.032697517 -0.005491387 -0.0010812939 0.14191633 0.045232482 0.11568926 -1.5653123e-06 0.10905361
00000000: 4879 503d 7401 0f3e 71db 453d 32f6 68b7
00000010: 219b bbba e16c ddbd a4c1 9fbd 6bba e43b
00000020: bc6f c0bd 3a66 6cb8 0992 cbb8 4d74 4f3d
00000030: c47e b5bd 831f f4b7 3d63 8ebd c25d 05bc
00000040: 0e8c 89bd a644 143d e971 47bd 55bd d43c
00000050: 15dd 79b8 473e 74bc 2d76 4e3d a894 c23c
00000060: cd56 f0b8 452b 4d3c 9c18 63b8 0b60 143e
00000070: 2cc0 0fbd c90f bf3c c6dc 87b8 175f 36bc
00000080: 4b58 f23b 3870 baa5 6776 ca3b 92ce d016
00000090: a64d a6bc 511d 4b3d 2833 7ebd 87ff 3ebd
000000a0: d5ed 05bd 18f1 b3bb 34ba 8dba 8452 113e
000000b0: b245 393d 7eee ec3d b917 d2b5 8057 df3d

fc1.weight f4 [60, 48]
0.03328254 0.2601316 0.054389123 0.012031328 -0.14322436 0.0046490487 -0.16047898 -0.10099994
-0.05523327 0.02022328 0.010886313 -0.12791574 0.16753106 0.00019709469 -0.02995801 -0.008020138
-0.09880545 0.09911641 0.023502983 -0.103553765 0.000309408 -0.1587288 -0.04695981 0.012641983
-0.026447142 0.014145143 -0.00014818436 -0.0002600465 -0.06872824 -0.0020910404 -0.0035683285 0.122548304
0.11172906 2.65e-43 -0.10233882 4.08195e-26 0.128346 0.091652386 -0.01213375 -0.046715505
0.009518668 0.02766291 -0.0010155975 -0.044908382 0.10541127 -0.0038259148 -0.00882471 0.15065695
-0.0319956 -0.00062785455 0.12517662 -0.012363402 0.038974 0.08833642 0.049624033 -0.1487371
-0.0537032 0.010486241 0.01077864 0.030993138 -0.1101189 0.00014957311 0.0046226946 0.1451262
-0.015527256 -0.04936155 -0.060312722 0.12923951 0.0027911605 0.2231928 -0.018331103 0.05903414
0.014837165 0.04746586 0.0017382785 0.14574362 0.13487072 0.030128485 -0.0037803343 -0.14504881
-0.057966426 7.952025e-06 -0.09363599 0.00012577501 -0.027834281 -0.18041351 -0.14341207 0.10593125
-0.11359472 0.012212513 0.026703421 -0.105495304 0.06464423 0.04178367 0.000936016 0.07433392
-0.0061360025 -0.050723594 0.101173334 -0.008519289 -0.01217575 -0.10194488 0.03374091 -0.041472964
-0.0331702 -0.0062897615 -0.034498055 0.11094637 0.11926419 -0.00028104053 0.07687179 -0.02520003
-0.09556814 -0.20371863 -0.010779163 0.07115981 0.0018294231 -0.08934476 -0.041224692 0.19121075
0.009077638 0.037349366 -0.0025142187 0.030587072 -0.10427115 -0.07644194 -0.0006063165 -0.041532315
0.004217854 -0.0059812036 -0.020107307 0.00046816384 0.009354749 -0.13500577 -0.131816 -0.004376823
-0.14079878 0.010068525 -0.04666184 -0.12526712 -0.17318396 -0.13392232 -0.011310221 -0.05492409
0.044190865 -0.23266008 -0.1239588 0.0015546515 -0.087005235 -0.12922107 0.04230953 -0.017654542
0.09206604 -0.01255615 0.045341413 0.2198902 0.020841897 0.00022481606 0.09347272 0.02676145
0.05461917 0.027161209 0.04266027 -0.045001432 0.05217176 0.11672995 0.0031405382 0.089704596
-0.032603644 -0.034931257 0.00077914644 0.05068043 -0.11483813 -0.14177239 0.0010645572 -0.033810314
0.06616087 -0.0007459706 0.064200796 -0.00025256877 -0.13455209 -0.0069265338 0.02669467 -0.038449097
-0.06111309 -0.019829867 0.05865743 0.009888376 -0.12390436 -0.042515934 -0.0021307243 -0.16236512
0.119289175 0.085953705 0.10058242 0.00028049888 -0.053405207 -0.14187187 -0.16854641 -0.05181019
-0.17711893 -0.06067558 -0.018135425 0.1084731 -0.054355834 -0.0002290045 -0.032654 0.013387693
-0.10863594 -0.02411519 0.03590384 0.044040136 0.041254874 0.14875682 0.114426926 0.12637897
0.02592605 0.04344947 -0.0005387247 0.15578416 -0.1569126 -0.11488607 0.00018159472 -0.03421748
-0.0039602686 0.025012372 -0.018757664 3.105339e-13 -0.13079298 -0.09741 -0.19523261 -0.004444195
-0.1263077 0.07824058 0.0016024703 0.112157814 -0.039446037 0.07960315 0.001141579 0.06524554
-0.026695399 0.011004213 0.08858885 -0.011622778 0.12560649 0.16140153 -0.053532466 -0.17557898
-0.0859798 -0.0075209117 0.01890995 0.10848122 0.10223841 -5.5328605e-05 -0.07531483 -0.104298845
00000000: 4653 083d f82f 853e 21c7 5e3d 0c1f 453c
00000010: 68a9 12be 0c57 983b 9a54 24be 0ed9 cebd
00000020: 483c 62bd 4bab a53c 825c 323c 58fc 02be
00000030: 438d 2b3e 34ab 4e39 806a f5bc e666 03bc
00000040: 835a cabd 8bfd ca3d 5489 c03c ff13 d4bd
00000050: 0a38 a239 cd89 22be ee58 40bd 5220 4f3c
00000060: ada7 d8bc 08c1 673c f061 1bb9 da56 88b9
00000070: 64c1 8cbd d609 09bb 9eda 69bb 9bfa fa3d
00000080: 35d2 e43d bd00 0000 0497 d1bd dd20 4a15
00000090: 226d 033e 3fb4 bb3d a3cc 46bc c258 3fbd
000000a0: 30f4 1b3c 549d e23c cc1d 85ba daf1 37bd
000000b0: dde1 d73d 33bc 7abb 8495 10bc d145 1a3e
000000c0: d10d 03bd 9b96 24ba 4d2e 003e de8f 4abc
000000d0: 33a3 1f3d bae9 b43d 9242 4b3d 8a4e 18be
000000e0: e3f7 5bbd 7cce 2b3c e598 303c 52e5 fd3c
000000f0: 0586 e1bd bad6 1c39 f979 973b f69b 143e
00000100: 0866 7ebc 562f 4abd 790a 77bd 5d57 043e
00000110: e7eb 363b a78c 643e 1c2b 96bc c8cd 713d
00000120: 9517 733c 906b 423d f3d6 e33a d13d 153e
00000130: 8d1b 0a3e 03d0 f63c 7cbf 77bb ad87 14be
00000140: 346e 6dbd b069 0537 3ac4 bfbd 79e2 0339
00000150: b804 e4bc 52be 38be 9dda 12be 7cf2 d83d
00000160: 59a4 e8bd fe16 483c 22c1 da3c ec0d d8bd
00000170: 3264 843d 5b25 2b3d f85e 753a 623c 983d
00000180: 8510 c9bb 8bc3 4fbd f733 cf3d 7d94 0bbc
00000190: cc7c 47bc 7ac8 d0bd e933 0a3d 8edf 29bd
000001a0: 7add 07bd 581a cebb d54d 0dbd da37 e33d
000001b0: c940 f43d 9f58 93b9 f56e 9d3d 4b70 cebc
000001c0: 3bb9 c3bd 9e9b 50be 169b 30bc 3cbc 913d
000001d0: 41c9 ef3a 63fa b6bd 39db 28bd c0cc 433e
000001e0: 60ba 143c a6fb 183d 97c5 24bb bd91 fa3c
000001f0: 1d8c d5bd 988d 9cbd 36f1 1eba ca1d 2abd
00000200: ec35 8a3b f9fd c3bb 14b8 a4bc e373 f539
00000210: a944 193c f43e 0abe c6fa 06be 746b 8fbb
00000220: 8e2d 10be 74f6 243c 7c20 3fbd 0646 00be
00000230: 2357 31be ef22 09be 814e 39bc 15f8 60bd
00000240: 7b01 353d 723e 6ebe 1dde fdbd 73c5 cb3a
00000250: cd2f b2bd 8752 04be c24c 2d3d 42a0 90bc
00000260: 1f8d bc3d 4fb8 4dbc ebb7 393d e62a 613e
00000270: a0bc aa3c 9abc 6b39 a06e bf3d d43a db3c
00000280: 5ab8 5f3d 2f81 de3c 89bc 2e3d 6c53 38bd
00000290: 0eb2 553d 1d10 ef3d 7dd1 4d3b 0bb7 b73d
000002a0: 668b 05bd 1414 0fbd a23f 4c3a 4896 4f3d
000002b0: 4130 ebbd c82c 11be 9d88 8b3a af7c 0abd
000002c0: 5a7f 873d 3d8d 43ba b57b 833d 356b 84b9
000002d0: 06c8 09be faf7 e2bb c8ae da3c cd7c 1dbd
000002e0: b851 7abd 3f72 a2bc c642 703d db02 223c
000002f0: 92c1 fdbd 3025 2ebd 9fa3 0bbb 0b43 26be
00000300: e24d f43d 7f08 b03d 28fe cd3d ec0f 9339
00000310: 6bbf 5abd dc46 11be 6e97 2cbe ec36 54bd
00000320: aa5e 35be f586 78bd be90 94bc 2527 de3d
00000330: 39a4 5ebd ed20 70b9 33c0 05bd 0e58 5b3c
00000340: 857c debd 388d c5bc e80f 133d 6e63 343d
00000350: dffa 283d b553 183e aa58 ea3d 7d69 013e
00000360: de62 d43c 12f8 313d 3439 0dba e285 1f3e
00000370: b2ad 20be 6349 ebbd 766a 3e39 a127 0cbd
00000380: 24c5 81bb bfe6 cc3c aca9 99bc a7d0 ae2a
00000390: 98ee 05be e57e c7bd 0feb 47be 9ca0 91bb
000003a0: ce56 01be 993c a03d fb09 d23a ffb2 e53d
000003b0: 2b92 21bd fa06 a33d 09a1 953a 749f 853d
000003c0: 4fb0 dabc 044b 343c 126e b53d 776d 3ebc
000003d0: fd9e 003e 7146 253e dc44 5bbd faca 33be
000003e0: 2d16 b0bd fb71 f6bb 0ae9 9a3c 672b de3d
000003f0: 5f62 d13d a310 68b8 a93e 9abd a29a d5bd

fc1.bias f4 [60]
0.05336978 0.10615311 0.101248495 0.0024331622 0.28226948 -0.051431872 -0.03274785 0.124133565
0.16919418 -0.0494223 0.16153707 -0.00025777705 -0.007655136 0.0625521 0.07732326 -0.037085284
-0.0006530085 0.07119233 0.10967613 0.054018166 0.13055609 -0.0001023331 0.1490571 0.016324433
-7.04853e-40 0.10765196 -1.266193e-05 0.084765665 0.082128316 0.1524356 0.07261217 -0.0021057392
-0.047319263 0.20328222 -0.12071655 0.085219465 0.104631126 -0.01505104 0.25269398 -0.12140514
-0.009532038 -0.027394043 0.09803139 0.061427835 -0.048871275 -0.046288818 0.17482185 0.14505821
-0.004886699 0.08144998 -0.019373827 0.03461279 -0.06232585 -0.00022176008 0.112477124 0.008885476
0.013693733 0.04317228 -0.061027043 -1.5046658e-06
00000000: 459a 5a3d cd66 d93d 5f5b cf3d b075 1f3b
00000010: a085 903e 3aaa 52bd 9c22 06bd bd39 fe3d
00000020: 3d41 2d3e 0a6f 4abd f969 253e 4026 87b9
00000030: efd7 fabb 511b 803d a85b 9e3d bde6 17bd
00000040: a92e 2bba 49cd 913d e19d e03d 2742 5d3d
00000050: 7fb0 053e aa9b d6b8 6da2 183e d1ba 853c
00000060: d8ac 0780 a178 dc3d 936e 54b7 9f99 ad3d
00000070: e432 a83d 1418 1c3e b0b5 943d 7100 0abb
00000080: d8d1 41bd 3729 503e 3d3a f7bd 8b87 ae3d
00000090: d848 d63d a398 76bc 1b61 813e 42a3 f8bd
000000a0: 442c 1cbc 7969 e0bc aec4 c83d c19b 7b3d
000000b0: 3f2d 48bd 5899 3dbd 8004 333e 248a 143e
000000c0: 9a20 a0bb 3fcf a63d dcb5 9ebc 24c6 0d3d
000000d0: 6449 7fbd 4588 68b9 685a e63d 6394 113c
000000e0: ae5b 603c 6bd5 303d 7ef7 79bd ecf3 c9b5

fc2.weight f4 [10, 60]
0.15813687 0.048924927 -0.1928197 -0.31089306 0.11619926 0.029841466 0.02828573 -0.0017452188
-0.0880297 -0.15562895 0.11589674 0.020383991 0.0008840051 0.018620517 0.15546356 -0.06111452
0.0007525712 -0.12877043 -0.14022183 -0.058006957 -0.20157574 0.025823953 0.0051005557 -0.07446699
1.9335657e-05 0.14328204 0.0021200362 0.11157665 0.0997558 -0.013909386 0.11812501 0.039906003
-0.128573 0.14192215 -0.22309384 0.0005945863 0.14454964 -0.18551165 -0.18591388 0.08823161
-0.007100856 0.04630233 0.09888262 0.017262299 -0.044192806 -0.18955122 0.34965104 0.069785506
0.07865361 -0.0021388521 -0.34432346 0.058906574 -0.17945851 -0.0024616895 0.12264808 0.03133888
-0.027254058 0.06750777 -0.21958852 0.00063276466 -0.20454518 -0.01530183 -0.11108845 -0.022766536
-0.07382226 -0.110702954 -0.023777489 0.05896033 -0.018026289 0.0843616 -0.092998795 0.0036539056
-0.021081196 -0.2555657 -0.13592754 0.009144492 -0.003028788 -0.058038063 0.08560463 -0.17338753
-0.054616008 -0.006375153 -0.07834847 -0.10710979 -1.2883543e-05 -0.08342327 0.0020372686 -0.03128207
0.033735782 -0.08038895 -0.18838978 -0.029035887 0.11425332 -0.068078555 0.07033925 0.0475091
0.16009183 0.11446168 -0.1541754 0.05973165 -0.25213313 -0.06554793 0.004188581 -0.07743644
0.056002513 0.03280872 0.08236567 -0.14303039 -0.08599482 0.0883925 -0.026977982 -0.15443358
-0.02924579 -9.245532e-06 0.010091884 0.14487712 0.08046334 -0.085689716 -0.20481557 -1.8747623e-05
-0.0248696 0.07843825 0.15293397 -0.023265922 0.08467378 0.014414679 -0.3420591 0.06695015
-0.053123318 -0.03533646 -0.039884582 -0.0011212414 -0.00079037173 0.060677055 0.024883345 -0.016042108
-0.0010446147 -0.07749863 0.12542601 0.10965224 -0.033029146 -1.4237148e-05 0.0794646 -0.14744528
-3.809994e-32 0.039900232 0.012105565 -0.025403727 -0.007895623 -0.016316222 -0.038922064 -0.051692765
-0.021620972 0.04390336 -0.22255144 -0.0038159722 -0.013180867 -0.15931347 0.08679913 0.00890991
0.09601244 0.023044258 0.04733634 -0.07779523 0.0020115282 0.1011452 -0.00037041627 0.029206922
-0.14126168 -0.19097465 -0.22009784 -0.08765366 0.0860692 -2.3913864e-05 -0.005107513 -0.13065201
0.031351082 -0.032027215 -0.11816413 -4.7325073e-05 -0.017320236 0.0974423 0.13004942 -0.013890999
-0.08390783 0.06954683 0.06971537 0.06351057 -0.29235855 0.11848247 -0.070399374 -0.011952424
-0.013112679 0.034136686 -0.03588711 0.02101681 0.009077286 -0.067847215 0.11926858 0.0890803
-0.28598443 -0.0023167427 -0.24239127 -0.07659098 1.40124075e-05 0.05702578 0.0026881446 -0.040830757
0.0035851644 -0.13516466 -0.04006084 -0.01685714 0.11246228 -0.054056894 -0.0045252466 0.05368579
-0.025259836 -0.13685466 -0.19253317 0.105353616 0.07573513 -0.042273946 0.19468081 -0.15052924
0.053870555 0.08503687 -0.0040879208 0.065837175 0.004693069 0.09459819 -0.26653978 -0.08772481
0.065059304 -4.9761184e-06 -0.08575481 -0.046604596 0.051248495 -0.23754835 -0.16608155 4.3205764e-06
-0.20734306 0.06183029 0.029160695 -0.06686372 0.13659994 -0.090620324 -0.13793857 0.057054225
0.09513749 0.11118666 -0.18847272 -0.0017784128 -0.022792898 -0.13809597 -0.019531455 0.01339393
00000000: a2ee 213e 8165 483d 8772 45be 602d 9fbe
00000010: e1f9 ed3d 1776 f43c 7ab7 e73c d3bf e4ba
00000020: ea48 b4bd 325d 1fbe 455b ed3d 54fc a63c
00000030: 94bc 673a 0e8a 983c d731 1f3e 3853 7abd
00000040: 3348 453a 65dc 03be 5096 0fbe b498 6dbd
00000050: df69 4ebe c18c d33c 9022 a73b 2682 98bd
00000060: 0233 a237 87b8 123e 4ef0 0a3b 4c82 e43d
00000070: c54c cc3d 31e4 63bc 86eb f13d 7a74 233d
00000080: a4a8 03be 0a54 113e b672 64be 03de 1b3a
00000090: d204 143e c4f6 3dbe 3560 3ebe c6b2 b43d
000000a0: 4cae e8bb 83a7 3d3d f982 ca3d aa69 8d3c
000000b0: 8403 35bd b719 42be 7605 b33e b4eb 8e3d
000000c0: 2515 a13d fc2b 0cbb 2a4b b0be 0548 713d
000000d0: f9c3 37be 4c54 21bb eb2e fb3d 335d 003d
000000e0: e743 dfbc 8441 8a3d d0db 60be 1ee0 253a
000000f0: 4b74 51be 87b4 7abc 5782 e3bd e380 babc
00000100: 2030 97bd 3bb8 e2bd 02c9 c2bc 6380 713d
00000110: deab 93bc c6c5 ac3d 2776 bebd 5d76 6f3b
00000120: 79b2 acbc 82d9 82be 9730 0bbe c8d2 153c
00000130: a17e 46bb 52b9 6dbd 7b51 af3d 808c 31be
00000140: 09b5 5fbd a9e6 d0bb 2a75 a0bd 615c dbbd
00000150: 6526 58b7 d2d9 aabd b283 053b a121 00bd
00000160: 882e 0a3d f6a2 a4bd 40e9 40be abdc edbc
00000170: a5fd e93d c56c 8bbd 060e 903d e798 423d
00000180: 1def 233e e36a ea3d 28e0 1dbe 2da9 743d
00000190: 9817 81be fe3d 86bd 5d40 893b ff96 9ebd
000001a0: e462 653d 7062 063d 55af a83d 8f76 12be
000001b0: 0d1e b0bd 2107 b53d ee00 ddbc d623 1ebe
000001c0: de94 efbc 421d 1bb7 6e58 253c ab5a 143e
000001d0: f7c9 a43d 177e afbd 2cbb 51be 3744 9db7
000001e0: 55bb cbbc 3ca4 a03d b99a 1c3e 2d98 bebc
000001f0: 7269 ad3d 8c2b 6c3c 5f22 afbe 291d 893d
00000200: d697 59bd f7bc 10bd 045e 23bd 9ef6 92ba
00000210: f330 4fba 8188 783d 28d8 cb3c bd6a 83bc
00000220: 74eb 88ba 9ab7 9ebd ad6f 003e 5b91 e03d
00000230: 9249 07bd 16dc 6eb7 56be a23d e5fb 16be
00000240: 82d3 458b 6d6e 233d 6b56 463c 7a1b d0bc
00000250: a55c 01bc 99a9 85bc be6c 1fbd cbbb 53bd
00000260: 771e b1bc 02d4 333d 86e4 63be 6415 7abb
00000270: 90f4 57bc 1223 23be bec3 b13d dffa 113c
00000280: 2ca2 c43d 50c7 bc3c c0e3 413d 1b53 9fbd
00000290: d8d3 033b 3725 cf3d 6e34 c2b9 5b43 ef3c
000002a0: e7a6 10be dc8e 43be 5461 61be c383 b3bd
000002b0: 0c45 b03d a29a c8b7 ed5c a7bb a4c9 05be
000002c0: fe69 003d f82e 03bd 0900 f2bd e97e 46b8
000002d0: 2be3 8dbc d48f c73d ad2b 053e 1397 63bc
000002e0: ded7 abbd 926e 8e3d efc6 8e3d d411 823d
000002f0: 05b0 95be f0a6 f23d 8c2d 90bd 1ad4 43bc
00000300: 90d6 56bc e9d2 0b3d 5dfe 12bd 722b ac3c
00000310: e6b8 143c 7bf3 8abd 1643 f43d bb6f b63d
00000320: 8d6c 92be 7ed4 17bb 6b35 78be bbdb 9cbd
00000330: d516 6b37 dd93 693d 952b 303b 273e 27bd
00000340: 14f5 6a3b 9b68 0abe d616 24bd fc17 8abc
00000350: a052 e63d c36a 5dbd 8548 94bb a2e5 5b3d
00000360: b7ed cebc a123 0cbe 6a27 45be a3c3 d73d
00000370: 051b 9b3d 7227 2dbd 685a 473e 5624 1abe
00000380: 5fa7 5c3d cf27 ae3d f7f3 85bb a4d5 863d
00000390: 51c8 993b b2bc c13d e777 88be 11a9 b3bd
000003a0: d03d 853d 88f8 a6b6 38a0 afbd 76e4 3ebd
000003b0: f1e9 513d e03f 73be 4811 2abe 78f9 9036
000003c0: bd51 54be c241 7d3d 69e2 ee3c d9ef 88bd
000003d0: dbe0 0b3e 2697 b9bd c53f 0dbe b1b1 693d
000003e0: 72d7 c23d d5b5 e33d fefe 40be a219 e9ba
000003f0: 2cb8 babc 0869 0dbe 6e00 a0bc 3772 5b3c

fc2.bias f4 [10]
0.18975005 -0.14497583 0.207399 -0.22691242 -0.19671258 -0.11922763 -0.21957004 0.14525543
-0.10006367 0.22157508
00000000: d64d 423e 8b74 14be 6760 543e bb5b 68be
00000010: 066f 49be 9e2d f4bd f8d6 60be d7bd 143e
00000020: 2eee ccbd 94e4 623e
