Trained/dense_GRU.pth (torch, 770017 bytes, 72 tensors)

gru.weight_ih_l0 f4 [96, 171]
00000000: c778 30be c45d 27bd a00e d6bc 05ab e6bd
00000010: ba87 61bd a368 343e 5361 ab3d 5f5d 32be
00000020: af9c f8bd a483 97bd 2318 313e d510 8d3d
00000030: 0d2e 20be 4652 0bbe 32ec ffbd b4d8 30be
00000040: 29c0 f0bd c194 3f3c cf73 b13c 4170 eebd
00000050: e406 acbd 8e46 84bc 21af 323e 8c36 87bd
00000060: dc6d 3c3d f67b e03d 11d5 0fbb de27 cd3d
00000070: 44e7 053e 2b12 dbbd a5e4 19be d44b bebd
00000080: 2dbb debd 4eca d4bd de44 0fbe e5da 2f3d
00000090: e181 0dbe 5a93 f0bd 82b3 ed3c cd43 bc3d
000000a0: 5009 99bd 3553 babd 06fa e4bd 8bc2 efbd
000000b0: 8daf b63d 9228 313e 37ce 0abe ee0a a63d
000000c0: bf99 a13d 20d7 19be 7dee d43d 32d7 adbd
000000d0: 9e05 943d cdc2 ec3d da5b 91bd 414d 033c
000000e0: d292 abbc 39f9 2c3c 383e 1a3e 6bfd a8bb
000000f0: 2871 1bbe 2aae d63c dead 8a3d 0c2d 253d
00000100: b9ca cbbd d06e b7bc 72af 06be 2b96 90bd
00000110: 3702 f1bd 6875 323e 5871 f3bd b768 333e
00000120: 41e5 05be 18f6 0abe 86c1 163c 3553 0ebe
00000130: 9b05 a03d 04da 31be a602 81bd 6ffb d0bc
00000140: e010 14be 704a 06bd 0212 c9bd 093a 763d
00000150: 1b0b b039 8ccb 0bbc 244b eabd bcc4 ab3c
00000160: 07fe 753c 51bc 213e dbda 2abd 543b 883b
00000170: 3679 2bbe ce12 0fbe 026f 8bbd 2dab 803d
00000180: c302 9b3d f9ce b13d ddf1 f6bd e6cc 1c3e
00000190: f227 313e cdff 4b3d 99bf 973c 9f1b 06bd
000001a0: 767d 903d 065b 9fbd f6c8 773d fb82 2d3e
000001b0: f6d5 6dbd aeb3 f2bd 0254 a73d 8b0a 17bd
000001c0: a53e 013e d015 e03d d0b1 34be 395d 40bd
000001d0: 1cfb 2bbe 2075 ac3b e3d3 d83d db1d 95bd
000001e0: 7b86 da39 0a7b 153e d860 323e de26 f93d
000001f0: d3b8 4dbd c08f 103e 3fe1 64ba 7db5 19be
00000200: e501 f63c 9714 143e 32a5 59bc 51da ce3d
00000210: be16 23bc 7bc8 423d f2fc b93c 152d fc3d
00000220: 27ca e7bd 7e58 ff3d d482 213c ca47 2c3e
00000230: f6aa 293e f5e5 2b3e a536 04be 5a40 3fbd
00000240: f98c a3bd 0ded 163e 24d8 a0bd 295b c73d
00000250: f673 073b 1331 90bd 7ca8 0abe 26a6 b0bd
00000260: c823 183e fad0 19be d6c5 f83d 9c80 de3d
00000270: 70d6 3d3d e764 f43d fb87 1fbd 3457 fb3d
00000280: 2cc9 debd bdb5 533c e0b0 913d 2e53 cfbd
00000290: 4914 31be abf9 c6bd 3489 fbbc bfa0 b8bd
000002a0: 3e7c 083e 8119 8bbd 002c 00be c425 2b3e
000002b0: ccd1 10be afdc 853d 5fcb ab3b a26d 773d
000002c0: b3c4 373d d6a7 c0bd 54d8 06be cb9e 10be
000002d0: f237 34be 4cbe f73d 5b77 9ebd 8797 b63c
000002e0: c379 15be e178 bd3a abe5 cdbd c915 cdbd
000002f0: 9659 b33c ff6c e2bd 58c7 013c 0c16 713c
00000300: 2b42 4d3d f257 113e 8058 7a3c 92ef ae3a
00000310: a4c6 353d 80e2 84bd a261 46bd 7f62 bfbd
00000320: e076 2f3e 6a79 be3d 2765 81bd 44d3 273e
00000330: b717 73bd d026 3cbd b755 13be 1e66 5a3d
00000340: df08 203e 0fb6 1dbe c518 333e 6a86 053e
00000350: 5db1 0fbe d744 d63d fbd8 24be 7a1f 35bd
00000360: 2028 503c 44d6 3abd cb95 643d 839f c33d
00000370: 03b8 d1bd 828a 843d 60fd 32be b36c eb3d
00000380: 3fc1 acbd ca8d e63c ee62 2c3d 8c29 b5bd
00000390: 82c0 ca3d fb4e 593c 29e7 183e eb37 cf3d
000003a0: 5ef5 e0bd 3262 263e f28e e9bc 042a 1c3e
000003b0: cc15 87bc 1067 d9bd 3e0e 073e 7388 c53d
000003c0: 3949 22bd 4039 0cbd e918 143e 6524 0c3e
000003d0: cb33 273d 4be8 083e 168c 823d 2332 213d
000003e0: 3601 54bd 7ae8 5abc 2915 4ebd 0f74 063e
000003f0: c9a1 923c 94d9 113e 5652 a03d 1f92 61bd
-0.17233573 -0.040860906 -0.02613002 -0.11263088 -0.05506108 0.1761804 0.083681725 -0.17418431
-0.1213926 -0.07398155 0.17294364 0.06887976 -0.15642567 -0.13605604 -0.124962226 -0.17270166
-0.11755402 0.011693181 0.021661667 -0.116425045 -0.08399752 -0.016146924 0.17449619 -0.06602201
0.046003208 0.10961144 -0.0021947066 0.1001737 0.13076502 -0.10696825 -0.15028627 -0.09291807
-0.10875545 -0.10390149 -0.13991114 0.042933363 -0.13819076 -0.11746855 0.02901626 0.091926195
-0.07472479 -0.09097902 -0.11180501 -0.11707028 0.089202024 0.17300633 -0.13555227 0.081075534
0.07890653 -0.1502347 0.103970505 -0.08488311 0.07227634 0.11560593 -0.070975974 0.008014024
-0.020944033 0.010557466 0.15062797 -0.005157163 -0.15179884 0.026206095 0.06771444 0.040326163
-0.09950776 -0.022391707 -0.13152865 -0.07059892 -0.117680006 0.174276 -0.11886853 0.17520414
-0.13075735 -0.1357044 0.009201413 -0.13898928 0.07813569 -0.17368323 -0.06299333 -0.025510518
-0.14459562 -0.032785833 -0.09817888 0.06011394 0.0003357761 -0.008532416 -0.11440113 0.020967834
0.015014178 0.15794493 -0.041712623 0.004157463 -0.16745457 -0.13972017 -0.068082824 0.06282649
0.07568886 0.08682055 -0.120578505 0.15312538 0.17300394 0.049804498 0.018523978 -0.032741185
0.0705518 -0.07781033 0.060494386 0.16944496 -0.058065377 -0.118506774 0.0817032 -0.03687529
0.12621553 0.109416604 -0.17645955 -0.046963904 -0.1679501 0.005262986 0.10587289 -0.07281085
0.00041680396 0.14597717 0.17419755 0.121656165 -0.05022509 0.14117336 -0.0008731074 -0.15010639
0.0300302 0.1446098 -0.013284015 0.10100234 -0.009954153 0.047554474 0.022703622 0.12313286
-0.113178544 0.124680504 0.009857852 0.1682426 0.16569123 0.1678694 -0.1291147 -0.04669223
-0.07985873 0.14738865 -0.078537256 0.09734184 0.0020668483 -0.0704061 -0.13540834 -0.0862544
0.148574 -0.15021124 0.12147109 0.10864374 0.04634708 0.11933308 -0.03894804 0.12272492
-0.10878214 0.012921748 0.07113814 -0.10123287 -0.17292894 -0.09715589 -0.030705072 -0.09015035
0.13328645 -0.06791974 -0.12516785 0.16713625 -0.14142531 0.06536233 0.0052427496 0.06040729
0.04486532 -0.09407012 -0.1316846 -0.14123075 -0.17599466 0.12096843 -0.07737609 0.02228905
-0.1459723 0.001445558 -0.10053571 -0.10013921 0.021893304 -0.110559456 0.007921062 0.014714729
0.05011193 0.14193705 0.015279889 0.0013346544 0.04437889 -0.06488514 -0.048432954 -0.093449585
0.17135191 0.09300502 -0.063181214 0.16389185 -0.059348788 -0.045935452 -0.14388166 0.053320043
0.15628384 -0.15401481 0.17489918 0.13039556 -0.14032502 0.10462349 -0.16098396 -0.04421947
0.012704879 -0.045614496 0.055806916 0.09551909 -0.102401756 0.06471731 -0.17479467 0.11495342
-0.08435296 0.028143782 0.042086534 -0.08845815 0.09899999 0.013263459 0.1493193 0.101180874
-0.109843 0.16248396 -0.028510544 0.15250403 -0.016489886 -0.10615361 0.13189027 0.09645166
-0.03962061 -0.034234285 0.14462627 0.13685758 0.040820878 0.13369863 0.063743755 0.039354455
-0.051758967 -0.013361091 -0.05031315 0.1313021 0.01789941 0.14243156 0.07828204 -0.055070993

gru.weight_hh_l0 f4 [96, 32]
00000000: 7e1b 773a db90 1cbd 1a3c 183d 89a1 083e
00000010: bb01 563d 775b e4bd 8bba be3c b8b2 89bd
00000020: f479 ca3c 5754 07be 0c7b eb3d 7869 a0bd
00000030: 6de9 153e 8011 ef3d 9303 22be 2fe1 d73d
00000040: 5cf0 23b9 cb59 b2bd 20f6 223e 9ec7 b6bd
00000050: 42e5 10be 2749 16be b86c 1abe 4085 66bd
00000060: 5b6d 5d3c 670b 293e 277f b33d c9d6 27bb
00000070: 0846 e03d d9b1 fa3d 2134 173c fc4d 34bc
00000080: 0538 a7bc 3aa7 f73c c271 493c 6410 babd
00000090: 43cc 5bbc 10c4 2abe 3e69 ed3d d7e5 67bd
000000a0: 46af db3d b39c 2dbe e916 273e d8d6 adbd
000000b0: 1392 da3d 10f2 033e 57c6 f9bd be44 203e
000000c0: 2821 323e 3d56 95bc 1356 46bd eb1c f93d
000000d0: 9481 cabd c6c8 1abc d576 1fbe 3269 183d
000000e0: 3e68 a03d 7268 8ebc 13bf 263e a52d fcbd
000000f0: 8dd0 363d b7f0 c53d 6f91 d03d 4d52 07bd
00000100: c890 8e3d a656 23be 4ec1 dbbd ab28 ae3d
00000110: a216 d9bc 42e6 fbbd 9279 1a3c 18bd a43b
00000120: b315 30be 5566 fabd e7fe 253e b233 2dbe
00000130: 6aea d0bd 70b0 683c 285e 11be 8dff 0e3e
00000140: df3b 1b3d fabb 983d 4a24 883d 21ba 173c
00000150: c81a e73d 81d5 873c 6324 05be 89a9 e0bd
00000160: 2297 14be 4346 af3c dac1 d93d 9dd6 10bc
00000170: b1be 8f3d c744 01bd fd43 23bc 8a98 c23d
00000180: a525 2fbe fbf2 1f3e 2ed8 efbd e6bb f5bc
00000190: 9e06 e83d f6e6 c13d aae6 043c 6ce3 163e
000001a0: bb91 bc3b 29df 7cbb 9c85 cbbd 364a 123e
000001b0: e685 d1bd b6b9 4dbb 2c96 80bd 3343 563d
000001c0: ef36 2d3e 648d d83d 7dd8 27be a00d 113d
000001d0: e116 723c 43f5 43bc 1f22 dfbd 20da 033d
000001e0: 123f 01be 87bd 3d3d ea7f 27bc 2cad 67bd
000001f0: c6f6 ebbd de4a c6bd 272a e73c 1d64 9ebd
00000200: dfb4 1dbe 2e9d f93c 576e 21be d751 d23d
00000210: f1f4 c3bd fb4d 66bd 0c55 073e 017a a9bd
00000220: 574d afbd 025c 2ebd c6bc 113e 29c9 27be
00000230: 94f4 a0bc 4729 daba 9960 273e 3afd 2fbe
00000240: c0aa 96bd 46a0 65bd a292 9d3d d089 8c3d
00000250: d401 733d 3624 99bd d2ba 883d 4d8f 95bd
00000260: adbd b5bd 63a1 b63d 5b06 23be 04b8 1c3e
00000270: 3834 163e 67c2 2abe 4feb 8b3d 0764 0d3e
00000280: 9fbb c63d 2b09 f53d dd7a 873c cac1 91bd
00000290: 6865 f6bd c120 d33d 625d 093c a2f2 2d3e
000002a0: 2daf cd3d 29b6 603c 49c4 2dbe f86f 9d3d
000002b0: 910b a7bd 47a8 ca3c 05d6 2ebe 7da5 19be
000002c0: 5b92 adbc fcdd abbd dea3 ccbd 1c52 ef3d
000002d0: 4a2d 3d3d 5082 1d3e c7cd 23be 1178 0d3e
000002e0: 8791 643d 0d36 28be 9bec d0bd 53a7 2cbe
000002f0: 6614 e13c 2dea 16be f9e4 cebd bcf2 c9bd
00000300: 5d40 bf3d 098f bbbd f424 1b3e 4130 9e3d
00000310: 6c00 fe3d 03bf cebb c401 9d3d 7aed dbbd
00000320: 5e47 09bd 16c1 ee3d 5fc9 9b3c 2f58 ef3d
00000330: a61b 1dbe 0458 09bd 86c3 49bd 8648 2b3e
00000340: e5ad c03d 85ac e83d 171c fe3d 8504 00be
00000350: 95fc 32be d8f4 043e 7030 9c3d 6fc6 803d
00000360: 4bb4 f7ba 37fa 56bd 8e04 c23c aed6 853d
00000370: 01a3 c2bd 8aa8 2cbc dd15 2abe 470c 95bd
00000380: 34f1 fa3c a105 233e 000b 093e 36c4 26be
00000390: 5b0f d1bd 55d3 f43c 11aa 56bd da51 d1bd
000003a0: b050 063e 2b82 9a3d 2584 fdbd c604 d6bd
000003b0: 52c8 e83d a2f2 30be bf9f b63d 2650 0d3d
000003c0: 16f8 a03c a6b8 0abb a2c4 06be f0b8 0b3e
000003d0: a40f c33d 1dbb a1bd 9c0e 1cbe 4956 19be
000003e0: 636b 1c3e ec4f 913c f3ca 01be 9479 cebd
000003f0: e4d1 d83c 5617 c9bd 6fd9 c9bb d731 23be
0.0009426399 -0.038224082 0.037166692 0.13342871 0.052247744 -0.11150258 0.02328231 -0.06723541
0.024716355 -0.13215767 0.11498079 -0.078326166 0.14639826 0.1167326 -0.15821676 0.10540997
-0.00015634432 -0.08708533 0.15914202 -0.08924793 -0.14149955 -0.14676343 -0.15080535 -0.05627942
0.013514842 0.16508256 0.08764487 -0.00256102 0.109508574 0.12240953 0.009228737 -0.011004921
-0.020412454 0.030231107 0.012295188 -0.090851575 -0.013415399 -0.16676354 0.11592339 -0.056615677
0.1072679 -0.16954307 0.16317333 -0.08488244 0.10672393 0.12885308 -0.121960334 0.15651223
0.1739546 -0.018229598 -0.04842193 0.12163719 -0.09887996 -0.009447282 -0.15572675 0.037209697
0.078323826 -0.017383788 0.16283827 -0.123133935 0.044632483 0.09665053 0.10183989 -0.033037473
0.069612086 -0.15951023 -0.10730229 0.085038505 -0.02650005 -0.122997776 0.009428399 0.0050274245
-0.17195778 -0.122265495 0.16210519 -0.16914251 -0.10200961 0.014202222 -0.14196074 0.13964672
0.037898894 0.07457729 0.066475466 0.009260685 0.11284405 0.016581299 -0.13002162 -0.10969836
-0.14510778 0.021395808 0.106326774 -0.00884023 0.070187934 -0.03155973 -0.00996494 0.09501751
-0.17104204 0.15620033 -0.11711155 -0.029996824 0.11329387 0.094678804 0.008111635 0.14735192
0.005754677 -0.0038585162 -0.09937593 0.14286122 -0.10230617 -0.003139121 -0.06278643 0.05231018
0.16915487 0.10573843 -0.16391177 0.035413384 0.014775963 -0.01196033 -0.1089518 0.032190442
-0.12621716 0.046323325 -0.010223368 -0.056561634 -0.11521678 -0.096822485 0.028218342 -0.07733939
-0.15401028 0.030470457 -0.15764748 0.10269516 -0.09568203 -0.05622671 0.13216037 -0.082752235
-0.08559673 -0.042568214 0.14232168 -0.1638533 -0.019647874 -0.0016644382 0.16345443 -0.17186442
-0.07356787 -0.05606105 0.076939836 0.06862223 0.059327915 -0.0747761 0.06676258 -0.07302723
-0.088740684 0.08917501 -0.15920393 0.15304571 0.14668357 -0.16675721 0.06831991 0.13807689
0.09703755 0.11964639 0.016538078 -0.071170405 -0.120310605 0.10308982 0.008384081 0.16987088
0.10043178 0.013715305 -0.16969408 0.07687372 -0.08156503 0.024738444 -0.1707383 -0.15004535
-0.021187952 -0.083919495 -0.09992193 0.11685583 0.04618577 0.15381742 -0.15996467 0.13815333
0.05580285 -0.16426869 -0.10201379 -0.16860704 0.027475547 -0.14737768 -0.10102267 -0.09860751
0.09338448 -0.09158141 0.15150815 0.077240475 0.12402424 -0.0063093915 0.076663524 -0.107386544
-0.033515327 0.11657922 0.01901692 0.116867416 -0.15342578 -0.033531204 -0.04925873 0.16726884
0.09408168 0.113610305 0.124077015 -0.12501724 -0.17479165 0.12984025 0.07626426 0.06287848
-0.0018898336 -0.052484717 0.023683812 0.065350875 -0.09503747 -0.01053823 -0.16609903 -0.07277732
0.030632593 0.15920116 0.13383102 -0.16285786 -0.10208007 0.029885927 -0.05240828 -0.1022069
0.13116717 0.07544359 -0.1237872 -0.10450129 0.11366333 -0.17280057 0.08917188 0.034500264
0.019649547 -0.0021167188 -0.13160947 0.13644767 0.095244676 -0.07897017 -0.15239948 -0.14974321
0.1527534 0.017738305 -0.12675075 -0.10081783 0.026467271 -0.09818904 -0.0061599533 -0.15936981

gru.bias_ih_l0 f4 [96]
00000000: 463d aa3d 2e46 f93c 2734 1c3e 2f71 923d
00000010: 886a 4d3d 4450 c0bd d8a0 ddbd 8a38 8bbd
00000020: f948 c4bd 2d56 5f3d 4e8e c4bd d424 2b3e
00000030: 2e7a 313b 5101 213d 1714 243e cccd ba3d
00000040: 70f0 96bd d79f 1fbe 2557 a0bd 4826 d5bd
00000050: ad81 13be db6f 9b3c 958e cdbd b1c9 b6bc
00000060: 3f86 113e be52 02bd 1d21 bfbc f61a b53d
00000070: 7e3d d13a 7892 91bd 47dd 56bc 39b5 c3bd
00000080: fad5 173e 75a0 133e e532 13bc 7bcc 043c
00000090: afe1 423d 24e6 183e 640a 30be 54fa 0e3e
000000a0: 3a79 c83c 71c3 c9bd 63e7 d9bd 60ca debd
000000b0: 2207 c4bd 6385 1d3e 77e8 ec3d 5a8c a23d
000000c0: 796e 273e 381e d33d 4336 cbbd b82a 203d
000000d0: 81be 003e 393b 2cbe 6c09 683c 5469 ffbb
000000e0: b0c9 073c daaa e13d 6f3f a23d 4f6b 1dbe
000000f0: 8aeb 93bd 510d e6bb d061 d2bd 39fa d3bc
00000100: b429 90bb 9408 0fbd b35e d9bd 10ca 95bd
00000110: 8b74 733d 2931 f93d 033f acbd 61e2 f63d
00000120: 0844 e4bd 7e69 ff3d 354f 29be 88ef f93d
00000130: 5fa7 d5bd 201d f73b 03f1 cfbc b19e f5bd
00000140: ec88 96bd 8206 2c3d 4391 8e3d 45da d23b
00000150: 751a 04be 865a b4bd 2210 0d3e 2e1f b1bd
00000160: 66fc 583c 4b0e d23d 285e ad3b 08cf a6bd
00000170: d230 2d3e e1f7 163e 7f72 4e3c a521 243e
0.08312468 0.030428972 0.1525427 0.07150494 0.050150424 -0.093903095 -0.10821694 -0.06797893
-0.09584231 0.054525543 -0.09597455 0.16713268 0.0027080881 0.039307896 0.16023289 0.09121284
-0.073700786 -0.15588318 -0.078291215 -0.10407692 -0.14404936 0.018974235 -0.10036961 -0.02231297
0.14211367 -0.03181719 -0.02333122 0.08843033 0.0015963761 -0.07108015 -0.01311428 -0.0955605
0.1482772 0.14416678 -0.008984302 0.008105393 0.04757851 0.14931542 -0.17191464 0.1396268
0.024471868 -0.098517306 -0.10639837 -0.10878444 -0.09571673 0.15382914 0.11567777 0.07936926
0.16350736 0.10308498 -0.09922459 0.03910324 0.12572671 -0.16819467 0.014162403 -0.0077945385
0.008287832 0.110189155 0.07922255 -0.15372966 -0.0722266 -0.0070206304 -0.102725625 -0.025876151
-0.0043995026 -0.03492029 -0.106137656 -0.07313931 0.059437316 0.1216758 -0.08410456 0.12054897
-0.111457884 0.12471293 -0.16534121 0.1220389 -0.10432314 0.007541314 -0.025383478 -0.119931586
-0.073503345 0.041998394 0.069613 0.006434711 -0.12900718 -0.088063285 0.13775685 -0.08648525
0.01324377 0.102566324 0.0052907653 -0.08144957 0.16913155 0.14742996 0.01260054 0.1602846

gru.bias_hh_l0 f4 [96]
00000000: bc5d febc d6be 32be 89f3 223e fb32 973d
00000010: 8e31 1d3e 41dc 1b3e 0118 c7bd d5a2 a93d
00000020: 0df7 ce3d f039 21be b521 153c 02b0 bdbb
00000030: 1751 a1bd 0243 393b bfa3 313d dcf0 b63d
00000040: 1d56 003e f4cb 8d3d 506d 42bd 631c fbbd
00000050: 68d1 80bc 8548 80bc e988 99bd f05c fb3d
00000060: 09ab 1d3e 420f f9bd c81b a8bd 07e4 a23c
00000070: 70d4 0b3d c13b 403d 4ff1 323e 6a4f 22bc
00000080: 9f1c 513d f167 23be 31d8 033e 85fd 19be
00000090: 762f 13be 1148 12be 38a4 06bc 7c8f f6bd
000000a0: 1258 9e3c e6bc ecbd ad03 f8bd 4158 b43d
000000b0: e39d c8bc 1fbc a13d bfbf f9bc 7a47 8ebd
000000c0: d20f 87bd 5335 0dbe 2354 203e 6c60 2ebe
000000d0: 81b2 893d aec7 86bd e284 07be e024 053e
000000e0: 20eb 5cbc b0be 333e 475f ff3d ff78 1b3d
000000f0: f94f 1cbe 5f4c 31bd de63 213e 8e76 c93d
00000100: 8d5a 1d3e 6359 513d 03b0 26bc 115b 86bd
00000110: 4158 adbd ad4d 17be 6323 85bd b6d1 37bd
00000120: 3035 0bbe 11bf c33d acb2 04be 2a62 25be
00000130: 0b0b 54bc 80fe 2a3e 5cda b9bb 638d 9dbc
00000140: 9b06 5cbd d027 e73c bfba 24be ae57 12be
00000150: aa4d 013d 1080 ae3d 909c febd f594 bebd
00000160: c34e bf3d f9d4 b9bd 9183 dc3d 6d09 ae3d
00000170: 1c3a 2fbd 5132 52bd 67c6 c1bc 106f bcbb
-0.031050555 -0.1745561 0.15913214 0.07382771 0.15350935 0.15220739 -0.09721375 0.08283011
0.10105715 -0.15744758 0.009102275 -0.005788804 -0.07876795 0.00282687 0.04336905 0.08932659
0.1253285 0.069236666 -0.04746753 -0.12261274 -0.015724853 -0.01565958 -0.07496817 0.12273586
0.15397276 -0.12161113 -0.08208424 0.019884123 0.034138143 0.046931986 0.17474864 -0.009906629
0.051052686 -0.15957619 0.12875439 -0.15038116 -0.14373574 -0.14285304 -0.008217864 -0.12039086
0.019329105 -0.11559467 -0.12110076 0.088058956 -0.024489349 0.078972094 -0.03048694 -0.06947227
-0.06594814 -0.13789873 0.15657096 -0.1702897 0.067235 -0.06581055 -0.13234285 0.13002348
-0.013483793 0.1755321 0.124693446 0.037957188 -0.15264882 -0.043285724 0.15760753 0.09837066
0.15366574 0.051110636 -0.0101738 -0.06560338 -0.08464099 -0.14775725 -0.0650089 -0.04487773
-0.13594508 0.095579274 -0.12958783 -0.16150728 -0.012942086 0.16698647 -0.0056717824 -0.019232458
-0.053717237 0.028217226 -0.16086863 -0.1429126 0.031568207 0.0852052 -0.12432206 -0.09305755
0.093411945 -0.090738244 0.10767282 0.084978916 -0.042780027 -0.051317517 -0.023654176 -0.0057505444

gru.weight_ih_l0_reverse f4 [96, 171]
00000000: eac1 f0bd bb2c e03d ff4e a5bd 0c45 503d
00000010: 0805 c93d 63df a63d e740 583d f749 a73d
00000020: 660e ccbd 84d0 56bd 892d aebc 699a 333e
00000030: cac2 353a a3ba 49bb 5581 b1bb 9243 d3bd
00000040: 8d9a 86bd 15f3 3fbd 1a14 ec3d 231d 3dbd
00000050: feda 003e 27c1 323e 247e 013e 97b4 c63c
00000060: d766 3f3d 52a8 34be dd0a c7bc e254 2d3c
00000070: 8d17 673c f0cc cb3c 20c3 a2bd a03e af3d
00000080: 9871 e7bd 5502 56bd 0072 02be 533f 053c
00000090: 90fd f93d 5502 883c 49f8 0b3e 77bd 69bd
000000a0: 14a3 97bd fe8f 173d a15a fa3d 4bce acbd
000000b0: 34d1 4f3d 06d1 203e 75ca 723d a1ba 6f3d
000000c0: 8d79 473c 77f1 f13c 474c 29be 3864 633d
000000d0: 2ddb 1e3e 1636 c2bd 221f dfbd f6eb e1bd
000000e0: e4ac a1bd 6cf9 26be 96b0 853d 7f57 c0bd
000000f0: 6aed cbbd 9581 23bd 9ca7 1f3c 55b2 1e3d
00000100: 2bf8 563c e161 a83a 0929 783c 42a4 f83c
00000110: 5a8d 0cbe b093 49bd 8e91 e8bd 5ea4 d63d
00000120: c1b6 f33d d0ba 123e 7fa8 223e 9d2e 163d
00000130: 710e 4b3c feaf d3bd 2e2b 31be c6f9 f63c
00000140: c073 27be 3f1b d4bd 49be 263e f408 2bbe
00000150: b04a 493c 2278 fd38 b3b4 24be bfc1 31bd
00000160: a042 cabd 4dd9 37bd f37a cfbd dae8 aabd
00000170: 97a3 89bd e022 d4bd 40ba bb3d 0c37 0e3e
00000180: b664 ee3d 3c0a 09bd 9803 bf3d 3ea3 173d
00000190: 391b fcbd 7720 e93d 49c0 e63d 9a49 32be
000001a0: 3d05 373d e687 873a aaee e03d 973c 8bbd
000001b0: 53a0 d6bd ec4d 63bd 8253 df3b 1e4c 83bd
000001c0: 5080 f1bd 031c 1fbe df25 ce3d 4610 c03d
000001d0: 3b5f 823d 3fc3 0c3e 5b18 2dbe f887 bbbd
000001e0: 16e3 263e cb28 a4bd 45c7 c73d f627 343d
000001f0: da1b 26bd a31b 2fbe 892f 083e a592 33bd
00000200: 31e4 27be afee 0ebe ce35 e83d f7bf 0ebe
00000210: aeba 033e ff20 cdbd 6f2c ba3b c7a3 e1bd
00000220: dfc5 31be dcb5 273e 1b68 fd3b ea56 1a3e
00000230: 41c4 17be 1736 48bd f9d5 203e a8c7 a8bd
00000240: 58c8 cc3d e85d 3ebd f431 f93d 962d c73d
00000250: 16f0 d3bd 5b40 bf3d ba89 1dbe 5ca4 1abc
00000260: a845 4b3c 83ce 9cbd d8ba 143e 812d 15bd
00000270: ceda 6b3a c944 2e3d faae 29be 51f8 fcbd
00000280: 0c42 493d aef7 d43d 5fae e53d 9e55 5bbd
00000290: b289 31bc 9a63 e03d e860 d4bc 699c 123d
000002a0: d451 4abd ed12 6b3d 3964 d13d da78 2d3e
000002b0: 7bfa 8b3c 94d6 ccbc e07b 07be ade9 bbbd
000002c0: 4b77 b43c d354 1a3e e1bb 233e 9718 bb3d
000002d0: 7bca c7bd 68fd edbc 8519 16be 94c8 c0bc
000002e0: 6192 573c 2b4b 813c 59ff 483d 7ff6 8a3c
000002f0: 81c4 ea3d 602a e2bd 847b dc3d a82d 7c3c
00000300: 5dd9 2fbd b48d cfbd f496 f73d 2089 27be
00000310: 6cb1 633d b50e 973d db7a 053e aae1 d83d
00000320: 7bd9 e73d 83a3 c63d fa53 c53d 009c 873d
00000330: e9e9 143e 8e88 4d3d 0340 023e 76bd 253e
00000340: ec65 013c 7375 423d 48e9 81bd 56ce 1c3a
00000350: 7a1f fc3d d379 0e3c a25c de3d 089e 113e
00000360: 6889 b7bd b97b 193e f055 6b3d f562 a9bd
00000370: 8dbe 23be 559b adbd a1d6 163e 3c45 a53c
00000380: ee94 61bd f98e cabd a713 5bbd 2034 cbbd
00000390: 5fda aabc 82a0 983d fd41 4e3c 0911 23be
000003a0: 5d97 b9bd da7c 9b3d e156 803d f21d 1cbe
000003b0: f253 843d e016 243e 9357 c3bd 5fc8 b23d
000003c0: 296c 463c fecf d73d 6bd2 11be fcba 11be
000003d0: f374 893c a27e 4a3c 80a1 c63d 4669 293d
000003e0: 07b5 e9bd e3a0 a8bd 2b61 a23d 5a60 f03c
000003f0: 9588 a93d 095d a7bc 6d03 f4bd 50b2 dabd
-0.11755736 0.10946032 -0.08071708 0.0508471 0.09815413 0.081480764 0.05279627 0.081684045
-0.09963684 -0.05244495 -0.021261947 0.17539372 0.0006933628 -0.003078141 -0.005417029 -0.103156224
-0.06572447 -0.04686268 0.115272716 -0.046170365 0.12583539 0.17456494 0.12645775 0.024256034
0.046728935 -0.17642334 -0.024297172 0.01057932 0.014104736 0.024877995 -0.079473734 0.08556867
-0.11300963 -0.052248318 -0.127388 0.008132773 0.12206566 0.016602674 0.13668932 -0.057065453
-0.074041516 0.037002556 0.12224317 -0.08437785 0.05073662 0.15704736 0.05927511 0.058527593
0.012174976 0.029534085 -0.16533004 0.055515498 0.15513296 -0.09482972 -0.1089461 -0.11031334
-0.078943044 -0.16306084 0.06527822 -0.093916886 -0.099573925 -0.0399185 0.009744551 0.03874429
0.013120691 0.0012846553 0.015146502 0.030351762 -0.13725796 -0.04921311 -0.11355887 0.10480569
0.11900092 0.14329076 0.15884589 0.036665548 0.01239358 -0.10336302 -0.17301628 0.030148398
-0.16352749 -0.10356759 0.16283526 -0.16702634 0.012285873 0.000120863566 -0.16084556 -0.04339766
-0.09875989 -0.04488497 -0.101308726 -0.08345194 -0.067206554 -0.103582144 0.09166384 0.13888186
0.11640303 -0.033457026 0.09326857 0.037020914 -0.1230988 0.11383145 0.11267144 -0.1741089
0.04468273 0.0010340184 0.109830216 -0.06798666 -0.10479798 -0.055494234 0.006815375 -0.064110026
-0.11792052 -0.1553803 0.10065817 0.09378104 0.0636582 0.13746355 -0.16903822 -0.09156793
0.16297564 -0.08015593 0.097548045 0.043983422 -0.040553905 -0.17100386 0.13299383 -0.043841023
-0.16395642 -0.13958238 0.113383874 -0.13940416 0.12864181 -0.10016059 0.0056815664 -0.11017566
-0.17360638 0.16377968 0.0077333576 0.15072218 -0.14820959 -0.04887971 0.15706624 -0.082412064
0.0999915 -0.046476275 0.12167731 0.09725492 -0.10348527 0.09338447 -0.1538457 -0.0094386
0.012406744 -0.076565765 0.145244 -0.03642035 0.0008997143 0.042546067 -0.16570655 -0.1235205
0.049135253 0.10398804 0.11214899 -0.053548448 -0.010836052 0.109564975 -0.025925115 0.035793696
-0.049394444 0.057391096 0.10224194 0.16940632 0.017087212 -0.025004663 -0.13230848 -0.091754295
0.02202954 0.1507142 0.15989639 0.091355495 -0.09755417 -0.029051498 -0.14658172 -0.023533143
0.013157458 0.015782913 0.049071644 0.016963242 0.114632614 -0.11043239 0.10765746 0.015391745
-0.042931903 -0.101344496 0.12089339 -0.16360903 0.055589125 0.07375852 0.13035147 0.10589917
0.11320778 0.09699156 0.09635158 0.066215515 0.14542355 0.050179057 0.12719731 0.16185555
0.007897835 0.04747529 -0.06343323 0.0005981674 0.12310691 0.008696037 0.10857512 0.1422044
-0.08961755 0.14988603 0.057455003 -0.08270828 -0.15990658 -0.08476893 0.14730312 0.020174615
-0.05507367 -0.09890551 -0.05348554 -0.099220514 -0.02085608 0.074524894 0.012588975 -0.15924467
-0.090620734 0.07592173 0.06266571 -0.15245798 0.06461324 0.16024351 -0.09538188 0.08729624
0.012110748 0.10537718 -0.14240424 -0.14231485 0.016779399 0.012359293 0.096987724 0.041360162
-0.11411481 -0.08233812 0.079286896 0.029342819 0.08278004 -0.020430105 -0.11914716 -0.10678542

gru.weight_hh_l0_reverse f4 [96, 32]
00000000: beff ff3b 6807 16be 00bb 22be 3811 cf3c
00000010: 7086 febd e75b e4bd 213d 583d ca50 fa3d
00000020: b99c e63c cecc 833d 4953 a53d c159 0a3e
00000030: e415 bdbd 8f89 253e 5a90 e23d 5ec5 b4bd
00000040: d022 1abe 4d7f 2abe 3503 30bb 4cd1 2c3d
00000050: 5664 cfbd ebfa 083e 13f1 7f3d 11e8 0bbd
00000060: 8394 c53d 3a57 26be 4f0d 053e 0171 02bd
00000070: cab7 3abd 24cd 29be 65bb 463d 6a9b 1cbe
00000080: c36d 0a3e 33ed 1b3e 952e 34be 5d52 e2bd
00000090: f701 09be ed8b fc3d 5d99 173e c144 03bd
000000a0: c8e1 ad3d f071 9a3d 9036 063e 6599 023e
000000b0: 2c2d be3d a3c5 303e 8e83 d63d 4e34 e3bd
000000c0: 6d71 0abe db5b 3b3d 8d62 a53d 2b36 eabd
000000d0: 20e1 e2bd a229 243e 3c99 0fbe 5507 9bbd
000000e0: be35 19be d3a3 143e 9a46 a7bd 164d aa3d
000000f0: 27e9 023e 6ce6 26be 6bd7 fd3d 2666 2a3e
00000100: 274c cc3d b450 22be 0652 4cbd eb70 c0bd
00000110: be95 183e 1a85 ca3a 98b7 d03d 4317 7ebd
00000120: f0c8 22be df10 d63c 5e02 05be ab08 d4bd
00000130: cf4e 92bd 63be 79bd 6e25 5e3d 5050 3fbd
00000140: 79a4 22be 09a5 203e 88cd c43c cfc3 af3d
00000150: 1727 30be a393 633d fa4c 823d 00e0 8dbd
00000160: 33e0 143e 159e 0a3e 98bc 983d e698 17be
00000170: e1cf 293d 1945 29bc ff4b c43d 4c55 66bd
00000180: f4ef 053e 6a2c 99bd 92e6 853b 918b 23be
00000190: 85c9 aa3d 5ee7 223e c434 32bc 3a2b 99bd
000001a0: 450e 52bc 2e80 bfbd e5fb 2c3e 4a4a 1dbe
000001b0: b4df ff3c 8e27 b83d 2879 66bb e667 25bd
000001c0: bbbe a2bd 2899 573d b3e9 0f3c c07f 25be
000001d0: d589 273d b692 04be 8b8b 1a3e d09f 073e
000001e0: 57c4 2abd e66e 0fbe c445 4f3d ec70 d33d
000001f0: 6493 8dbd cadc e83d 28fd dbbc e663 4dbd
00000200: 6277 953d 9e50 4b3d fc60 c9bd afc4 5d3d
00000210: 89f1 6e3b db9a debc 8824 af3c e23b 9e3c
00000220: 1869 cfbd d896 1cbc 319a 0c3e 2960 233e
00000230: ab90 303c 3118 26bd 20ee 0dbe 5a5b f4bc
00000240: fe1c b7bb 436f 7bbd b106 a039 204e 94bd
00000250: 383f 1d3d 3095 10be 88b5 253a 198e b6bd
00000260: 057d cdbd a3ac ffbc 85c0 b73d 9d77 113d
00000270: d3e4 113e bca6 e63d 9976 34be 0f64 bebd
00000280: da38 03be d7c6 a3bc 1a03 19be 169d b93d
00000290: 7205 8c3c c053 313e 39fb 5fbd d965 283d
000002a0: 9a02 a0bd 5508 08be d6f1 37bd 7a2e 30be
000002b0: e41d 3fbd b909 8c3d 6c68 03bd 8c27 2d3e
000002c0: 941f ae3b 99d9 e33d ceb6 02bd aa73 1e3c
000002d0: a15a 5e3d a7f9 0bbe 4327 ba3c 6f19 9ebc
000002e0: 9026 e3bd 3bb5 1b3e aa73 d83d 32f6 aebd
000002f0: 9d5d 2b3e 6965 263d 9c6f 17bd b2ff c03d
00000300: c4f5 773b f4b4 2ebe 81a9 8e3c ca95 d5bb
00000310: 0589 893d 8407 0dbe f95b f3bd cb14 463d
00000320: f71b 8a3b 6c8d 86bd 5c73 cdbd a434 1b3e
00000330: 2e52 c8bd 673e a2bd e62f 2fbd 8e00 e5bc
00000340: e1e4 1f3d b8ee 9a3d 6ee6 75bd c13b 0c3e
00000350: 8d20 0fbe aa39 d23c 4f5c 34be 4ed7 303e
00000360: 278e 8abd 3a63 823d a1ce 123e 5cf2 283e
00000370: f010 bebd 1f5b f43c 04d1 fc3c a559 bd3d
00000380: 1704 df3d 0ea4 9a3a d27d c8bd 4f13 dd3d
00000390: f740 003b 93f1 193e cf66 b03d bf86 55bd
000003a0: 5456 133e 8aa1 f03d 68a7 cfbc e176 1c3e
000003b0: 6e2d 7a3d 860d b03d f1cc cf3d fec5 cfbd
000003c0: 3ca4 22bd 7117 2e3c bc92 d7bd c7e3 06be
000003d0: 9794 d7bd 3fbf b03d 8e57 c73d 0c53 313e
000003e0: 5a58 4fbd 7b4d 473d a68c e93d 2378 a8bd
000003f0: b7f7 15be bac3 91bd f8b3 8c3d adde 073e
0.0078124693 -0.14651263 -0.15891647 0.025276765 -0.12427986 -0.111503415 0.052792672 0.122224405
0.028150903 0.06435548 0.08072526 0.13510801 -0.09232691 0.16165756 0.11062689 -0.08826707
-0.15052342 -0.16650124 -0.002685738 0.04219179 -0.101265594 0.13376968 0.062485766 -0.034156863
0.09647467 -0.16244212 0.12993358 -0.03184605 -0.04558543 -0.16582161 0.048518557 -0.15293661
0.13518433 0.15227203 -0.17595895 -0.11050866 -0.13379656 0.12331376 0.14804597 -0.03204799
0.0849033 0.07541263 0.13106751 0.12753828 0.092859596 0.17262892 0.10474311 -0.11093961
-0.13519831 0.045741897 0.08075438 -0.11436113 -0.110780954 0.16031507 -0.14023298 -0.07569758
-0.14961907 0.14515619 -0.08167763 0.08315484 0.12784253 -0.16298836 0.12394603 0.16640529
0.099754624 -0.15851098 -0.04988291 -0.093965374 0.14900872 0.0015451044 0.10191268 -0.062033903
-0.15896964 0.026131092 -0.12989184 -0.10353216 -0.07143938 -0.060972583 0.054234914 -0.04670745
-0.15883054 0.15687956 0.024023786 0.085822694 -0.17202412 0.05556072 0.06362338 -0.0692749
0.1453865 0.13536866 0.074578464 -0.1480442 0.041458014 -0.010331416 0.095848076 -0.05623369
0.13079816 -0.074791744 0.004086324 -0.15971209 0.08339218 0.15908572 -0.010876838 -0.07478948
-0.012820785 -0.0935062 0.16892965 -0.1536037 0.0312346 0.089919195 -0.003516743 -0.04038229
-0.07946535 0.052636296 0.008783746 -0.16162014 0.04090293 -0.12946591 0.15092294 0.13244557
-0.04169115 -0.14007148 0.050603643 0.103242725 -0.06912878 0.11370237 -0.026854113 -0.0501441
0.07298161 0.04963743 -0.098329514 0.05414265 0.0036459884 -0.02717345 0.021379724 0.019315664
-0.10127467 -0.009557448 0.13730694 0.15954651 0.010776679 -0.040550414 -0.13860369 -0.029828716
-0.005588173 -0.061385404 0.00030522564 -0.07241464 0.03839037 -0.1411941 0.0006321301 -0.08913822
-0.10033611 -0.03121025 0.08972267 0.035514463 0.14247446 0.11262271 -0.17623366 -0.092964284
-0.12814656 -0.019992275 -0.1494259 0.09063165 0.01709244 0.17317104 -0.054682944 0.041112754
-0.07812996 -0.13284428 -0.044908367 -0.1720523 -0.046659365 0.06837792 -0.032082006 0.16909617
0.005313823 0.11125488 -0.031912617 0.009671131 0.05428565 -0.13669454 0.0227238 -0.019299237
-0.110913396 0.15205853 0.10568936 -0.08543052 0.1673493 0.040624056 -0.036971673 0.0942377
0.0037835697 -0.17061216 0.01741481 -0.0065181004 0.067155875 -0.13772398 -0.11882777 0.048359673
0.0042147595 -0.06569943 -0.10031769 0.151568 -0.097812995 -0.079220586 -0.04277029 -0.027954366
0.039036635 0.07565063 -0.060034208 0.1369467 -0.13977261 0.025662262 -0.17613338 0.17269632
-0.06765395 0.06366582 0.14336635 0.16498703 -0.09280574 0.029828606 0.030861385 0.09245614
0.10889452 0.001179816 -0.09789623 0.107946984 0.0019569972 0.1503356 0.08613359 -0.052130457
0.143884 0.11749561 -0.02534838 0.15279724 0.06107848 0.085963294 0.10146511 -0.10145186
-0.039707407 0.010625706 -0.10526034 -0.13172828 -0.10526388 0.08630227 0.097334966 0.17316836
-0.050621368 0.048657876 0.1140378 -0.08226039 -0.14645277 -0.0711741 0.06870264 0.13268538

gru.bias_ih_l0_reverse f4 [96]
00000000: 2a6e b73d 87bb 15be eaf7 83bd 9243 a93d
00000010: ade6 dbbd 4699 343e 134d b5bd 8230 643d
00000020: 077b 953d 2069 023e c6e6 13be 56e0 0b3e
00000030: 3014 353d 5a80 2e3d 214c a9bd 2e47 223e
00000040: 9a44 acbd 7b53 333e 6efb b83d 69e1 1e3e
00000050: 9511 f73d 2cd6 5f3d 1648 b43c 917f 88bd
00000060: cb2b 1c3e 7bdd ce3d cad0 79bd 255c 21bc
00000070: a921 6e3c 24e6 f63d ba0c a03d 3f89 893d
00000080: 823b ed3d c615 04be 7684 73bd 4668 003e
00000090: d236 09be 5fa3 a03d 9662 f73c 2bd8 073e
000000a0: 39f6 5639 a859 c73d 891e b93d 9e7a 063e
000000b0: 6440 8cbd 0562 fdbc 8228 c1bd 52c0 b83d
000000c0: 7867 09be f12b 9f3d 51a2 b83d eb55 083d
000000d0: 19dd 06be 134f 5d3c 19ba 97bc 9f0b 20be
000000e0: 8e30 c73c 0009 903a 9ffd 06be 6969 e4bb
000000f0: 81b3 f0bc 30a2 d53b add4 acbd dbcd 483d
00000100: 2b48 c2bd 321d 883c 2ec6 80bc 3846 85bd
00000110: af4c 443d ade0 b23d 8857 30bd 1c16 2c3e
00000120: f118 df3d 670b dfbd 858e be3d 8d19 cfbd
00000130: 340f e43d dff3 d93d 09fa 8c3d 6b27 30be
00000140: 8b87 67bc c31c b93d dd68 d43b c10c bf3d
00000150: c12e 3bbc 553a 273e 67a9 d63d 0c3b 71bd
00000160: 42ce abba 2d9e e4bd e79b 04bd 5d01 a9bd
00000170: 756a 75bd 58ee 1c3e ad6d 213e 0b39 1ebe
0.08956559 -0.14622317 -0.0644377 0.08264841 -0.10737357 0.17636594 -0.08852591 0.055710323
0.07298856 0.12735415 -0.14443502 0.13659796 0.044208705 0.042602874 -0.082664736 0.15847465
-0.08411522 0.17512314 0.090323314 0.15515675 0.120639004 0.05464761 0.02200703 -0.06664956
0.1525108 0.10100838 -0.060990132 -0.009848629 0.014534392 0.120556146 0.078149274 0.06715631
0.11583616 -0.12898931 -0.059452496 0.12539777 -0.13399819 0.078436606 0.030198377 0.13266055
0.00020500355 0.097338974 0.09039027 0.13132712 -0.06848219 -0.030930528 -0.094315544 0.09021057
-0.13418376 0.07772053 0.090153344 0.033285063 -0.1317028 0.013507622 -0.018521355 -0.15629433
0.024315145 0.001098901 -0.13182686 -0.0069705737 -0.02938247 0.0065195784 -0.08439002 0.049024444
-0.09486421 0.016615484 -0.0157195 -0.06507534 0.047924694 0.0873426 -0.043052226 0.16805309
0.10893429 -0.10890847 0.09304527 -0.10112295 0.11135712 0.10642218 0.06883628 -0.17202537
-0.014131437 0.09038689 0.0064822272 0.093286045 -0.011424721 0.16330846 0.1048153 -0.058894202
-0.0013107734 -0.11162982 -0.032375243 -0.08252213 -0.05991598 0.15325296 0.15764494 -0.15451448

gru.bias_hh_l0_reverse f4 [96]
00000000: 2793 27be 18a8 413d 8935 73bd 69f8 03bd
00000010: d41e d2bd 5baf 9f3d 7b4c 1cbd 1ad9 183d
00000020: 4bbc 1cbe a5d0 1abe e9bf fabb c611 ccbc
00000030: 990d bc3d 16e5 06be 458f bbbd db50 cb3d
00000040: 9627 053e 8840 ff3c 5582 21be 8240 cf3d
00000050: 78f9 11be 15a8 8f3c 357b 1abe 80e6 11be
00000060: 1b0c 333e 7dc4 34be 290e 25be 1657 ba3d
00000070: b879 e0bd 78b3 a53d c6a0 34be 13a6 fc3d
00000080: 18b2 8ebd 6401 c63d 0378 8e3d 2cc0 2d3b
00000090: 9b6c 283e 0f29 343e c123 aabd b59e aa3d
000000a0: 0482 333e b000 133e c656 dabd fdea ebbd
000000b0: 1c47 d8bd d82e ca3d 8120 e23d ffce bebc
000000c0: ff7a 98bd 5992 d9bd c5c9 2c3d 6c01 20be
000000d0: 1b4f 123e 3101 f13d 4440 17bc 5c38 d73d
000000e0: 2eec 0bbe c481 79bd 6426 a93d 2f94 22be
000000f0: 59ab 293d 4f4d 8e3d d16e 083d b537 79bd
00000100: 0ec2 243e 7798 693d 90d5 c2bd ed79 7e3d
00000110: aad9 0cbb 9dcb ce3d b4ff 21bd ad51 e33c
00000120: 71df 283d 12ad 0abc b62b 23be 6c6f aa3c
00000130: 0273 2a3e fd80 b1bc 5b33 c53c 978e b53d
00000140: dd3b 29be c3ed f7bb b9d0 a8bd a0e9 b03d
00000150: 6a2b 973d 7c54 2d3e c5c7 f53d 2769 ecbd
00000160: 8c27 fd3d 5938 293e a582 a03d c666 27bd
00000170: 4223 093e 5309 233e 24ba ecbd 0fe8 26bd
-0.16364728 0.047279447 -0.059377227 -0.032219324 -0.10259786 0.07797118 -0.038158875 0.03731642
-0.15306203 -0.15118654 -0.007652272 -0.024910819 0.09182281 -0.13173327 -0.09158186 0.09927531
0.13003382 0.0311587 -0.15772374 0.10119726 -0.14255321 0.017536202 -0.15086062 -0.14248085
0.17485087 -0.1765308 -0.16118683 0.090986416 -0.10960716 0.080908716 -0.17639455 0.12336364
-0.069675624 0.09668234 0.06956484 0.0026512248 0.1644768 0.17593788 -0.08307601 0.08331052
0.17530066 0.14355731 -0.10661082 -0.1151943 -0.10560438 0.09872216 0.11041356 -0.023292063
-0.07445335 -0.10623617 0.04218461 -0.15625542 0.14287989 0.11767805 -0.009231631 0.105087966
-0.13664314 -0.06091477 0.082592756 -0.1587684 0.041423175 0.06948339 0.033308808 -0.060844142
0.16089651 0.057030167 -0.0951339 0.062127996 -0.0021492043 0.1009743 -0.039550498 0.027748907
0.041228715 -0.008464115 -0.15934643 0.020805083 0.16645434 -0.021667952 0.02407234 0.088650875
-0.16526742 -0.007566185 -0.08242936 0.086383104 0.073813275 0.1692676 0.12000994 -0.11543494
0.123610586 0.16525401 0.078374185 -0.040869497 0.13392356 0.15921526 -0.11558941 -0.040748652

gru.weight_ih_l1 f4 [96, 64]
00000000: 9fe5 07be 4270 ae3d e0a0 9cbd 4a67 19be
00000010: 179b 473c a64f fa3d 4e48 2ebe 3bbf fe3d
00000020: 653e 0d3c 2a9a c33d 2a5d 89bd 05c5 7abd
00000030: df7e 1f3d fcdd 983d 42b5 fc3d 59a8 a73d
00000040: c9a6 253e b58c 2d3e 24a0 3bbd 0a3e 32be
00000050: 3e6d da3d 7be9 47bc e1b1 bd3d 2441 2fbe
00000060: 2ac3 0bbe 5286 f4bd d22e 793d ef2d 3ebd
00000070: b39e 03be 2eac db3d f218 5d3d 1ceb 31be
00000080: 54f0 963c 0cae 95bd aeff 1c3d 7ec0 613d
00000090: eb29 1f3e a2a2 45bd f56f 243e 8266 1c3e
000000a0: 1109 fbbd ab4a 0e3e cb58 ff3d 13a1 253d
000000b0: 3dd0 c3bd 7ed1 c2bd 38d2 2f3e 192b 33be
000000c0: 91c5 dfbc 5393 d83d e763 c3bd f4ec ad3d
000000d0: c7c6 b53d 788a 94bc fb56 5abd 63d6 b9bd
000000e0: 6571 6e3d c8d4 fcbd 45d5 18be fa8a d1bd
000000f0: c570 a13d 9424 29be 871e 08be ac69 313e
00000100: 4797 e5bd 5bee 9f3d 9659 aabb 45c8 a43d
00000110: d044 4b3d a632 34be cb40 953d d81d 33be
00000120: c4cd 46bd 8668 d03d f372 00bc 0764 30be
00000130: c6b5 5dbb 448b e83d a543 c5bd 43b7 c5bd
00000140: 28da 9cbd f836 a8bd a643 e1bd 858b 30be
00000150: 769b 1bbe e52d 0cbe 7767 083e bdef 08be
00000160: 5878 fcba ab57 cabd eb7a 293e c762 663d
00000170: 44c0 6fbc 412b a5bc bb00 debd a3d8 183e
00000180: 98c5 c8bd 9f2e 16bc 809a debd 3f9b 883d
00000190: 2635 cb3d 2bbf 903d c743 fabd c51e d53d
000001a0: 87a0 8abd 0506 81bd 0fe0 a1bc 2264 12bd
000001b0: cabe a4bd 7738 efbd f8dd 63bd 5214 c1bd
000001c0: 9d6b 0c3e 31a3 d83d f2e4 e8bd 3c3a d23d
000001d0: 5268 a53d cafa a8bd 9457 353d cf9d 0abd
000001e0: c0d5 cb3d 5553 14be f233 fbbc 5f41 2bbe
000001f0: 3fee ccbd 4c23 e53c 3a87 313d cc87 f9ba
00000200: 3b8c 0dbe a64d 8f3d 401e da3d 8eda c03d
00000210: 21c6 053c 6dde 30bd 8a44 9bbd e210 93bb
00000220: 4934 1fbc 456f 29bd 4bbd d5bd d3ab 613d
00000230: 3be5 963d fbb6 cf3d 368e 1ebe 312e 14bc
00000240: 02f2 19bb 2af1 7c3c 1212 f5bd 1968 10be
00000250: 94e9 e93d b94d 973d 5eb7 1fbe 0b08 06be
00000260: 0b37 0b3e 7798 443d 0969 e4bd a5bc 5ebd
00000270: 087a 163e e652 c4bd 51f6 13bd 666a 093d
00000280: 2f16 473d 6e3c 83bb 4429 04be edce 0dbc
00000290: 4140 0c3e caac 043d 34a6 cfbd 2ab2 19be
000002a0: 17da 25be b100 f1ba 0645 173e bd5e 24be
000002b0: 7d92 1c3d a480 29be 37f4 ccbd b81d 2bba
000002c0: 022a 91bc fce7 123e 8111 203e 9d25 2a3c
000002d0: e1ee 03be 80fe bcbd cd9a d6bd e2c5 febd
000002e0: 94b2 173e a3a2 133e b10d 323e 069c e5bd
000002f0: 6513 bf3d 460b 0b3e 6ae8 adbd 22db f4bd
00000300: b91a 463c b702 79bc 3641 2d3d 60e4 8dbd
00000310: 6d44 c43c 3e94 003d d28f b2bc e92b 4a3d
00000320: 4d00 28be 7497 0d3e 5dbc b43d 720e 27be
00000330: 669f 7ebd 3a1c 1a3e 8d20 d03b 0574 013c
00000340: 504b 013d 0542 103e 4504 bb3c a17f 9cbd
00000350: 642d 2bbd 6dd2 e0bc 028a 053e 5b32 ebbc
00000360: df73 d43d b68a 303e fe58 ea3d 9212 983d
00000370: 1d1b a73d 68bc 9fbc 87f0 93bd fcdb 29be
00000380: 8a1b b9bd 7c80 26be 4d8e 1c3e fb7e 16be
00000390: befe 803d 56c7 1bbe 19d9 533d 2a3b 0c3e
000003a0: 2e32 8bbd 281d 28be e799 283e 67a6 563c
000003b0: 85cf 33be 330f f2bb a665 32bd 5453 c03d
000003c0: 37eb e5bc 60ce 8e3d 4de3 ca3d 2551 ef3d
000003d0: 38c0 d43c ff73 21be 9cdd e7bc 3a32 1ebe
000003e0: b057 1a3e 87ee a63c 3759 39bd 74e4 d4bd
000003f0: 6d99 b43d 191b e6bd 18d4 293e 8d9d 25be
-0.13271187 0.08517505 -0.07647872 -0.14980808 0.012182972 0.12222223 -0.1701977 0.12438818
0.008620833 0.09550889 -0.06707223 -0.06122305 0.038939353 0.07464215 0.1233926 0.08186407
0.16176905 0.16948207 -0.04580702 -0.17406479 0.106653675 -0.012201662 0.09262443 -0.17114693
-0.13648668 -0.11939682 0.060835667 -0.046430524 -0.12853508 0.107262 0.053978868 -0.17374843
0.018425144 -0.073085874 0.038329773 0.055115215 0.15543334 -0.0482508 0.16058333 0.15273479
-0.12257589 0.13895671 0.12468108 0.040436815 -0.09561203 -0.09512614 0.17170036 -0.17496909
-0.027315887 0.10574975 -0.09540539 0.08492461 0.088758044 -0.018132433 -0.053305607 -0.09074094
0.05821361 -0.12345272 -0.14925106 -0.10231586 0.07882837 -0.1651786 -0.13292895 0.17325467
-0.112104945 0.078091346 -0.0051986678 0.08046011 0.04962617 -0.17597446 0.07287749 -0.17491853
-0.048536077 0.10176186 -0.007839906 -0.17225657 -0.003383027 0.11354688 -0.09632043 -0.09654095
-0.076587975 -0.082136095 -0.10999231 -0.17240722 -0.15196022 -0.13689382 0.13320719 -0.13372703
-0.001926194 -0.098800026 0.16550796 0.056246545 -0.014633242 -0.020162227 -0.10839983 0.1492639
-0.09803313 -0.009166389 -0.10869312 0.06670236 0.09922247 0.070677124 -0.12219959 0.104062594
-0.067688994 -0.06299976 -0.01976016 -0.035740025 -0.080442026 -0.11680692 -0.055631608 -0.09427704
0.13712926 0.10578001 -0.11371793 0.102650136 0.08076538 -0.08250959 0.044272974 -0.033841904
0.09952879 -0.14484914 -0.030664418 -0.16724156 -0.10006379 0.027970932 0.043341853 -0.0019037663
-0.13823025 0.06997232 0.10650301 0.09416686 0.008164913 -0.04318087 -0.07581432 -0.0044880966
-0.009717056 -0.04136588 -0.104364954 0.055095505 0.07367941 0.10142323 -0.15483937 -0.009044216
-0.0023490195 0.015438357 -0.11966337 -0.1410221 0.114215046 0.07387871 -0.15597293 -0.13089006
0.13595216 0.047996964 -0.11152846 -0.054379124 0.14694989 -0.09586124 -0.036123578 0.033548735
0.04860514 -0.0040050065 -0.12906367 -0.008655292 0.13696386 0.032391347 -0.101391226 -0.1500937
-0.16196476 -0.0018387047 0.14772424 -0.16051765 0.03822564 -0.16552979 -0.10007518 -0.0006527561
-0.017720226 0.14346308 0.15631677 0.010384944 -0.12884094 -0.092282295 -0.10478745 -0.12440087
0.14814216 0.1441751 0.17388035 -0.112114 0.09329871 0.13578519 -0.08491595 -0.11955859
0.012091332 -0.015198401 0.042298518 -0.06928325 0.02395841 0.031391375 -0.021797094 0.049358282
-0.16406365 0.13827306 0.0882499 -0.16314104 -0.062163733 0.1504983 0.0063515366 0.007901196
0.031565964 0.14087684 0.022829184 -0.07641531 -0.041791335 -0.027444089 0.13040927 -0.028710535
0.10373663 0.17240414 0.11442755 0.07425417 0.08159468 -0.019499019 -0.07223611 -0.16587824
-0.09038456 -0.1625995 0.15288658 -0.14696877 0.06298588 -0.1521276 0.051720712 0.13694444
-0.067966804 -0.16417372 0.16464959 0.013101197 -0.17559631 -0.007387066 -0.04355397 0.093908936
-0.02806626 0.06972957 0.099066354 0.11685399 0.025970563 -0.15766905 -0.028303914 -0.15448847
0.15072513 0.02037741 -0.045251098 -0.103951365 0.08818326 -0.11235637 0.16584814 -0.16173382

gru.weight_hh_l1 f4 [96, 32]
00000000: 20e6 2fbe f445 2abe 041a 2fbd 315e 19bc
00000010: dca8 fc3d 20fd 9e3c 6c18 9ebd a61b f9bd
00000020: 1d04 e83d 0226 03be 6421 0ebe 7153 f73d
00000030: d66b 2d3e 2ea4 133d be53 2c3e c874 0bbd
00000040: fbce 23bc 7128 2abe 4800 86bd c193 8fbd
00000050: 20bf 7fbc 88f4 f2bd 94f2 e03d ab64 a4bd
00000060: 09f7 163e 5fe6 2dbe aca1 5ebc 438d f4bd
00000070: 8c27 15be 400a 843d 9e01 8f3c cbea babd
00000080: c90d ec3d 2e41 0a3e 3168 12be cb27 29be
00000090: 4f4d 213e ea8e 03be 1bff 83bd 03d4 553d
000000a0: 4887 243d 0010 1bbd 6142 483d 989f bfbd
000000b0: cf2c fabd 981b c8ba 5058 c6bd fbb7 85bd
000000c0: 704e cebd cc30 063e 8206 d43d 94fb c0bd
000000d0: 5727 40bd 5755 843c 9f0a 293e 07e2 6bbd
000000e0: 7571 193e 3054 e93d 5fee afbd 55b4 d0bc
000000f0: 9937 4dbc fb1b 413d 7b64 933d 033f 2cbe
00000100: 83a5 0e3e 5566 d83d af8a 383d daa6 0fbe
00000110: caf0 363d e386 823d e9a6 09be ce3c 13be
00000120: 7d2f 013e 74ee 82bd 1ed6 97bd 01a4 0bbe
00000130: ce00 e1bd 4339 d3bd deeb 133e a831 34be
00000140: 7693 b63d 0ea4 0bbe d199 f83d 7631 563d
00000150: a3b0 763b 43b6 a1bb 2290 26be f758 3fb9
00000160: 6b5f 143e c381 3f3d 8307 fa3c 9087 2cbe
00000170: 436c cbbd d1a0 52bc c364 a33d 1d0b 203e
00000180: eeb4 9dbc 47ae 423c d27f 073c 0eda a2bd
00000190: ecd6 59bd d293 223e 9e47 243e 9922 ad3d
000001a0: 3d59 32be 70ed b53c adb6 dcbd c40d f13d
000001b0: bb3f 20be 3c7e 20be b470 20be 661b 4bbd
000001c0: 9981 58bd c3de b5bd aa73 9d3d 4f7d 0bbd
000001d0: fda7 edbd ca12 71bc 3ec5 153e ad7e 48bc
000001e0: 22c9 f0bd 7778 303e 0a1f 0a3e 93e7 fabc
000001f0: 058e 20be ced0 89bc a8b7 993d 33e5 333e
00000200: 4e0f ce3d ffb0 b1bd f233 ef3d 3662 e0bd
00000210: 44df dbbd a104 9e3d 75fb ad3d d300 1e3e
00000220: 729b fc3c e8e5 adbc 2351 153e 5749 323e
00000230: 1f32 e8b9 1663 23bd 557f e1bd dc57 193e
00000240: 427f 613d f27d 8bbd b153 1abe 83a2 0fbe
00000250: 488c 933c 582e f0bd e9d4 f5bd ad4b 1d3e
00000260: dddf f4bc ec5e 4d3a ddc2 17be 0ac4 8c3d
00000270: 9777 c9bd e913 013e eb54 13bc db44 0bbe
00000280: dbfb babb 5a3b 953d 6400 30bb c70b c43d
00000290: 8c14 7d3d 70cb f9bc 3e84 32be 4a38 eb3c
000002a0: bd60 a4bd b89b 45bd 4f5b 2cbe ddd4 a3bb
000002b0: aadc 95bd c0b9 90bd a0d7 c63d 3f49 233e
000002c0: f75c 4abd dccc e5bb 1aed 0bbe e110 07be
000002d0: e851 933d 73fa 113e 57a2 823c ea88 583c
000002e0: f7c4 753d 3b47 103e 7df5 353d 8084 0e3e
000002f0: cc43 80bd 58ee 23be 83b5 01bc 0655 ddbd
00000300: 558b 803d fb71 31be ff58 193e b13d 41bd
00000310: f656 81bd 2706 29be 3c2d 8a3d 83c5 26be
00000320: 791b 553d e25b da3d 3bf0 dbbd 6c1a 183d
00000330: 4c83 0a3e 7e0f fabd 1ef5 a4bc c7ee 723d
00000340: eaa2 a93b ea03 aabd 7d75 1abd 6230 43bd
00000350: f3f7 913b 8e75 17be 6674 22be 518a a1bd
00000360: 0e1a 293e a653 0f3d 4726 94bc e7ce a93d
00000370: 2af8 f23b 4ad9 bd3d d410 25be d5f6 123d
00000380: e5d4 053c 9eb0 fcbd 0bc9 10bd e4eb 093e
00000390: 5817 e5bc 6a38 29be caa1 c43d 416e 283e
000003a0: 4375 95bd a4e4 0fbd 1457 cabd 0d84 973d
000003b0: 0d1f aebc a57e b5bd 6476 1d3e faf4 013d
000003c0: a76e 03be fa58 bc3d b772 f8bb 3858 273e
000003d0: fbc2 24be 7d7c e4bd bcac 293e b14b 863d
000003e0: 2905 4cbc cfed efbd 75a6 15be 611f a5bd
000003f0: fbf1 25bd 43e8 f03d 6d69 2f3e 193b e53d
-0.1717763 -0.16628247 -0.04274942 -0.009360836 0.12336895 0.019407809 -0.07719502 -0.12163477
0.113289095 -0.12807468 -0.13879925 0.12076462 0.16935667 0.036045246 0.1682882 -0.03404692
-0.009998078 -0.1661699 -0.065430224 -0.07010604 -0.015609533 -0.11863047 0.10983768 -0.080270134
0.14742674 -0.16982411 -0.01358835 -0.11941006 -0.14565867 0.064472675 0.017456826 -0.091268145
0.11526067 0.13501427 -0.14297558 -0.16519086 0.15752147 -0.12847486 -0.06445142 0.052204143
0.040168077 -0.037857056 0.04889143 -0.09356612 -0.12215578 -0.0015267013 -0.09684813 -0.06529232
-0.100735545 0.13104552 0.10352804 -0.09422985 -0.046912517 0.016153974 0.16507958 -0.057588603
0.14984687 0.113930106 -0.085903876 -0.025476614 -0.012525463 0.047145825 0.071968995 -0.16820912
0.13930325 0.10566393 0.045054134 -0.14028493 0.044663228 0.06373384 -0.13442577 -0.14378664
0.12615772 -0.063931376 -0.074138865 -0.13636781 -0.109864816 -0.10313656 0.14445445 -0.17597067
0.08914845 -0.136368 0.12138713 0.052293263 0.0037641905 -0.0049350574 -0.1626592 -0.00018248321
0.14489524 0.04675461 0.03052116 -0.16848588 -0.09932759 -0.012855724 0.07978203 0.1562924
-0.019251313 0.011882371 0.008270221 -0.07951747 -0.05318348 0.15876701 0.16042945 0.084538646
-0.17416854 0.022207946 -0.1077703 0.11770204 -0.15649311 -0.15673155 -0.15667993 -0.049586676
-0.05285797 -0.08880379 0.07688077 -0.03405505 -0.11604307 -0.014713952 0.14626023 -0.012237233
-0.11757113 0.17233454 0.13488403 -0.030628001 -0.15679176 -0.016823199 0.07505733 0.17567901
0.10061513 -0.086763375 0.1167983 -0.10956232 -0.10735944 0.07715727 0.08495227 0.15430002
0.03083584 -0.021227792 0.14581732 0.1741079 -0.0004428783 -0.039889418 -0.11010615 0.14974922
0.055053003 -0.068111315 -0.15070988 -0.14026837 0.018011227 -0.11727589 -0.120035 0.153609
-0.029891903 0.0007834274 -0.14820428 0.06873329 -0.09837263 0.12605251 -0.008992414 -0.13600485
-0.005706293 0.07286711 -0.0026855702 0.09572559 0.061787173 -0.030492514 -0.17433259 0.028713364
-0.08026264 -0.048244208 -0.16831706 -0.0049997405 -0.07317479 -0.07066679 0.09709096 0.1594591
-0.049405064 -0.0070129465 -0.13664666 -0.13190033 0.07193357 0.14255695 0.01594655 0.013216237
0.060002293 0.14089672 0.04442357 0.13917732 -0.06262931 -0.1600889 -0.007916811 -0.108072326
0.062765755 -0.17328636 0.14975356 -0.047177974 -0.063154146 -0.16506253 0.06746909 -0.16286282
0.052028153 0.106620565 -0.1073918 0.037134573 0.13526648 -0.12209986 -0.020136412 0.059309747
0.0051768916 -0.08301528 -0.0377097 -0.047653563 0.0044546067 -0.14790937 -0.15864715 -0.0788771
0.16513845 0.034991883 -0.018084658 0.082914166 0.0074148374 0.0926996 -0.161197 0.03587993
0.008168434 -0.123383746 -0.03534798 0.13468891 -0.027965233 -0.16525427 0.09601171 0.16448309
-0.072977565 -0.035130158 -0.0987989 0.073982336 -0.02125504 -0.08862046 0.15377194 0.03172777
-0.1283518 0.091966584 -0.0075820345 0.16342247 -0.16090004 -0.11156557 0.16569799 0.06557406
-0.012452402 -0.1171528 -0.1461428 -0.08062626 -0.040513974 0.117630504 0.1713006 0.111929126

gru.bias_ih_l1 f4 [96]
00000000: 6707 21be 2867 8c3c 945a ac3c c71d 323d
00000010: 9557 29be 640b 133e 89b5 bc3c 1fed 0c3e
00000020: dc70 59bc c146 0bbb c83c 683d 895c d7bd
00000030: d850 b53c 33c4 b43d 25a4 333e 8bff e3bd
00000040: 3743 843d a4ca d33b e12b 21be 5728 113e
00000050: 93a0 29be eed7 343d 1c18 04be 7f47 1bbe
00000060: 0ad8 cebd 72e8 e73d 6b78 003e d462 603d
00000070: eb03 183d 9383 2abe c98e afbd e237 97bd
00000080: b4eb 31bd c282 4c3d 448b 04be ae4c 7fbc
00000090: 5951 213e 5787 1f3e 2c10 c1bd ec38 20bc
000000a0: edce 2ebc deb4 543d ccc5 1d3e f47f 833d
000000b0: fa62 8abc 2ff1 d93d 9213 e3bd 33f0 e4bd
000000c0: 5e02 08bd b567 1e3e 530a 5cbc 174a 1f3e
000000d0: 6e82 843d a855 b73d 152b bc3d 1c7a 25be
000000e0: 14fd 60bd 49be 06be c36c fcbd 20eb 63bc
000000f0: c932 1e3c 93d2 4a3d efef 60bd cca0 b23d
00000100: 83be 50bd 3015 fabd 72f3 7c3d ed64 82bb
00000110: ca2b f33b 72a3 12be cf86 0ebe 5235 b5bd
00000120: 02c9 f3bd 0157 893d 5d61 953d 2f75 32be
00000130: d2c2 8bbd afaa 46bd f0cd 31ba c7f3 00be
00000140: f19b 2cbe c425 c5bd d063 06bc db2c c1bd
00000150: e4f8 12be 68f3 b23d e8d7 7e3d 6d09 1f3e
00000160: d6de febc 15ce aabd 6c45 c6bd 8b7e 433c
00000170: d116 a3bc 3a08 78bd 140d 6ebc bc39 013e
-0.1572548 0.017139032 0.021039285 0.04348543 -0.16537316 0.14359814 0.023035781 0.1376233
-0.013271537 -0.002125189 0.05669859 -0.105156966 0.022133276 0.088264845 0.17543085 -0.11132725
0.06458133 0.0064633656 -0.15739395 0.14175545 -0.1656516 0.04415124 -0.12899822 -0.15163992
-0.100998 0.11323632 0.12545936 0.05478175 0.03711311 -0.16651754 -0.08572156 -0.07383706
-0.043437675 0.049929388 -0.1294375 -0.015582247 0.15753688 0.15578972 -0.09426913 -0.009779196
-0.010669452 0.0519303 0.15407485 0.064208895 -0.016892899 0.10641705 -0.11087717 -0.11178627
-0.033205383 0.15469249 -0.013430196 0.15555607 0.0647019 0.089518845 0.09187905 -0.16159862
-0.054928854 -0.13158526 -0.12325432 -0.013911039 0.009655663 0.049517225 -0.05491632 0.08722076
-0.050962936 -0.122110724 0.061755605 -0.0039793164 0.0074209915 -0.14320162 -0.13918613 -0.08848061
-0.119035736 0.06706048 0.07293961 -0.17427514 -0.068242684 -0.04850262 -0.0006782701 -0.12592994
-0.16856362 -0.09626344 -0.008202508 -0.094323836 -0.14352757 0.08737832 0.062217623 0.1553094
-0.031112116 -0.08340088 -0.0968121 0.011932026 -0.01990834 -0.06055472 -0.014529485 0.1261968
