Trained/rnn_lstm.pth (torch, 922792 bytes, 66 tensors)

lstm.weight_ih_l0 f4 [128, 171]
000000 5f 54 4e bc 12 90 34 3e 93 e8 c0 bd 42 27 ce 3d
       -0.012593358 0.17633083 -0.0941936 0.100660816
000010 42 48 b5 bd ff 22 50 3d 05 a3 15 be 63 a0 da bd
       -0.08851673 0.050814625 -0.14612968 -0.106751226
000020 92 17 d3 3d 5d ea f4 3d 4e fd e0 3d 9c 1c 82 ba
       0.1030723 0.11958764 0.10985814 -0.0009926739
000030 8c e9 05 bc 6e 40 9e bd 42 6e 15 3e be 4d 0c be
       -0.008173358 -0.07727133 0.14592841 -0.13701531
000040 00 8a 0d 3e 21 f6 c1 bd 5d f1 87 3d b5 2f 18 be
       0.13822174 -0.094707735 0.06637833 -0.14861949
000050 7c 61 3e bc ea ed b6 3d 33 d7 97 bd f7 6a 96 3d
       -0.011619922 0.08932097 -0.07414093 0.07344621
000060 da 5e 84 bd 02 ad ab bc 66 ff 54 bd f3 85 6a 3d
       -0.06463404 -0.02095652 -0.05200138 0.05725665
000070 71 3c 1b be 65 a1 12 3e 83 5e a8 bd cf fd 1c bd
       -0.15159775 0.1431938 -0.08221152 -0.03832799
000080 84 f1 21 3e a1 2d 26 be 42 fa 1f be 3e 1f b0 3d
       0.15814787 -0.16228344 -0.1562281 0.08599709
000090 02 ab 01 3d 45 ab f9 3c 5e c7 d9 3d 3e 16 54 bd
       0.031657226 0.030477175 0.106337294 -0.051779024
0000a0 b9 44 e4 bd ac 61 bc 3d 3a 01 0b be 32 7a 14 3c
       -0.1114592 0.09198317 -0.13574687 0.009062337
0000b0 85 f3 af 3d 25 a6 1a be ed f1 33 be 78 e2 1c 3e
       0.085913695 -0.15102442 -0.17572756 0.15320766
0000c0 ec 84 1f 3e b5 74 ba 3d 96 e8 1e be 5b 4d bf 3d
       0.1557805 0.09104291 -0.15518412 0.09340926
0000d0 1f 21 8c bc 2c d5 01 be cc e0 a2 bd 99 94 2c bd
       -0.017105637 -0.12678975 -0.07953033 -0.0421339
0000e0 0a 33 0f bc eb 99 05 3e 40 8f 9d 3d ee 70 04 be
       -0.008740196 0.13046996 0.076933384 -0.12933704
0000f0 3f 4c 22 bd 39 50 14 be 85 17 a3 3c 77 4f 0f be
       -0.039623495 -0.14483728 0.019908676 -0.13995157
000100 f8 5e fa bd ff 14 8e 3d f8 83 a9 3d 16 62 a9 3c
       -0.12225145 0.069375984 0.08277124 0.020676654
000110 0d ad 0b 3d 05 d3 e7 3d 20 21 02 be 79 61 b9 bc
       0.03410058 0.11319546 -0.12707949 -0.022629486
000120 a4 fa 85 bd 92 cd 99 3d 62 8f 19 bc 9e b8 23 be
       -0.065419465 0.075099126 -0.009372564 -0.15988395
000130 f1 73 d1 bd 27 85 b7 3c b1 67 33 3e d6 70 1e be
       -0.10227192 0.02240236 0.17520024 -0.15472731
000140 60 60 06 be 05 fd 1b 3e b3 90 15 bd 40 c1 c3 3d
       -0.13122702 0.15233238 -0.03651495 0.09558344
000150 ed b3 a4 3d 23 55 62 bc 83 03 17 3e ac 1b ac 3d
       0.080421306 -0.0138142435 0.14747433 0.084037155
000160 20 97 ba bd cc d7 b8 3c ec a6 d3 3c dc 54 52 bd
       -0.09110856 0.022563837 0.02583643 -0.05135046
000170 ba 75 ab 3c 2d de 4f 3d fb eb 0d be 35 90 c2 bd
       0.02093016 0.050748993 -0.1385955 -0.095001616
000180 ee 94 1b 3c 66 86 0d 3c 4d f8 db bd 8e c6 15 3e
       0.009495957 0.008638 -0.10740719 0.14626524
000190 b3 35 06 3c ba c8 10 be 77 e3 3e bd 65 6a 24 3e
       0.008191514 -0.14139071 -0.046603646 0.16056211
0001a0 a9 14 26 be ee 87 b2 3d fb 56 11 3e 61 ad 2e 3e
       -0.16218819 0.08717333 0.14193337 0.17058326
0001b0 78 46 af bd d8 8a a4 3d 2d 44 34 3e fd 2b e6 bc
       -0.08558363 0.08034295 0.17604132 -0.028097147
0001c0 38 1e e5 bd d7 e9 48 3d 7e f4 c1 3d 26 d1 ce bd
       -0.111874044 0.049051132 0.09470461 -0.10098486
0001d0 43 ba 0f be 99 d1 c4 bd 7e a7 f8 bc 9a b8 28 bd
       -0.14035897 -0.0961029 -0.030353304 -0.041191675
0001e0 79 c5 83 3d 76 04 0f be a2 45 20 be be a7 a3 bd
       0.06434149 -0.13966545 -0.15651563 -0.07990979
0001f0 2c 8f 85 bd 4a f7 c5 3c 31 e2 27 be 75 55 a9 3d
       -0.065214485 0.024165768 -0.16394879 0.08268253
000200 db 9d 2d be 77 fe 56 3c 5e 92 87 3d d7 fa 77 3d
       -0.16954748 0.013122193 0.06619714 0.060541954
000210 86 53 2a 3e 3d e2 11 3e ab ca 36 bd dd 0b b2 3b
       0.16633424 0.1424646 -0.044626873 0.005433543
000220 75 29 8d 3d 7c 9c 05 bd 23 3a d2 3d 8e ea 1b bc
       0.06892673 -0.03261994 0.10264995 -0.009516371
000230 d5 c2 29 bd 9c 61 a5 bd 56 7a f6 3d dd 99 32 3d
       -0.041445572 -0.08075258 0.120350525 0.043603767
000240 3e 8f 1a 3d cb 67 3c 3d 34 92 c8 bd da df 17 3e
       0.037734263 0.045997422 -0.09793511 0.14831486
000250 9e 72 d6 3d 74 89 b2 bd 63 2b c3 3d e3 a2 1c be
       0.1047108 -0.08717623 0.0952976 -0.15296511
000260 7f 35 33 3d de 18 68 3d bb 63 1b bd 89 28 00 be
       0.04375219 0.05666434 -0.037936907 -0.12515463
000270 eb 6c e5 bd a3 4f 2e be bb 88 29 3e 49 6c 29 3e
       -0.11202415 -0.17022566 0.16556065 0.16545214
000280 be eb 79 3c fb e8 f9 bd 21 a2 12 3e b5 f2 af bd
       0.015253959 -0.122026406 0.1431966 -0.085912146
000290 2a cf 35 3d 2e 9a b6 3d 62 f2 83 3d 67 67 83 bc
       0.04438702 0.08916126 0.06442715 -0.016040517
0002a0 16 93 f1 3d 3b db 2f be 7e 5e b7 3d a7 ab 04 3e
       0.117956325 -0.17173474 0.0895357 0.12956105
0002b0 38 56 29 be ae 9e 89 3b aa 44 6b 3d fc 1f 8f bc
       -0.16536796 0.0041998243 0.05743853 -0.017471306
0002c0 83 c7 f8 bd cd 94 24 3e e0 f6 00 bd 55 25 af bd
       -0.12147429 0.16072388 -0.03148544 -0.085520424
0002d0 0c b0 86 bd 24 d7 d9 bd f7 f3 b9 bd 38 0b 9c 3b
       -0.06576547 -0.10636738 -0.09079736 0.0047620796
0002e0 fe b0 04 3d 61 a0 d9 bc 51 b8 16 be 19 73 70 bd
       0.032395355 -0.026565732 -0.14718749 -0.058703516
0002f0 c4 1b 23 be 99 ef 21 3e 18 25 49 3d 73 a0 b0 bd
       -0.1592856 0.15814056 0.04910764 -0.08624353
000300 d0 b5 98 3d 3f 02 c0 bd d2 cc 61 bc d8 af 60 bd
       0.07456553 -0.093754284 -0.013781743 -0.054855198
000310 c9 fb 39 3d c8 1b b4 3d c4 3b 0e 3e 84 14 9c bb
       0.045406137 0.08794361 0.13889986 -0.004763188
000320 f8 cd 15 be 2c 01 33 bd 37 26 e7 bc 56 78 a3 3d
       -0.14629352 -0.04370229 -0.028216464 0.07981937
000330 79 0b b9 bd 09 6d 18 3e 2c 4f f0 3d ef 9a d0 3d
       -0.09035391 0.14885344 0.11733851 0.10185801
000340 82 74 1f be bc 67 cf 3d 82 84 20 3e 6d f0 3e 3c
       -0.15571788 0.10127208 0.15675548 0.011654002
000350 07 4b 0e 3e c8 d3 11 be b7 c0 1c be 15 de 4b bc
       0.13895808 -0.14240944 -0.1530789 -0.012443085
000360 5f 3c a0 bd b3 88 bf 3d 74 be 0a 3e df ab 1f be
       -0.07824015 0.09352245 0.13549215 -0.15592907
000370 64 de 9a bc 1b e5 27 be 3c 90 73 3c de c5 17 bc
       -0.018904872 -0.1639599 0.014865931 -0.009263484
000380 07 9a f7 bd 48 3a b1 bd 50 e8 ba bd ff b5 0e 3e
       -0.12089925 -0.086536944 -0.09126341 0.13936614
000390 89 91 dc bd 95 1a ee bd 21 b5 b7 bb bd f8 7f bd
       -0.10769946 -0.11626164 -0.005606309 -0.062493075
0003a0 bb f0 95 bd 6d e2 fa 3d 3f cb c7 3d 92 ec 0e 3e
       -0.07321306 0.122502185 0.09755563 0.13957432
0003b0 43 1c f0 bd 75 58 08 3e 2b 76 07 bc b2 2c c7 bc
       -0.117241405 0.13314994 -0.0082679195 -0.024313305
0003c0 d0 fd 0f 3d 52 cd 1e 3e 2b e7 a8 3b 6f 20 34 bd
       0.035154164 0.15508011 0.0051545105 -0.043976244
0003d0 1b 52 5e bd 7b 85 58 3c 0e 1e 90 3c 4c 52 1d be
       -0.05427752 0.013215418 0.017592456 -0.15363425
0003e0 f1 8c f5 3d 87 bf c2 bc c7 72 54 bd df 82 34 3d
       0.11989773 -0.023772968 -0.051867273 0.04407012
0003f0 ef c7 a2 3d 4a 8b 1f 3d 1a a6 aa 3d f5 30 8c bc
       0.079482906 0.038951196 0.083324626 -0.017113188

lstm.weight_hh_l0 f4 [128, 32]
000000 fd a0 1a be 02 38 cf 3d 6e ee 9f 3d 95 ef 19 3d
       -0.15100475 0.101181045 0.07809149 0.037582
000010 e2 b1 f2 3d 65 8a 11 be 85 78 2b be 32 84 ed bd
       0.11850335 -0.1421295 -0.16745193 -0.1159748
000020 de 70 bd bd 9d ee 57 3d b6 53 d4 3d 09 9d 30 3e
       -0.09250043 0.052717794 0.10367529 0.17247404
000030 c5 26 13 3e e7 51 f5 3c e1 8e d3 bd f6 c6 e4 3d
       0.14370258 0.02994628 -0.10329986 0.11170761
000040 06 2b 5a bd b6 ae 0a be 92 7d aa 3c c8 4a de bd
       -0.053263687 -0.1354321 0.02081183 -0.10854107
000050 0b 1c ad bd e1 36 45 bd 98 90 8c bd f9 a8 a0 bb
       -0.084526144 -0.04814804 -0.068635166 -0.0049029556
000060 51 9c 2b 3e e3 c7 54 bd a4 43 e0 3b d3 11 32 be
       0.16758849 -0.05194844 0.006844001 -0.17389612
000070 58 ea fc 3c ca 33 f1 bd f7 db 25 3c 6d b2 d9 3c
       0.030873463 -0.11777456 0.0101232445 0.026574338
000080 d1 a2 68 bd 0d 0e 23 3e 2c b7 c5 3d 92 16 ea 3d
       -0.0567959 0.15923329 0.09654078 0.11430086
000090 d4 e1 b3 3d ac 11 59 3c 03 c7 ea bd fe e4 a2 bd
       0.08783308 0.013248842 -0.1146374 -0.07953833
0000a0 b5 a5 3a bd c1 28 23 bc bb 51 a1 3c c3 35 96 3d
       -0.045568187 -0.009958447 0.019692292 0.07334473
0000b0 b7 20 2d 3e ea 52 4a bd 12 c9 25 be a4 78 eb 3c
       0.16907011 -0.04939548 -0.16189983 0.02874405
0000c0 ad 4c 19 3e 88 2a a3 bd b2 44 9e 3d 8f 26 2a 3e
       0.14970656 -0.079670966 0.07727946 0.16616271
0000d0 76 e5 6c bd be c2 b7 bb 2c 31 30 be fe 8e d4 3c
       -0.05783602 -0.005607932 -0.17206258 0.02594709
0000e0 04 9d 99 3d 22 4c 0d bd 0e 97 0e be 5c 5e 2c be
       0.075006515 -0.034496434 -0.1392481 -0.1683287
0000f0 d8 15 e2 bc 12 79 2d be 65 9e 03 3e 00 76 83 3d
       -0.027598307 -0.16940716 0.12853391 0.06418991
000100 f6 20 86 3c c5 58 d4 bd 06 66 f0 3d 83 80 1d 3e
       0.016373139 -0.10368494 0.117382094 0.15381055
000110 c9 ef a0 bd 53 5f 1a be 9f 69 1d 3e d8 6a ac bd
       -0.078582354 -0.15075426 0.15372322 -0.08418816
000120 4a 25 bb bd 51 e3 0f be 83 b9 94 bc 6c a8 f4 bb
       -0.09137972 -0.14051558 -0.018154865 -0.0074663665
000130 67 a6 27 3e 4a 63 5d 3d 4d 1c 14 3e 88 b5 0b 3d
       0.16372071 0.054049768 0.14463921 0.03410867
000140 a1 94 11 be c6 19 0e be ce ee 3d 3c 05 97 01 be
       -0.14216854 -0.1387702 0.01159258 -0.12655266
000150 99 0b 22 3e 13 43 a8 3b 98 d3 61 3c 3c bd 87 bd
       0.15824737 0.005134949 0.013783358 -0.066278905
000160 a2 da b0 3d aa 24 8b 3c 8e 6b fc bd ed 58 a9 bb
       0.08635451 0.016985256 -0.12325202 -0.0051680715
000170 85 e9 85 3b f7 de 1a 3e b7 22 07 bd 02 78 1b 3d
       0.0040866756 0.15124117 -0.03299209 0.037956245
000180 69 8b ad bd ae 3c 32 bd f1 84 e7 3d 7c ca 32 3c
       -0.08473856 -0.0435149 0.113046534 0.010912534
000190 2e 28 b8 3d 57 96 11 3d fe 99 6e 3b 9c 43 93 3d
       0.08992039 0.035543766 0.0036407704 0.0719063
0001a0 c5 84 df bd 47 f4 7a bb 0f 68 bc b8 8a 03 9a 3c
       -0.10913996 -0.0038292573 -8.983921e-05 0.018800516
0001b0 43 4c 01 be 7c 44 16 be 1e b5 99 3c 16 69 37 3c
       -0.12626748 -0.14674562 0.018763121 0.011194488
0001c0 49 93 cb 3d a8 ed fc bd 8f d0 03 3e f4 17 d3 bd
       0.09940202 -0.12350017 0.12872528 -0.10307303
0001d0 d1 e4 0e 3e e2 3d d0 bd 31 4a 58 3d 90 e9 28 be
       0.13954474 -0.10168053 0.05280513 -0.16495347
0001e0 53 67 ab bd af 3c 5c bd ed 0c 0c 3e 52 38 13 be
       -0.08369317 -0.05376881 0.13676806 -0.14376953
0001f0 36 1a ba 3d ef 49 eb 3d 24 88 1a 3b 39 03 38 bc
       0.090870306 0.11488711 0.0023579681 -0.011231237
000200 c0 89 f3 3d 34 26 e5 3c 8f a8 14 3e 03 81 74 3d
       0.11891508 0.027972318 0.14517425 0.059693348
000210 29 dd 30 3d bf ba ae 3d 19 35 02 be 17 e4 39 3c
       0.043179665 0.08531713 -0.12715568 0.011345885
000220 28 5a 92 3d 93 43 f5 3d c9 6d cd 3c 0d 99 1d be
       0.07146102 0.119757794 0.025076764 -0.15390415
000230 cd e8 16 3e 9c dc f7 3d d6 1a bc 3c d5 6f 71 bc
       0.14737244 0.12102625 0.022962015 -0.0147361355
000240 7a 41 d6 3d 84 e9 ea bd 0e c4 f6 bd 49 f7 c1 bd
       0.104617074 -0.11470321 -0.12049113 -0.09470994
000250 90 3d 0e be d0 48 ca bc 2b 41 31 3d f4 6d 34 be
       -0.13890672 -0.024692923 0.04327504 -0.17620069
000260 d4 ab 74 3d 22 95 b3 bc 76 e9 b4 3d 4f de 1d be
       0.05973418 -0.021921698 0.08833592 -0.15416835
000270 d2 6d 41 3d 41 38 01 3e 2e 30 2a be d7 37 d3 bd
       0.047223873 0.12619115 -0.16619942 -0.10313385
000280 9c 2f 2c be 55 58 4d 3d cd e3 c0 3d b8 65 1d be
       -0.16815037 0.050133068 0.094184496 -0.15370834
000290 8b e2 8a 3c 42 e2 1e 3e 25 3f 40 bd ff c6 03 3e
       0.016953727 0.15515998 -0.04693522 0.1286888
0002a0 97 91 bd 3d f4 10 cb 3d 96 b8 69 3d 8e 11 11 be
       0.09256285 0.09915343 0.0570608 -0.14166853
0002b0 59 93 ba 3d 46 86 d5 3c 72 34 46 bd dc 9e e8 3d
       0.091101356 0.026065003 -0.04838986 0.11358425
0002c0 a1 39 e6 3c b7 86 01 be 13 a6 30 be 6b d7 10 3e
       0.028103651 -0.12649046 -0.17250852 0.14144675
0002d0 4a 5f 19 3e 00 52 e3 3d d1 94 a6 3d b0 91 1b 3e
       0.14977756 0.11099625 0.08133853 0.15192294
0002e0 c8 1c eb 3b 36 c0 f8 bd ca bc 12 be 2d aa fd bd
       0.007175062 -0.12146036 -0.1432983 -0.12385974
0002f0 4a d5 5e bd 7f 24 7e 3c 3f 86 32 be d3 ee 7b 3d
       -0.054402627 0.015511631 -0.17434023 0.061507057
000300 32 f7 08 be f0 e8 28 be a5 83 41 bd 4d 13 3a 3d
       -0.13375548 -0.16495109 -0.047244687 0.045428563
000310 f0 8a f1 3d 21 9c ea bc 22 af 65 bd c3 f4 eb 3d
       0.11794078 -0.028638901 -0.056075223 0.11521294
000320 fc fb 96 bc 73 11 0f be f6 d0 33 bd 71 3a f2 3c
       -0.018430702 -0.139715 -0.043900453 0.029568883
000330 65 65 2c bd 84 6c 09 3e d3 3b e3 3b 9c 62 cb 3d
       -0.042088885 0.13420302 0.006934622 0.099309176
000340 12 a8 d9 bd 5d 3d 2a be 3c a4 9e bd 78 6b 4c bb
       -0.1062776 -0.1662497 -0.07746169 -0.0031191986
000350 a8 13 8b bd 0a 3b f8 bd a1 d0 e1 3d 62 ba 07 bd
       -0.067908585 -0.12120636 0.11026121 -0.033136733
000360 7b 9c ae bd f9 2d 30 be 2b 48 02 3e 78 75 b5 bd
       -0.0852594 -0.17205037 0.12722842 -0.08860296
000370 02 ff e5 bd 0d 92 13 bd 7a 02 24 3e 50 ad 26 3d
       -0.112302795 -0.036027957 0.1601657 0.040692627
000380 50 b5 2a bc f4 ab cb bd 73 7a 1b 3e 7d fb e9 bd
       -0.010419205 -0.09944907 0.1518343 -0.11424921
000390 66 4a 49 bc 6d bb 23 3e 9b 1e 1a bd 5a 8f 24 be
       -0.012285804 0.15989466 -0.037626844 -0.1607031
0003a0 b4 cf b1 3c 43 fb b9 bd cb 2d 02 3e 07 55 e4 3d
       0.021705486 -0.090811275 0.12712781 0.1114903
0003b0 57 c6 0c be b2 94 31 be f7 8d 15 bd 2a 55 09 bd
       -0.13747536 -0.17341879 -0.03651234 -0.033528484
0003c0 e4 ca 35 bd 26 5c 7c 3d 04 a5 9c bd e5 5f 3e 3d
       -0.044382945 0.061611317 -0.07648662 0.04647817
0003d0 ad 92 31 be 2b 20 39 3c 51 b5 28 be b8 c7 73 bd
       -0.17341109 0.011299173 -0.16475417 -0.05951664
0003e0 2d a6 dc bd 43 c9 04 3e 62 7a eb bd 62 83 77 bc
       -0.10773883 0.129674 -0.11497952 -0.015107008
0003f0 12 a8 17 3e 2b 3b 0a 3e a7 86 9a bd 8f fc f6 3c
       0.14810207 0.13499133 -0.07545214 0.030149726

lstm.bias_ih_l0 f4 [128]
000000 4e aa 89 bd 5a a4 4e 3c 03 f2 c0 3c 51 d6 58 3d
       -0.06721936 0.012612427 0.0235529 0.052938763
000010 79 5e 49 bd f6 54 8f bd f7 48 3c bb ec 9d 95 3d
       -0.04916236 -0.06998627 -0.0028730014 0.07305512
000020 54 d5 9c 3c 44 7c 25 3e e0 5f 0a be 84 ae 2f be
       0.019144692 0.16160685 -0.13513136 -0.17156416
000030 82 75 bb bd 16 7c a6 3c 16 cc ea bd 80 ab 85 bc
       -0.09153272 0.02032284 -0.114647076 -0.01631713
000040 f6 09 f6 3d cd 2f 03 3e 37 f9 86 bd 96 84 8e 3d
       0.12013619 0.12811203 -0.06590503 0.069588825
000050 5a fd 14 3e 12 7d a7 3d 35 2e 19 3e a4 54 17 be
       0.14549771 0.08178152 0.14959033 -0.14778382
000060 2c 21 81 bc 94 0f 4e bb 9c 99 c6 3d 50 7d 8b 3d
       -0.015762888 -0.003144239 0.096972674 0.06811011
000070 53 65 94 3d 90 fd 17 be 8b db 83 3c 9c e4 29 be
       0.072458886 -0.1484282 0.016095897 -0.16591114
000080 c5 3a 93 3d a1 78 9d bd e2 0b 1a bc d2 e2 16 be
       0.07188944 -0.07689024 -0.009402247 -0.14734963
000090 a9 3f 3f bd 1c 29 0d be cb d0 c3 bd 84 21 17 be
       -0.04669157 -0.13785213 -0.095613085 -0.14758879
0000a0 a3 c9 05 be b6 6a 22 3e c3 a2 24 be a2 c0 f6 3d
       -0.130652 0.1586102 -0.16077714 0.120484605
0000b0 f1 32 1c be 6c 8d 61 bd 66 7e 03 3e 4a ce 05 3e
       -0.15253808 -0.05506651 0.12841186 0.13066974
0000c0 fc 1f 0c 3e cb 80 34 be aa 4c 43 3d de 54 9c bc
       0.13684076 -0.17627256 0.047680534 -0.019083437
0000d0 a5 e3 0a 3e 4b e5 a2 3d 5e e9 a7 bd 4f 0a 87 bd
       0.13563402 0.079538904 -0.08198808 -0.06593763
0000e0 f3 ed f7 bd 11 45 9d 3c 86 0e 31 be 99 6b 91 3d
       -0.12105932 0.019197972 -0.17290697 0.07100601
0000f0 db 38 d0 bd 69 91 6c bd 47 39 5e bc 93 ba a6 bd
       -0.10167094 -0.05775586 -0.013563461 -0.08141055
000100 1f 21 c3 3d fe b5 d5 bd b5 28 30 3d 46 4d 79 3d
       0.09527802 -0.10435103 0.04300757 0.06086471
000110 0e 84 80 3c 98 6c 2b be d0 81 3b b9 67 de af bd
       0.015687969 -0.16740644 -0.00017882069 -0.08587342
000120 24 da 7e bd 84 1f ca bc e5 4b 2e 3e a1 69 24 be
       -0.062219754 -0.024673231 0.17021139 -0.16055919
000130 25 67 0c be 96 cf 2d be f2 3c f9 3c 72 aa 31 bc
       -0.13711222 -0.16973719 0.030424569 -0.01084386
000140 d1 4c be bc 83 d1 e5 bd c8 66 bc 3d a4 3e 6d bc
       -0.023229988 -0.11221602 0.091992915 -0.014480267
000150 44 1e 2d be 4f 7e 77 bc f9 5f f2 3b 8f c9 cb bd
       -0.16906077 -0.015105798 0.0073966947 -0.099505536
000160 c8 37 43 bd a0 2e 8c 3b 87 86 9b bd 6e 8c 05 be
       -0.04766062 0.004278019 -0.075940184 -0.13041851
000170 79 19 11 be 51 a0 a2 3c a6 71 b2 3d 5f 0a 11 bd
       -0.14169873 0.019851835 0.08713083 -0.03541028
000180 c0 15 01 bc 1a b6 e9 3d 00 f0 ba bd 8e 7f 2e 3c
       -0.007878721 0.11411686 -0.091278076 0.010650529
000190 99 21 3a 3d 05 51 1a 3e 0a 84 c7 3c 5a 35 35 bc
       0.045442197 0.15069969 0.024354953 -0.011060083
0001a0 7e f2 09 bc d0 dc cc 3d c2 a4 a9 3d 69 e6 6a bd
       -0.008419631 0.10003054 0.08283378 -0.057348642
0001b0 32 e4 b6 bd 1d 8f 94 bd 11 f5 91 3d 43 d3 35 bc
       -0.089302436 -0.07253859 0.07126821 -0.011097732
0001c0 5d dc 2b be 0c 63 11 3e d8 cd 33 3d f2 02 8e 3d
       -0.1678328 0.1419794 0.04389748 0.069341555
0001d0 a7 62 8f bd a9 94 12 3e b9 22 57 bc 7b ac 4d bd
       -0.07001238 0.14314522 -0.013130837 -0.05021332
0001e0 c4 82 6d 3c f7 3b 93 3d 91 a1 52 bd f7 3d 89 3d
       0.014496509 0.07189172 -0.051423613 0.06701272
0001f0 34 c0 bf 3d 79 88 d7 bc 7f a8 9a 3d 99 da 25 3e
       0.09362832 -0.026310192 0.07551669 0.1619667

lstm.bias_hh_l0 f4 [128]
000000 f9 3d 02 bc b8 64 19 3d 5b 8e e1 3d 0b ff 0e 3e
       -0.007949346 0.03744957 0.1101348 0.13964479
000010 8a f3 0f be 3f 06 0e 3e 17 18 18 3e f2 b6 17 be
       -0.14057747 0.1386957 0.1485294 -0.14815882
000020 89 27 b9 bd 6f 95 c3 bc 1d a0 c5 bd 8b 90 b9 3d
       -0.09040744 -0.023874966 -0.0964968 0.090607725
000030 57 36 f5 3d e4 98 ef 3d f2 d6 19 be a5 0e a3 bd
       0.11973255 0.116990834 -0.15023401 -0.079617776
000040 6b 5d 1c be c9 91 c0 3c dd 33 31 be c0 e1 dd 3d
       -0.15270011 0.023507016 -0.1730494 0.10834074
000050 ef e1 07 be 9a 52 dd bd de f7 15 bd af 70 9e bd
       -0.1326978 -0.108067706 -0.036613338 -0.077363364
000060 54 6f e1 bc 69 6d 25 be d7 2f a5 bd dd bc 7f bd
       -0.027518906 -0.16155018 -0.08065765 -0.062435973
000070 61 f5 4c bd ea 34 a1 3d 8d 0b 87 bb 2b 6b 80 3c
       -0.0500387 0.07871421 -0.00412125 0.015676102
000080 a4 fc 2a 3d 27 a0 11 be eb 7d 04 be 6c 83 91 3c
       0.041744843 -0.1422125 -0.12938659 0.017762862
000090 07 35 72 3d c7 39 94 3c 4a 51 fe 3d f3 cf d5 bd
       0.059132602 0.018093957 0.124178484 -0.10440054
0000a0 9c 76 57 3d f0 0a 1a be 6e 22 79 3d 26 58 aa bd
       0.05260335 -0.15043235 0.06082385 -0.08317594
0000b0 16 b8 ff 3d 3f 0c 98 bc 79 0f e7 bc 82 1a 18 bd
       0.124862835 -0.018560527 -0.02820562 -0.037134655
0000c0 61 d1 18 bd 5c 49 9c bd 56 1d 7e 3d 51 61 03 be
       -0.037309054 -0.0763118 0.062039696 -0.12830092
0000d0 45 5b 4e 3c b6 64 50 3d b0 38 12 3d b7 8f 9e 3c
       0.012595003 0.050877295 0.035698593 0.019355638
0000e0 06 0a 10 bc ef 2d 23 3e e8 81 ac bd 71 34 b9 3d
       -0.008791452 0.15935491 -0.08423215 0.090432055
0000f0 c5 9d c2 bc 07 e8 77 3d d7 e3 2a 3e 7a ff 13 be
       -0.023756871 0.060524013 0.16688477 -0.14452925
000100 b4 ff 9d bd d2 5d 02 3e c8 7d b7 3d 30 f4 0c 3c
       -0.07714787 0.12731102 0.08959538 0.008603141
000110 fc 76 45 3c 44 98 53 bc dd 38 94 3d 75 ac 94 bc
       0.012052294 -0.012914721 0.07237408 -0.01814864
000120 c2 12 4c bd 3b 25 00 3d df b2 89 3c 09 41 45 bc
       -0.049822576 0.031285506 0.016808925 -0.012039431
000130 52 79 d4 3c be a8 6a bc 17 94 93 3d 44 69 93 3d
       0.025936756 -0.014322458 0.0720598 0.07197812
000140 9a 2b f2 3d 38 ed 8c bd 10 22 ce 3d b4 60 71 bc
       0.118247226 -0.068811834 0.10065091 -0.0147325285
000150 e8 fd 19 3e cc 55 4f bd 32 ec 49 bd d3 bc a3 3d
       0.15038264 -0.05061893 -0.04929752 0.07995
000160 4a d6 dc 3d 9c 9c 4d bd 19 66 3c bd 4d 6c 2c bd
       0.1078306 -0.050198182 -0.045995805 -0.04209547
000170 89 56 de 3d 95 5e 06 be 47 1b a3 bc 27 23 a7 3d
       0.10856349 -0.13122018 -0.019910468 0.08161002
000180 a2 7f 8e 3d 5b 4a d1 bb 0c f4 2a 3e 7e 1e 24 3c
       0.06957938 -0.0063870377 0.16694659 0.0100170355
000190 39 c4 77 3c 0d 98 d1 3c 12 2e 03 3e b9 af b8 bd
       0.015122467 0.025585199 0.12810543 -0.090178914
0001a0 bf 52 dd bd 62 06 b0 bc ac b6 80 3b a2 5e 27 3e
       -0.10806798 -0.021487419 0.003928026 0.16344693
0001b0 75 83 93 3c 29 ea 0f be 3e cf 25 be ba d7 c2 bd
       0.01800702 -0.14054169 -0.16192338 -0.09513803
0001c0 39 dd be 3d d8 92 7d bc 34 70 02 3d 08 cc 11 3e
       0.093195386 -0.015476905 0.031845286 0.14237988
0001d0 b1 88 74 bd 70 4f 3f bc e4 15 1f be 85 5a e8 bd
       -0.05970067 -0.011676654 -0.15535694 -0.1134539
0001e0 2c b2 0d be 5f 92 94 3d c7 6f 02 be 44 35 c1 bd
       -0.13837498 0.072544806 -0.12737952 -0.09433988
0001f0 d6 1d 5d bb dc b0 f7 bb 7a c9 bd bc 81 08 0a be
       -0.0033739707 -0.007558925 -0.02316736 -0.13479806

lstm.weight_ih_l0_reverse f4 [128, 171]
000000 7b a2 b7 3d dd e5 58 bd 2e d1 15 be 6e 1f 09 be
       0.089665376 -0.05295359 -0.14630577 -0.13390896
000010 b6 d7 36 3d 43 ea 14 be 14 82 3e bd 73 f7 40 bd
       0.04463931 -0.14542489 -0.04651077 -0.047110986
000020 1e f4 a6 3d 31 3d e9 bc 73 72 f1 bd 36 1a 92 bd
       0.081520304 -0.028471561 -0.117894076 -0.071339056
000030 79 b8 56 3c 44 88 ca 3c 69 76 09 3e a8 37 31 bd
       0.013105505 0.02472318 0.13424076 -0.04326597
000040 b1 a8 0a bd 47 45 ec bd c5 b1 fd 3d 80 cc f5 3d
       -0.033852283 -0.11536651 0.123874225 0.12001896
000050 8f 18 10 be 11 ce ed 3d 99 de 05 be 80 0b 0d be
       -0.14071868 0.1161157 -0.13073196 -0.13773918
000060 cc e6 cd 3d 6e 95 88 3d 08 c5 12 be 39 77 2b be
       0.10053787 0.066691265 -0.14332974 -0.16744699
000070 4a db b5 3c 82 12 0c be 33 85 b7 3d 3b 92 33 3d
       0.022199292 -0.13678935 0.089609526 0.043840628
000080 30 70 08 3e 98 5f fe bc 98 04 1f be 47 e2 18 bc
       0.13324046 -0.031051442 -0.15529096 -0.0093312925
000090 53 00 73 bc 84 09 ea 3d ce 7a 1e 3e 91 b3 08 3e
       -0.01483162 0.11427596 0.15476534 0.13349749
0000a0 dc 4a e4 bd 9f 55 09 3e 9d 4f 7f bd d5 83 f6 bd
       -0.11147091 0.13411568 -0.062331785 -0.12036864
0000b0 d7 91 34 3e 6b e8 94 3d 5c 89 f8 bc 52 a0 f9 3c
       0.17633758 0.07270893 -0.030338936 0.030471954
0000c0 6e 2d 2a 3e 13 c7 0a bc 28 bf 7f 3d 6f a2 23 be
       0.16618893 -0.008470315 0.06243816 -0.15979932
0000d0 6f e6 8c bd 71 c4 2b 3e 39 75 e9 bc 83 bd f3 3d
       -0.06879889 0.16774155 -0.028498279 0.11901381
0000e0 2b de a6 3d 55 f5 29 3d d1 20 1f 3d ee 61 2d 3e
       0.08147844 0.041493732 0.038849656 0.16931888
0000f0 68 d2 0a be 1f d2 86 39 14 06 15 3e 4d 60 28 be
       -0.13556826 0.00025715024 0.145531 -0.16442986
000100 9a 12 23 3e c6 b6 25 3e 96 b8 2f 3e 80 91 f1 bd
       0.15925065 0.16183004 0.17160258 -0.1179533
000110 f0 24 06 be 67 e8 bf 3d e4 ba 17 3d 53 50 18 be
       -0.13100028 0.09370499 0.037043467 -0.14874391
000120 e5 24 b5 bc 63 99 2e 3e 35 b7 8f 3d 17 57 15 bd
       -0.02211232 0.170507 0.07017366 -0.03646001
000130 02 ed 23 3e 92 a7 17 3e a3 1c f0 3d 40 8c 0f bd
       0.1600838 0.14810017 0.11724212 -0.035045862
000140 81 47 03 be 4f 2a 3d 3d 1f 61 e1 3d 16 68 a0 bc
       -0.12820245 0.046182927 0.110048525 -0.019580882
000150 a3 2b 00 3e 7c 14 8c bc c8 11 10 3e 5a 40 94 3d
       0.12516646 -0.017099611 0.14069283 0.072388366
000160 7d 09 12 3e df 91 08 3e ca 8a 61 3d 32 8c 10 be
       0.14261432 0.13336895 0.055064 -0.1411598
000170 93 f4 0e 3b fb 89 e2 3d 52 34 e3 3d a9 62 b1 3d
       0.0021813258 0.11061474 0.11093964 0.08661396
000180 23 fe 0d be 5a 90 b4 3c c6 4f 9e bd 6a 8f 12 3e
       -0.13866477 0.022041488 -0.07730059 0.1431252
000190 5e 09 08 3e 56 7e 2f be ba 5a 34 be 3f cc b3 bd
       0.13284823 -0.17138037 -0.17612734 -0.08779191
0001a0 4d 59 d8 bc fe 3f 04 3e 18 1d 2f bc 3f 38 8a 3c
       -0.02640977 0.12915036 -0.010688089 0.016872523
0001b0 92 c1 bc 3d fa 2b cb ba 13 89 cf bc 7f ff ac bd
       0.09216608 -0.0015500777 -0.025333917 -0.084471695
0001c0 27 05 af bd a1 54 23 3e 30 2a f3 bd c5 8f e2 bc
       -0.085459046 0.15950252 -0.11873281 -0.027656445
0001d0 f4 c1 92 bd a1 af e8 3d 60 d5 11 be d4 98 fb bd
       -0.071659 0.113616236 -0.14241552 -0.12285009
0001e0 34 e1 33 3e 54 fc d4 bd 18 83 24 be 65 3a ad bd
       0.17566377 -0.1039969 -0.16065633 -0.084584035
0001f0 32 4f 20 bd 56 a9 1c bd 38 90 23 3e ff 5e e3 bd
       -0.039138027 -0.03824743 0.15972984 -0.111021034
000200 c4 eb 07 be b4 6d ba bc 18 2d 31 be 64 0c 90 bd
       -0.13273531 -0.022757389 -0.17302358 -0.07033613
000210 6d 42 af 3d 25 5b 18 3d 57 8c 7f 3d b1 ff 24 3e
       0.085575916 0.037196297 0.062389698 0.16113164
000220 3a 1c 02 be 95 42 9f bd ec 64 ce 3d 17 87 b1 3d
       -0.1270608 -0.077763714 0.10077843 0.086683445
000230 2f a4 a3 bd 32 0e 1f be b2 2a 1b be 42 99 82 bd
       -0.079903 -0.15532759 -0.15153006 -0.06376888
000240 6a cb 17 bd da 15 1a be 91 e7 b2 3d ea 56 c0 bd
       -0.037059225 -0.15047398 0.08735574 -0.093915775
000250 af e3 3f bd 33 1c 93 bd 85 31 62 3b 45 6b c8 bd
       -0.046847995 -0.07183113 0.003451438 -0.09786085
000260 85 21 1e be 24 f1 0a be 0c 30 19 3e 2a fa 1d be
       -0.15442474 -0.1356855 0.14959735 -0.15427461
000270 56 57 26 3e 4a ab 0d 3d d8 ab c7 bd 7b cc ac bd
       0.16244254 0.034587182 -0.097495735 -0.08437439
000280 9a 24 93 bd 5e df 08 bd ad 99 80 bd 6a 6a 8e 3d
       -0.071847156 -0.033416145 -0.06279311 0.069538906
000290 67 3c 33 3e f9 ab 08 3e 02 f2 1f be 7d 75 c5 bd
       0.1750351 0.13346852 -0.15619662 -0.0964155
0002a0 0f 24 28 bd 6d b0 24 bd fb 55 28 3e ec 21 00 3e
       -0.041050013 -0.040207315 0.16439049 0.1251294
0002b0 89 f8 2f 3c 01 db 48 bc 13 a5 29 bd 61 76 b5 bd
       0.010740408 -0.012259246 -0.041417193 -0.088604696
0002c0 09 54 bb bd 0d a0 08 be 54 76 ab bd b3 63 2c be
       -0.09146888 -0.13342305 -0.08372179 -0.16834907
0002d0 79 ee 1d 3e 13 c6 ad bd d3 49 b6 3d 63 81 2b 3e
       0.15423001 -0.08485045 0.089007996 0.16748576
0002e0 f0 38 07 bd 4a e4 bc 3d ab 91 c7 bd 6c 92 c8 bd
       -0.033013284 0.0922323 -0.09744581 -0.09793553
0002f0 38 1f 22 be 92 7b 9c bd 6a 05 ac bd 9a 12 48 3d
       -0.15832222 -0.07640757 -0.0839947 0.048845865
000300 1f c6 e8 bd 16 c7 f2 3d 03 86 9c bd a5 39 49 3c
       -0.113659136 0.11854379 -0.07642748 0.01228181
000310 b6 b2 2a be 4e d8 fc 3d 2a 28 63 3d 42 73 23 3e
       -0.16669735 0.12345944 0.055458225 0.15961936
000320 ad bd f4 3d 19 8b d4 bd a2 dc 2f be b0 a1 64 3d
       0.1195024 -0.10378093 -0.17174008 0.05581826
000330 11 a8 c2 3c 1a 26 34 be e5 7b 75 bd 8f cd 24 be
       0.023761781 -0.1759266 -0.05993261 -0.1609404
000340 56 d0 f0 3d c3 1e 5b 3d a3 03 53 3d ba 75 a1 bd
       0.11758487 0.053496134 0.05151714 -0.07883783
000350 a5 a0 05 3d f7 e7 18 3d 7b 96 2b 3e 69 e8 5f bd
       0.032623906 0.037330594 0.16756622 -0.054665003
000360 e6 f6 a1 bd ca 78 12 be 83 05 19 3e df 96 86 bd
       -0.0790842 -0.1430389 0.14943509 -0.06571745
000370 94 58 b3 3d c0 aa 24 bd d6 1e c4 bd 63 3c 2f be
       0.08757129 -0.040201902 -0.09576194 -0.1711288
000380 81 8d c5 bc 8d d6 13 bd f1 fb 08 be e6 6d 47 3c
       -0.024115326 -0.036093283 -0.13377358 0.012172198
000390 9f 20 99 bd 63 b8 4e 3a 77 a3 1e be 5d 1f 23 3e
       -0.07476925 0.0007885752 -0.15492044 0.15929933
0003a0 51 07 c3 3c c6 90 0c be 51 77 d3 bd 19 05 f2 bc
       0.0238072 -0.13727102 -0.10325492 -0.029543446
0003b0 e2 7c 1d bd a5 4f 0e 3d cb 25 16 3e 49 6c 23 bd
       -0.038449176 0.034743924 0.14662854 -0.03989819
0003c0 d2 bc de 3d ce ea a9 bd b8 43 1f 3e 78 f0 35 3d
       0.10875858 -0.082967386 0.15553176 0.044418782
0003d0 bd c2 06 be cf 7e 1e bc cb 18 9b 3d 0e bd aa 3d
       -0.13160224 -0.009673788 0.07573088 0.083368406
0003e0 48 15 93 bc 7b 5b f5 bd 5c 26 13 be 8b 45 c0 3d
       -0.017954484 -0.11980339 -0.14370102 0.09388264
0003f0 b7 2c 21 3d 48 64 a3 3d c7 29 c8 bd a4 ed 1a 3e
       0.039349284 0.079781115 -0.097735934 0.15129715

lstm.weight_hh_l0_reverse f4 [128, 32]
000000 6d 44 e0 bd 5e 48 c1 3d a6 57 59 bd de de 40 bd
       -0.10950551 0.09437631 -0.053062104 -0.047087543
000010 56 df 15 3d a2 6b ce 3d d7 3c 07 3e 4b 84 94 bb
       0.036589943 0.10079123 0.13206802 -0.004532372
000020 df f0 97 3b 2e ca 33 3d 5b c2 2b 3e 98 cc 58 3d
       0.0046368684 0.043893985 0.1677336 0.05292949
000030 cb 36 2a 3e 77 ad 11 bd fb f5 06 3e 44 5f e6 bd
       0.16622464 -0.03556582 0.13179772 -0.11248639
000040 bc 15 e1 bd 25 f9 e7 3c f3 92 12 3e 6d 13 aa 3d
       -0.10990474 0.028317044 0.14313869 0.083044864
000050 42 04 a6 3d f8 7e 92 bd 98 19 1a be 4b b2 c0 bd
       0.08106281 -0.071531236 -0.15048826 -0.09409007
000060 d1 b4 f8 bd df 91 82 bd 4f 65 98 3d 1a 6e bd 3d
       -0.12143863 -0.06375479 0.07441198 0.09249516
000070 46 b8 14 be bd c4 ba 3d a1 71 e0 bd fe b4 d2 3d
       -0.1452342 0.09119556 -0.10959173 0.10288428
000080 97 27 c9 3d 99 c9 93 bc c7 e9 88 3d 5c 0e 04 be
       0.09822004 -0.018040465 0.066852145 -0.12896103
000090 dd ab 0e 3e 21 4a 15 3e 54 5c 70 3d 70 7b 91 bd
       0.13932748 0.14579059 0.0586818 -0.07103622
0000a0 31 91 22 3e f9 68 28 3e d2 f0 b0 3d eb 9c 32 be
       0.15875699 0.16446294 0.08639683 -0.17442672
0000b0 b9 dc 2c 3e 7f 61 19 bd 6d 4f 3b bd 17 e9 02 bd
       0.16881074 -0.037446495 -0.045730043 -0.031960573
0000c0 9e 47 68 bd f4 1d b9 bd 1d d3 ba bc 07 2e 89 3d
       -0.056708924 -0.09038916 -0.022805745 0.06698232
0000d0 12 56 c9 3d 79 72 d2 bd 6e 82 f6 3d 0d 97 27 be
       0.0983087 -0.1027574 0.12036596 -0.16366215
0000e0 89 be d1 bd 29 04 0f be 18 93 1a 3d 99 a8 4f bd
       -0.1024142 -0.1396643 0.037737936 -0.050697897
0000f0 67 40 6c 3c c1 23 22 be a5 09 03 be fb 6e 14 3e
       0.014419652 -0.15833952 -0.12796648 0.1449546
000100 6f 89 96 3c be 22 ac bd 30 fa fc 3d ed 36 85 3b
       0.01837608 -0.08405064 0.12352407 0.0040653856
000110 96 d8 29 3e bf 0c e6 bd 95 61 2c 3d 08 63 fc 3c
       0.16586527 -0.112329 0.04208525 0.03080894
000120 cc cc d9 3d ad 43 94 3d 46 83 b7 bd bc 4c 24 3e
       0.10634765 0.07239471 -0.08960585 0.16044897
000130 06 d4 13 be 9b ed ff 3d 63 05 0a bd db 3e a0 3c
       -0.1443635 0.124964915 -0.033696543 0.019561222
000140 f9 5f 5f 3a 47 15 11 be 9c 15 0a 3b 23 eb 1e 3e
       0.0008521076 -0.14168273 0.002107001 0.15519385
000150 da db c9 bc 7c 5b 03 be ef f4 02 be ce 27 1d 3e
       -0.024640966 -0.12827867 -0.12788747 0.15347216
000160 d9 83 33 bd a3 c6 03 3e 46 ab b1 3c a4 75 61 3c
       -0.04382691 0.12868743 0.021688115 0.013760958
000170 a1 32 af 3d 5a 59 91 bd f3 b7 d3 bd f5 2a a1 bd
       0.085545786 -0.070971206 -0.1033782 -0.078695215
000180 ab 53 2b 3e 21 6e a7 bd 67 d8 29 bd 5d 51 d4 bd
       0.16731136 -0.08175302 -0.041466143 -0.10367081
000190 a1 c6 76 bd 67 23 51 bd 8f b3 81 bd 6b c2 17 be
       -0.06024802 -0.051059153 -0.06333076 -0.14820258
0001a0 05 5d 33 be bb f3 21 3e b8 c2 94 bd 37 2c 3b 3d
       -0.17515953 0.15815632 -0.07263702 0.045696463
0001b0 58 c3 32 3d eb 49 89 bd b9 9f f1 bd 65 ec 06 bd
       0.043643326 -0.06703552 -0.11798043 -0.032940287
0001c0 8b 00 0f 3e 38 13 1f 3d a2 14 4e 3c 81 72 22 bd
       0.13965051 0.038836688 0.012578161 -0.03965998
0001d0 95 36 e3 3d 58 f1 0b be 99 0f 17 3d 25 ec 50 3c
       0.11094395 -0.13666284 0.03688011 0.012751614
0001e0 8d e5 e8 bd 09 0e ea bd d7 1e 27 be 91 81 15 be
       -0.11371908 -0.11428458 -0.16320358 -0.14600207
0001f0 cc 78 bd bc 39 70 fd bd 27 fe 48 bd 2a d9 21 be
       -0.02312889 -0.123749204 -0.049070504 -0.15805498
000200 6f 4d 2e 3e 2a 9d bf bb 46 4a f6 3d f9 d2 04 3e
       0.17021726 -0.005847593 0.12025885 0.12971105
000210 07 f0 03 be 4c b8 b5 bd 0f 0e f7 bd 5e f2 b1 bc
       -0.12884532 -0.088730425 -0.12063228 -0.021722015
000220 6b 40 2f 3e 29 e0 33 3e 65 6c 29 3e 28 a4 05 bd
       0.17114417 0.17565979 0.16545255 -0.032627255
000230 7b 5f dd 3d d1 2a 08 3e 22 7f 0e 3d 65 13 b9 bb
       0.10809227 0.13297583 0.034789212 -0.005648064
000240 5a 10 97 3d 45 ed 30 3e 74 4c 07 be fd 13 33 be
       0.07376166 0.17278011 -0.13212758 -0.17488094
000250 52 23 aa 3d 3e a5 e6 3d 03 5d 1d 3e 4f c5 2e 3e
       0.08307518 0.11261986 0.15367512 0.17067455
000260 dc 01 f2 bd cf ff a9 bc 4d 2a 82 3d 96 03 e4 bd
       -0.11816761 -0.020751862 0.063557245 -0.111334965
000270 b5 d6 26 be ca 71 bf bd a9 9f 7b bb 38 ce e6 3c
       -0.16292842 -0.093478754 -0.0038394725 0.028174505
000280 fc 8a 2d 3e c7 2b 1d be 3c 9e 11 be 29 56 1f 3e
       0.1694755 -0.15348731 -0.14220518 0.15560211
000290 ba ab fb bc a6 1e 11 be 71 1c c7 bd ad ba 2b be
       -0.030721534 -0.14171848 -0.09722222 -0.1677043
0002a0 4a 20 30 3e 4a cb d0 bd e3 d4 e7 bd 09 22 80 bd
       0.17199817 -0.10195024 -0.11319902 -0.06256492
0002b0 eb 98 34 3e 2b be 67 3a 49 eb 10 3e 93 76 6b bd
       0.17636459 0.0008840288 0.14152254 -0.057486128
0002c0 db b9 8b bd c2 30 f2 bd 9b 94 d8 3c ad 76 7e bd
       -0.068225585 -0.11825706 0.026438048 -0.062124897
0002d0 b8 7e 2f 3d c6 80 c7 3c 08 ef 30 bd 5b b5 6d bd
       0.042845458 0.024353396 -0.043196708 -0.058034282
0002e0 8a ed 23 be 00 7e b4 3d f2 f4 14 be 1f 3e 18 be
       -0.16008583 0.08813095 -0.14546564 -0.14867447
0002f0 a4 1b f9 3d b0 af 89 bd 7c 14 43 3d a4 42 59 bc
       0.12163475 -0.06722963 0.047626957 -0.013260517
000300 4d 87 26 3e 39 4b e8 3d d5 74 0a be ed a9 34 be
       0.1626255 0.113424726 -0.1352113 -0.17642947
000310 e5 03 0a be a6 12 2c bd 44 08 3d bd 53 2b 2a be
       -0.13478048 -0.042009972 -0.04615046 -0.1661809
000320 32 cc 71 3d f0 db da 3d f3 a2 c1 3d 09 ad 6d bd
       0.059032626 0.10686481 0.09454908 -0.058026347
000330 03 21 5f 3d cd 20 10 be 2f e1 21 3d 01 32 2f 3e
       0.05447484 -0.14075013 0.039521392 0.17108919
000340 ad 1e 32 3e fd cd 88 3d 1b 96 c8 bd f0 04 87 3d
       0.17394514 0.06679914 -0.09794255 0.06592739
000350 4b b7 05 be 74 99 40 bd 5a fa 42 3d 52 f3 78 bd
       -0.13058202 -0.047021344 0.047602035 -0.060778923
000360 3a c1 85 3d 56 97 e3 bd 24 0e 88 3d 5d 6d 0d 3d
       0.06530996 -0.111128494 0.06643322 0.034528125
000370 6c 6a f3 bb c2 8c e7 bd a8 86 57 ba 38 55 13 be
       -0.007428458 -0.11306144 -0.00082216645 -0.14387977
000380 cf cd 8d bd c7 f6 0b 3d fb ae 2a 3e 1e f3 b1 bd
       -0.069240205 0.034170892 0.16668312 -0.08688949
000390 22 12 f3 bd c0 bd 2e ba a7 94 32 3e b2 5d a4 3d
       -0.11868693 -0.0006665848 0.17439519 0.080256835
0003a0 b0 fe 4a bd 66 11 70 bc ac da 3e 3d 41 ab 1d 3e
       -0.049559295 -0.014652586 0.04659526 0.1539736
0003b0 f5 ab 32 3e aa 3c a4 3d 8d e0 60 bd c6 c3 eb 3d
       0.17448409 0.08019383 -0.05490165 0.1151195
0003c0 ba 6e 63 bd f9 60 84 bc 96 9b 4a bd 99 20 0c 3e
       -0.05552552 -0.016159521 -0.049464785 0.1368431
0003d0 55 34 05 3e 1c ab 67 bd da c6 b3 3d 10 92 45 3c
       0.13008244 -0.056559667 0.08778162 0.01205875
0003e0 8e b6 49 bb b1 a5 21 3e 19 2f 08 3e 27 69 1c 3e
       -0.0030778977 0.15785863 0.13299216 0.15274487
0003f0 f5 4e 68 bd 59 ef 4e 3d d4 27 a7 bd 3f 18 c6 3a
       -0.056715924 0.05052123 -0.081618935 0.0015113427

lstm.bias_ih_l0_reverse f4 [128]
000000 6f b2 1e 3e 3a 47 0d 3d a4 25 cd 3d d7 7e c3 3c
       0.15497755 0.034491755 0.10016945 0.023864193
000010 18 06 dd 3c 14 dd 4d 3d 9b 69 27 3e dc d8 21 be
       0.026980445 0.050259665 0.16348879 -0.15805382
000020 7d f8 b4 3d 23 5f 39 3d 4f 5d 1c be 8f 0f b9 bd
       0.08836458 0.045256745 -0.1526997 -0.09036171
000030 64 bd 19 be 4d e9 6c 3d 7c 63 99 3d 62 65 ce bd
       -0.15013653 0.05783968 0.07489678 -0.10077931
000040 86 03 e7 3d a4 83 1a be c1 e1 bf bd d8 ca 94 bc
       0.11279969 -0.1508928 -0.09369231 -0.01816313
000050 3a 88 8a 3d 02 17 01 3c 84 2d 22 be 26 93 d5 3d
       0.067642644 0.007879021 -0.15837675 0.10428457
000060 cc 5b 44 bc cb 2f d3 bd ed c2 9c 3d ce 68 98 3d
       -0.011984777 -0.1031185 0.07654367 0.07441865
000070 80 51 2f be e1 9a ad 3d e8 99 f9 3c 14 33 0d 3e
       -0.17120934 0.084768064 0.030468896 0.13789016
000080 a7 29 08 3e 88 3b ca 3d 96 ec 19 3e 61 5a 2a 3e
       0.13297139 0.09874636 0.15031657 0.1663604
000090 7f 92 d3 3d 44 ad af bd 77 76 2d bd f0 8b 5a bd
       0.10330676 -0.0857797 -0.042349305 -0.05335611
0000a0 a8 22 87 bd 63 be c7 bc 0a 91 28 3e 37 d6 1e 3d
       -0.06598407 -0.024382776 0.16461578 0.03877851
0000b0 73 09 12 3e e0 aa 2e bd d4 21 bf bd e0 fc da bc
       0.14261417 -0.042643428 -0.09332624 -0.026731908
0000c0 18 f4 ad bc 3e a3 25 be df 6f 74 3b 44 c9 c4 3b
       -0.021234557 -0.16175553 0.0037298126 0.006005438
0000d0 d1 da 85 bc 49 58 19 be 65 1b 2a be d1 2f 01 be
       -0.016339691 -0.14975084 -0.16612013 -0.12615897
0000e0 ab 84 5b bc a5 93 e0 bc 90 1e 8d bd 11 bd 12 be
       -0.01339833 -0.027414152 -0.06890595 -0.14329936
0000f0 2f 94 c7 bc 38 a8 19 be 7b 79 99 bc eb b5 04 3e
       -0.024362652 -0.15005577 -0.018734684 0.12960021
000100 e9 4e 2b be 15 fd e3 3c f2 d5 30 be f6 60 61 bd
       -0.1672932 0.02783064 -0.17269114 -0.05502411
000110 40 e3 37 3d fe d7 2e bd 0c 06 19 3e 1b f3 71 3d
       0.044894457 -0.042686455 0.14943713 0.059069734
000120 4b 11 f1 bd 94 77 da 3d 3f 08 30 3e 79 73 6e 3d
       -0.117708765 0.10667339 0.17190646 0.058215592
000130 bd e9 47 3d fd 5a df bd cd 8b 2d be 58 7a d8 bd
       0.048806895 -0.109060265 -0.16947861 -0.1057021
000140 e7 d2 2e 3e c6 d0 34 3c 68 0c 18 3e 74 84 3b bd
       0.1707264 0.011036104 0.14848483 -0.045780614
000150 a0 a4 03 3e 2b 1c 96 3d 3b 30 f6 3d df 22 bd bc
       0.12855768 0.07329591 0.12020918 -0.023087917
000160 0e bd 4d bd 06 a5 28 be d5 2b 2c 3e cd 41 d5 3d
       -0.050229125 -0.16469201 0.16813596 0.10412941
000170 05 89 be bd 55 c4 14 be 2e c1 8f 3d fc 80 08 3d
       -0.09303478 -0.1452802 0.07019268 0.033326134
000180 d6 19 09 3e e7 f1 f4 bd 89 bc d3 bd 6d 0a a8 3d
       0.13388762 -0.11960202 -0.103386946 0.082051136
000190 99 10 4a bd e7 3f 0e be 43 eb a9 3d 8b db f3 3d
       -0.049332235 -0.13891564 0.08296826 0.11907109
0001a0 48 fe 0b be 5e bf d3 3d ad 11 5b 3d 3f ba 24 3d
       -0.1367122 0.10339235 0.053483654 0.04021668
0001b0 ad b9 a3 3d ff 2a 25 be 64 a2 19 be f3 ee 26 3e
       0.07994399 -0.16129683 -0.15003353 0.1630209
0001c0 bc 42 a0 ba 88 f1 30 3d 43 3e e0 bc 44 47 27 3e
       -0.001222692 0.043199092 -0.027373439 0.1633578
0001d0 6a bb 18 be 68 0b 2f 3e 45 14 c7 bc 4b bc c2 3d
       -0.14915243 0.17094195 -0.024301657 0.0950857
0001e0 4f 94 db bd f5 e6 93 3d 65 4e d7 bd a4 12 36 3c
       -0.10721647 0.07221786 -0.105129994 0.011112843
0001f0 0c 69 84 3d f9 97 8e 3d ca 1a 0d 3e 41 d2 20 3d
       0.064653486 0.0696258 0.1377975 0.039263014

lstm.bias_hh_l0_reverse f4 [128]
000000 b8 81 d2 bd 3b 8e c3 bc 1f 7c d7 bd d8 da 94 bb
       -0.10278648 -0.023871532 -0.10521721 -0.00454269
000010 85 78 28 3e e9 21 1b be 6a c7 29 3c 8e 70 36 3c
       0.16452225 -0.15149654 0.010362485 0.011135234
000020 97 59 1f be 90 48 04 3e e1 e7 fb bd a0 07 1a be
       -0.1556152 0.12918305 -0.12300087 -0.15041971
000030 2a 9a 8d bd b4 2d ef 3d 8f a9 83 bc 6f 11 b7 bc
       -0.0691417 0.11678639 -0.016072063 -0.02234718
000040 70 69 8a 3d e8 95 c2 3d 3f 7a 16 bc b2 c6 64 bd
       0.06758392 0.095012486 -0.009184419 -0.055853553
000050 85 22 2e 3e ce 2b e3 bd c4 56 27 be 27 79 32 be
       0.17005356 -0.110923395 -0.16341692 -0.17429028
000060 c8 d7 02 be 5e 4c 67 39 ef 81 bb bd fc 3c 53 bd
       -0.12777627 0.00022058326 -0.09155642 -0.05157183
000070 1c 93 f6 bd a5 bc ea 3d 21 5a 0d 3e 0b 99 ef 3b
       -0.12039778 0.11461762 0.13803913 0.0073119453
000080 1b 37 27 3e a8 fd f6 3d a9 9f 8e 3d b9 37 0a 3e
       0.16329615 0.120601 0.069640465 0.13497819
000090 20 fd d4 bd 3c 52 75 bd a9 81 9f 3d b9 2d 93 bd
       -0.10399842 -0.059892878 0.077884026 -0.07186455
0000a0 8c 44 84 bd 89 b3 86 bd cd 21 d9 3d 39 10 ba bd
       -0.06458387 -0.06577212 0.1060215 -0.090851255
0000b0 fd c7 16 3e 32 e7 8b 3d c0 06 14 be 71 6b 8a bd
       0.14724727 0.068312064 -0.144557 -0.06758774
0000c0 53 39 75 3d ce 02 de 3d d0 81 17 be 7d 8f 12 be
       0.05986912 0.10840379 -0.14795613 -0.14312549
0000d0 f4 99 02 3e 5a 98 19 3e 2b 60 c0 bd 14 e0 20 3c
       0.12754041 0.14999524 -0.093933426 0.009819049
0000e0 4b 24 96 bd b3 35 29 3e 64 ac 81 bd 11 60 e4 bb
       -0.07331141 0.16524391 -0.06331709 -0.00696946
0000f0 6c 30 24 3d 64 8c 74 3d 2e 17 01 be 7f 48 17 be
       0.04008524 0.0597042 -0.12606499 -0.14773749
000100 82 86 a8 bc 8b ab ac bc 7b ab a9 3c b5 15 c3 bd
       -0.02057195 -0.021077892 0.020711651 -0.09525625
000110 e0 92 26 3e f2 cc 3d 3d 28 7f 9e bd 48 5e 04 3e
       0.16266966 0.04633803 -0.07739097 0.1292659
000120 55 07 d2 bb e0 0b a2 3b e3 89 9d bd 63 dd 0a 3e
       -0.0064095655 0.0049452633 -0.076923154 0.13561015
000130 c2 c0 86 3d 37 92 7d bd bc ea 06 3e cf 51 e5 3d
       0.065797344 -0.06190702 0.13175482 0.111972444
000140 5f eb 2b 3e 63 ab 2f 3e 44 92 ed bd 05 a4 b4 3d
       0.16789006 0.17155223 -0.116001636 0.08820347
000150 dd 6d db 3d 0d 9c 11 3d 1c 89 1c be 72 2a 99 3d
       0.10714314 0.035549212 -0.15286678 0.07478799
000160 72 23 ae bd f4 5b 22 3e 82 72 b5 bd 88 d7 65 bd
       -0.085028544 0.1585539 -0.08859731 -0.05611375
000170 8a 51 ec 3c 6e 46 3c 3d 8f ab 2b be 30 5a 94 3d
       0.028847475 0.045965604 -0.16764663 0.072437644
000180 5a 4d 2d 3e 13 c2 22 be 12 41 28 3e 4e 7a 98 bc
       0.16924039 -0.15894346 0.16431072 -0.018613007
000190 06 e0 07 bc eb 58 a0 3d bb 76 c4 3d 6b 49 88 bc
       -0.008293157 0.0782946 0.095929585 -0.01663657
0001a0 8f ac ba 3c 50 6b e8 bd a6 00 72 3c 94 3b 56 3b
       0.02278736 -0.11348593 0.014770662 0.003268932
0001b0 f8 f5 32 3e 26 24 d7 bd 85 13 04 3e 6c 40 21 be
       0.17476642 -0.10504942 0.12898071 -0.15747231
0001c0 f3 22 f4 bd a6 7f 92 3d 8d e2 00 3e 40 c9 1d 3e
       -0.119207285 0.07153253 0.12586422 0.15408802
0001d0 a5 88 11 be 25 a0 91 bd 70 dc 29 be b9 3b ed bd
       -0.14212282 -0.07110623 -0.16587996 -0.11583657
0001e0 97 14 13 3e 8e 00 a1 bd a1 c9 1b bd 15 a1 01 be
       0.14363323 -0.07861434 -0.038034085 -0.12659104
0001f0 8c 3e 93 3d 44 5a 0e be 81 3d 8d bc 33 12 5b 3c
       0.07189664 -0.13901621 -0.017241241 0.013371038

lstm.weight_ih_l1 f4 [128, 64]
000000 07 eb d9 3c 88 20 9d 3d d4 57 2d bd 3b 72 18 bd
       0.026601328 0.076722205 -0.042320088 -0.037218314
000010 d6 1d e8 3d e1 c9 10 3e af bb 11 3e e3 cb 9f 3d
       0.11333816 0.1413951 0.14231752 0.0780256
000020 9e d6 0f be 16 6a c9 bc 46 6d ac 3d 4e 1f 6d 3c
       -0.14046714 -0.024586719 0.0841928 0.014472796
000030 90 64 08 be 33 1f c9 3d b2 b9 18 be 9c db 19 3e
       -0.13319612 0.09820404 -0.14914587 0.1502518
000040 ef 24 09 bd d3 16 ab 3d 93 60 bc 3d 9e 41 05 3e
       -0.03348249 0.08353963 0.091981076 0.13013312
000050 a0 01 1c 3d 86 d4 bd bc c0 40 da bd 76 73 31 be
       0.038087487 -0.023172628 -0.10656881 -0.17329201
000060 f7 17 8a 3d f4 4b 04 be 61 5f 83 bd e7 d8 27 3d
       0.06742852 -0.12919599 -0.064146765 0.04097834
000070 9e c3 5a 3d b7 b5 31 bd 54 3f f6 3d af 9a 12 3e
       0.05340921 -0.043386187 0.12023798 0.1431682
000080 e7 82 0e 3b 46 98 da 3d 4c 4e 0a 3e 28 e4 02 3d
       0.0021745504 0.10673575 0.1350643 0.031955868
000090 5b aa a8 3c 09 b8 07 bd 8f 9d 2d 3d 52 23 26 be
       0.020589044 -0.033134494 0.042386588 -0.16224411
0000a0 98 da f3 3d f1 4c 04 3d cd f5 a5 3d 90 e3 8c bd
       0.11906928 0.03229994 0.081035234 -0.068793416
0000b0 d1 94 b7 3d 34 37 72 bc c1 57 29 3e 43 5c 07 3e
       0.08963931 -0.014783669 0.16537382 0.13218789
0000c0 a3 31 7e bd 39 3c 08 3e 96 6c 14 3d 19 40 c1 bd
       -0.062059056 0.13304223 0.036236368 -0.09436054
0000d0 1b 0d b4 3d 01 e3 d4 bd c8 0c ec 3d a2 5d 3c 3d
       0.08791562 -0.1039486 0.11525875 0.045987733
0000e0 18 77 c1 3d bb 27 7c bd c2 cd e6 3d 64 ad 92 bd
       0.094465435 -0.061561327 0.11269714 -0.07161978
0000f0 ec 54 59 bd 95 f2 5f bd 88 5a 15 be e1 78 ae bd
       -0.053059503 -0.054674704 -0.14585316 -0.085191496
000100 af 91 17 bd 3e ee 34 bd d6 99 b2 bd 84 c5 99 bc
       -0.03700417 -0.044172518 -0.08720748 -0.01877094
000110 48 0d 45 3c 16 aa 07 3e cd 3a 2b 3e 96 3b fc bd
       0.012027092 0.13248476 0.1672165 -0.123160526
000120 06 7c 1d bc 7c 95 48 3d 62 ac 8b 3d 83 fe 7e bc
       -0.009612089 0.048970684 0.06819989 -0.01556361
000130 46 af 26 be c6 f0 6a 3d b6 ab 2b 3e 1b c0 df 3d
       -0.16277799 0.057358526 0.16764721 0.10925313
000140 b1 84 12 3d 59 43 94 3d f4 c7 1c be b2 cf 21 3e
       0.035771076 0.07239408 -0.15310651 0.15801886
000150 b9 4e 26 3e d5 b6 82 bd de 01 e7 3d 15 7e dd bd
       0.16240968 -0.06382529 0.11279653 -0.10815064
000160 fc 12 22 3e f6 79 18 3d a9 43 bc 3d e9 2c 73 3d
       0.15827554 0.037225686 0.09192593 0.059369
000170 35 86 31 be 8f 82 3e bd 55 8a 16 3d 44 61 08 bc
       -0.17336352 -0.04651123 0.036753017 -0.008323971
000180 03 32 8a 3d 38 5e 55 bd da 1a 93 bd 41 fa 29 be
       0.0674782 -0.052091807 -0.07182856 -0.1659937
000190 b4 1b 28 bd dd cb d6 bb b0 52 86 3b 47 77 19 be
       -0.041042045 -0.006555064 0.0040992126 -0.14986907
0001a0 a3 0b c3 bc be a9 06 be aa 69 e8 bd 43 6a 23 bd
       -0.02380926 -0.13150689 -0.11348279 -0.03989626
0001b0 ae 56 26 3c 2b 11 9c 3d 68 56 19 3c ef 8f 02 3e
       0.010152502 0.07620462 0.00935898 0.12750219
0001c0 f2 0c 10 bd 0a 13 57 3d 6c ae 64 3c 92 a4 2d be
       -0.035168596 0.05250839 0.013957601 -0.1695731
0001d0 05 04 0f be 33 8d 9f 3d 05 07 6c bd 7f 73 26 3e
       -0.13966377 0.077906035 -0.05762388 0.16254996
0001e0 6a a3 9d 3d 4e c2 c0 bd 1b e2 33 3e e5 91 fc bd
       0.076971844 -0.09412061 0.17566721 -0.12332515
0001f0 ac e5 21 be d8 91 1e bd 33 b5 15 be dd 7d 50 bd
       -0.15810269 -0.038713306 -0.14619903 -0.050901283
000200 09 1b ea bc 12 10 77 3d 9e 31 e4 bd 8a c6 59 3c
       -0.028577344 0.06031806 -0.11142276 0.013291964
000210 bb 61 e5 3d 5c b0 35 3d 29 b4 25 be af 2b fe bd
       0.11200281 0.044357643 -0.16182007 -0.12410676
000220 ad 5c 1b 3e 54 19 3e 3d 61 15 30 3d b1 c2 a6 3d
       0.15172072 0.046410874 0.04298914 0.08142603
000230 c9 32 97 3d b4 18 6d bd 7d 8b c9 3d 47 23 ef bd
       0.073827334 -0.057884887 0.098410584 -0.116766505
000240 ee fb 1b bd b7 a7 17 be 1c b9 af bd 52 6b e3 3c
       -0.038082056 -0.14810072 -0.08580229 0.027761135
000250 44 45 14 be 9d 92 8d bd a1 80 23 3e b6 c3 1a be
       -0.14479548 -0.0691273 0.15967037 -0.1511372
000260 66 61 f1 3c 4d 4d 0c 3e 16 f7 02 be 4e 84 05 be
       0.029465389 0.13701363 -0.12789568 -0.13038751
000270 23 99 11 3e fc 54 df 3d 9c 04 e7 3d d0 9c 92 bd
       0.14218573 0.10904881 0.11280176 -0.07158816
000280 b2 c3 30 3e a1 66 c4 3d 14 0b e6 bd 50 08 89 bd
       0.17262152 0.095898874 -0.11232582 -0.066910386
000290 58 d5 15 3e 90 f6 88 3c 46 1e 13 3e 85 ea db 3b
       0.14632165 0.016719133 0.14367017 0.0067113065
0002a0 0f 52 4e bd 64 1d 1a 3e f5 c9 0d 3d 2b ab 1e 3e
       -0.050371226 0.15050274 0.03461643 0.15494983
0002b0 e4 9f 24 be 43 23 0b be b1 63 7c bd 6e 93 2f 3e
       -0.16076618 -0.1358767 -0.06161851 0.17146084
0002c0 00 0d 5b 3d 44 09 0a be 4f 7e ba 3b 42 ac bb bc
       0.053479195 -0.13480097 0.0056913267 -0.022909287
0002d0 27 61 11 3e 01 99 cd 3c d6 6e 1e be bd 4f c5 3d
       0.14197217 0.025097372 -0.15471968 0.096343495
0002e0 75 f6 9d bd 47 99 29 3e d4 71 e2 3d c5 e5 d0 3d
       -0.077130236 0.16562377 0.11056867 0.10200075
0002f0 f4 17 e9 bd ef a0 b3 3d 23 09 1d be 2f 96 34 3d
       -0.11381522 0.0877093 -0.15335517 0.04408854
000300 dc dc ec 3c 18 81 d7 3d 90 1f a9 bc 91 d0 1d bd
       0.028913908 0.105226696 -0.020644933 -0.038528983
000310 51 d1 0d 3d 7c f0 d1 3d cd 6f 0a 3d 6e b7 12 3e
       0.034623448 0.10250947 0.033798028 0.14327785
000320 f7 b7 1f be f2 90 ba 3d 95 c4 07 3e 79 b1 a2 bd
       -0.15597521 0.091096774 0.13258584 -0.079440065
000330 cd 70 c3 3d e0 7d 00 3d 75 05 9a 3c 76 b5 72 bd
       0.095429994 0.031370044 0.01880143 -0.059255086
000340 a6 c8 96 bc 37 d6 03 be 0d a0 e5 3d 3f 67 ba 3c
       -0.018406224 -0.12874685 0.11212168 0.02275431
000350 72 eb 00 3e d4 48 0c 3c 9f a8 16 be 58 fa ba 3d
       0.12589815 0.008562285 -0.14712761 0.091297805
000360 8e 9e 2d bb 8c 3e 34 be 91 25 71 bd ad 7d eb bd
       -0.002649221 -0.17601985 -0.058873717 -0.1149858
000370 5a 03 0d 3c 29 00 e1 bd ef ee fd bd 0b b3 2a 3e
       0.008606756 -0.10986359 -0.123990886 0.16669862
000380 26 25 b3 3c f5 68 51 bd 17 50 21 3e 9e 71 b6 3d
       0.0218683 -0.051125485 0.15753208 0.089083895
000390 40 0f 2a be a1 23 25 be fd cf b2 bc 49 4e e8 3d
       -0.1660738 -0.16126873 -0.021827692 0.11343057
0003a0 ed 04 43 bd 80 38 2a 3e 0f 1d 23 bc dd ae 32 3e
       -0.04761212 0.16623116 -0.009955659 0.17449518
0003b0 52 22 ee bd 6d de de bc e4 dc 27 3e c4 e4 00 3e
       -0.1162764 -0.02720567 0.16392857 0.12587267
0003c0 3d 8a ee bb ac 94 34 3e 6b 27 22 be a6 be 24 bd
       -0.007279663 0.17634839 -0.1583535 -0.04022088
0003d0 49 e4 8d 3a 7a 7d 2b be 1e f1 77 bd 8a 43 a6 3d
       0.001082548 -0.16747084 -0.06053268 0.08118351
0003e0 d6 31 18 be 03 80 cc bd d1 78 ae 3d 29 26 9f bd
       -0.14862761 -0.09985354 0.08519138 -0.0777095
0003f0 5c 70 f4 3d 57 01 e8 3c e9 f1 1e be f8 a9 2e 3e
       0.11935493 0.028320951 -0.15521969 0.17057025
