Trained/rnnV3.pth (torch, 769397 bytes, 72 tensors)

gru.weight_ih_l0 f4 [96, 171]
00000000: ea2b 38bd ef16 123d c5ff a53d 4b53 a1bd
00000010: f7fc fabd 5dba 383d c059 df3d 2e05 fe3c
00000020: 5674 91bc 4388 0bbd b7dc e73c 1ed7 eb3c
00000030: 3038 1c3e 1246 c33c e422 11be d656 8f3d
00000040: 873c e0bd f103 543d 0eff fc3d c0f7 de3c
00000050: 9a4b 43bd 007e a5bd 0938 60bd 9fd6 b23c
00000060: 79ac bebb ee0e d8bd 57be 8b3d e397 be3d
00000070: 773e d23d 161c 95bd a0bc ab3d 7909 0cbd
00000080: 4743 013e 5fe8 253c 3208 11be bd61 05be
00000090: 2265 a3bd 1dfc fa3d e4b1 ec3d b909 c3bc
000000a0: 5972 2cbd f041 66bd ec88 7b3d 949c 6fbd
000000b0: 6dc8 bf3c 5ea9 863d 1476 0ebe 28f9 2f3c
000000c0: cf27 dfbd 8043 2fbd ed0f d53d 2f7f aebd
000000d0: 892f b7bd 3b92 14be f932 06be ab00 013e
000000e0: b4e8 cabd b681 2abd 0e58 0a3b 9aad d53c
000000f0: 6f0b d9bd 0d49 e2bc 411b eebd 94b1 3fbd
00000100: 7d91 7e3d 06c2 823d 8226 d93d 8736 223e
00000110: 21a2 f3bc 6557 bfbb 94f5 e1bd 21d4 cf3d
00000120: a566 ee3c 205e 923d e21d 293c f08d 1cbc
00000130: c1ec e5bd 1c66 bcbd 27c3 4fbd 0ab2 8dbd
00000140: 5fc2 163d f58d c83d 4484 cdbd e0bc 193e
00000150: 9066 6ebd 9b10 f23d 1c80 01be 95f0 0d3e
00000160: 4523 703b 9037 b4bd a39c e93d 6f36 26bc
00000170: a81a 98bd 6bb4 08bd 395c 50bd d11f fd3d
00000180: bd75 88bc 2702 90bd 0695 f1bd 15a4 6c3d
00000190: 59ef 69bd 800a 7fbd 5d6b bdbd 76e0 7d3c
000001a0: ca11 babd 8a1e 2d3e bd3c 1f3d a83b 0bbd
000001b0: cd9a 51bd e85c c9bd 4f92 133c f35a c23d
000001c0: 7b09 a3bd b2d6 76bd 7c10 c03d 262d 0dbe
000001d0: d7b5 aa3d 7334 1ebd a719 5a3d 813e c6bd
000001e0: 8192 d8bc f0fc c9bc 0b6b b23d 4617 03bd
000001f0: e558 083e e062 cc3d 8273 efbd 03e8 43bd
00000200: 3e85 1eb9 9b59 b33d bf98 05be 2b6a febd
00000210: 25cb ec3d e245 92bd dde2 3ebd 296c b03d
00000220: 027a 88bd dece c93d aca6 9b3d bbd0 dbbd
00000230: 924e fd3c 5809 05be 79b6 a5bd 20c7 95bc
00000240: a7d7 c23d fbf6 81bc ab5f 21be 50ce 863c
00000250: b4b1 dd3d 77ad 90bd 0890 eebd 84a2 13bb
00000260: d88a 12bd f9c3 b3bd 82bd cdbc b22c ea3d
00000270: b903 83bc 75c9 e2bd 8597 463d 646a febd
00000280: 6954 2bbe a81a e2bd 0500 b93d bbcb 13bd
00000290: 7c35 903c e057 9d3d 101e 68bd 8287 d63d
000002a0: a798 5abd 39e3 e63d d2c5 abbd 126a 9bbd
000002b0: 2e4f ebbd adee b5bd 6e9c 01be 7114 0f3e
000002c0: e7ad ef3c d492 06bc 8189 0cbe 00e2 9fbc
000002d0: 4ead 0ebe 4a2e 74bd 49b2 04bd 1ee6 553e
000002e0: 8871 1c3e 8db3 8f3d e112 a2bd 623b e33d
000002f0: 68ac fabd 2934 04bd 6260 ba3d 20c0 0abd
00000300: d33e 84bc 21d6 83bd d782 e3bd 2ad2 743d
00000310: 9c62 233e b266 20be 66eb 75bd 2a30 de3c
00000320: ce32 cdba 43bc 85bd b660 eabc 2ffa d73c
00000330: 8f5f 8e3c c3c9 dcbd d6d8 1e3d 0b0e 5cbd
00000340: 3465 2bbe 4f9d 143b 188f ffbd 8ec5 0fbe
00000350: 0e98 9cbd 4d1d 973d 814b 42bd b1ef d23c
00000360: 2380 93bc 51c7 6d3d 2f42 2f3d f7a9 1c3d
00000370: b841 753c df0e c93d 8ee9 60bd 4fe0 693c
00000380: aec9 b43d c4b6 17bd 6294 c73d 131f 163d
00000390: cc41 453e 40a8 afbd 937c 163d ed89 733d
000003a0: 50ee 84bc 1acf dbbd a5f2 fb3d ee8e 013e
000003b0: 2bbd 073d 9938 833d 0409 bebd d1cc 04be
000003c0: 42f2 3f3e ded7 afbc 2dab 383e 115a 913d
000003d0: 0b7d adbd 293e 95bd 99d4 0c3c e8ff 793d
000003e0: be24 093c 2859 003e ef4e 6a3c 5515 8e3d
000003f0: 0415 15be 9b2b 6cbd 0f64 473d 347c a13d
-0.044963755 0.035666402 0.08105425 -0.07877215 -0.122552805 0.045099605 0.1090579 0.03100833
-0.017755669 -0.034065496 0.028303487 0.0287891 0.15255809 0.023837123 -0.14173466 0.069989845
-0.10949045 0.05176157 0.12353335 0.027217746 -0.04767952 -0.08080673 -0.05474094 0.021830855
-0.0058189 -0.105497226 0.06823414 0.09306314 0.102658205 -0.072807476 0.08385587 -0.03418872
0.1262332 0.010126202 -0.14163283 -0.13025565 -0.07978274 0.12255118 0.115573674 -0.023808347
-0.042101238 -0.056215227 0.061409876 -0.058498934 0.023411 0.06575273 -0.1391223 0.010740556
-0.10896265 -0.042788982 0.10403428 -0.08520352 -0.089446135 -0.14508907 -0.13105382 0.12597911
-0.09907666 -0.04162761 0.0021109614 0.026083756 -0.10597884 -0.027622724 -0.11626292 -0.04680021
0.062150467 0.06384663 0.10603048 0.15841113 -0.029740395 -0.0058392757 -0.110331684 0.10147882
0.02910168 0.07146859 0.010322066 -0.009555325 -0.11226798 -0.09199163 -0.05072322 -0.06918724
0.03680646 0.09792701 -0.10034993 0.15013456 -0.05820328 0.118195735 -0.12646526 0.13861306
0.0036642116 -0.0879966 0.11406829 -0.010144814 -0.07426959 -0.033375185 -0.0508692 0.12359584
-0.016657704 -0.070316605 -0.11796002 0.05777367 -0.057113025 -0.062265873 -0.092489935 0.01549541
-0.09085424 0.16906181 0.038876284 -0.03399244 -0.05117302 -0.098321736 0.009007051 0.094900034
-0.07960793 -0.060263343 0.09378144 -0.13786754 0.083354644 -0.03862424 0.05324712 -0.096798904
-0.026437046 -0.024656743 0.08711823 -0.032004617 0.1331516 0.099797964 -0.11691953 -0.047828685
-0.00015117691 0.08757325 -0.1304655 -0.12422594 0.11562184 -0.07142235 -0.046603072 0.0861438
-0.06663896 0.0985391 0.076001495 -0.107331716 0.030921254 -0.12991846 -0.080914445 -0.018283427
0.09513789 -0.01586484 -0.1575915 0.0164558 0.1082491 -0.07064336 -0.116485655 -0.0022527287
-0.035776943 -0.08777613 -0.025114778 0.11434306 -0.015992986 -0.11073581 0.048484344 -0.12422636
-0.16731419 -0.110402405 0.09033207 -0.036082964 0.017603628 0.076827765 -0.056669295 0.10475065
-0.053368237 0.11273808 -0.083873406 -0.07588591 -0.11489712 -0.088834144 -0.1265733 0.13972642
0.029257728 -0.0082137175 -0.13724329 -0.019516945 -0.13933298 -0.059614457 -0.03239659 0.20888564
0.15277684 0.070166685 -0.07913757 0.11095311 -0.12239915 -0.032276306 0.09100415 -0.03387463
-0.016143238 -0.06437326 -0.1110894 0.05977074 0.15955585 -0.15664175 -0.060038947 0.027122576
-0.00156554 -0.06530049 -0.028610568 0.026364414 0.01737955 -0.107806705 0.03878101 -0.05372433
-0.16737825 0.002267677 -0.12478465 -0.14040205 -0.0764619 0.073786356 -0.047435287 0.02574906
-0.018005436 0.05805141 0.042787727 0.03824803 0.014969282 0.098172896 -0.054910235 0.014274671
0.0882753 -0.037039533 0.09745099 0.03665073 0.19263381 -0.08577013 0.036739897 0.05945771
-0.016226918 -0.10732861 0.1230214 0.1265218 0.03313939 0.064072795 -0.09279063 -0.12968756
0.18744758 -0.021465238 0.18034048 0.07097257 -0.08471116 -0.07287247 0.008595609 0.061035067
0.008370576 0.1253401 0.014301046 0.069376625 -0.14558798 -0.057658773 0.048679408 0.07885018

gru.weight_hh_l0 f4 [96, 32]
00000000: bb95 c5ba 9fe6 5c3c 7e38 563d 1019 ef3d
00000010: db56 25bc a5cf 693d eec4 eb3c e48c e13d
00000020: f1cd 503d 267e 0b3d a5e8 efbd bd6c 533b
00000030: 6d62 81bd 70a2 a83d bb2f e3bd 79ee 7abd
00000040: 9ec2 1ebd 89b0 72bb 89ad f83d e761 d0bd
00000050: 1cb3 2dbd 3cf0 b83b feb7 84bd 9be3 023e
00000060: 5930 8dbb 2139 f9ba b1a0 143e e01d bebc
00000070: 0d9b 9abd f5e8 efbc 29a2 0c3e 3979 fbbd
00000080: 9b9f 8c3d 7a3b fbbd 2bba 73bd 96c1 443d
00000090: 81d9 d6bb b24a 2ebe 3116 cdb9 83f0 0a3d
000000a0: 4d2c 63bd aa3d 4f3d 88d0 9ebd a513 11be
000000b0: 163f ffbd 6bdb 20be 4650 7e3d f287 b6bd
000000c0: 943e e9bb 5561 e4bd cda7 ccbd ebb9 19bd
000000d0: 1ff8 3f3d 2de9 1f3d 9809 7f3b d57f bd3d
000000e0: 5283 9d3b e144 17bc e354 0b3b 0751 d73d
000000f0: 098d 22bd b82a aa3d 8591 a1bd e4e4 04bd
00000100: 226f 983d ffd6 8cbd 8b11 ccbd 8b59 823d
00000110: ee28 e33d 84c2 5bbd 4a61 9d3d ad79 d8bb
00000120: 7149 f83b 5a37 b5bd 6a75 043d 16bd 90bd
00000130: 95e5 05bd 5b49 a7bd 4825 a13d b15d 9cbd
00000140: f4c6 09be 75a2 98bd ce68 5d3d 26a2 fbbd
00000150: 92d1 e83d 6121 a13d f331 11be 2a64 ce3d
00000160: ab44 b83d 879a 8a3d f99d 0abc ed54 af3d
00000170: dfd3 70bc 8dea babd 9bd1 033e 830d a53d
00000180: 15fe 88bd 5576 4cbd 6702 bb3d 3dcd c23d
00000190: 86e6 cbbc 85c3 81bd 95b3 9ebd ec50 ce3d
000001a0: f4e6 d2bd 1606 c13d cde9 adbd 8e77 0d3c
000001b0: 2581 f2bd 931d d4bd ee9a ee3d 9df4 bdbd
000001c0: 433f cf3d 4f49 0bbd 131d 9bbd 24f4 05be
000001d0: 70a1 81bd f1d5 14bd c630 1fbe 894c b2bd
000001e0: e7bc df3c f2bc 61bd 7961 b93d 5b91 e8bc
000001f0: 0169 703b a9c7 4dbd acfb f33d 334c 313d
00000200: 7a55 a2bd 4d2f 6b3d 4732 06bd 8010 d7bd
00000210: d6a1 0fbd 6bcf 863d 74d4 753d 9d57 65bc
00000220: 86dc 523c 6604 f33d 930c d3bd d104 debc
00000230: 88a3 8f3d ccac bdbd 1c2f cd3d 1c93 b9bc
00000240: 9f5d a93c 7778 7abd 5f36 db3d 93bc 80bd
00000250: b47f e93d 958d 773d cb5d a2bd c0c0 693d
00000260: 5c52 61bc 6c83 afbd bd45 03bd 6705 553d
00000270: e023 b6bc 0ecc eb3d f7c7 48bd 782d f0bd
00000280: f5a8 69bd 86e3 893d 814a 663a 34b8 c53d
00000290: fda5 24bd bf4b 4cbd 2a9b 55bd c467 7dbc
000002a0: 721d bc3d cf16 91bd d282 813d 7c99 303c
000002b0: e8d2 bf3c d30b 08be b441 cbbd 22b1 b93d
000002c0: 1d7d 3b3d ec7e 56bb 89db ec3d 21ef dbbd
000002d0: d919 0ebb 2835 2f3c 2020 b6bd 2196 88bd
000002e0: 591e f83d fb21 b43d 9754 cd3d ff47 91bd
000002f0: 034c f8bc bda2 0fbe cddd c0bd 01ba e73c
00000300: f682 adbd da0c 97bd 9974 18bd fb20 e53d
00000310: 700b c33d d784 fbbd ff87 ebbd 5f11 dfbd
00000320: ac41 09be 3ff6 08bd 8d58 973b 30b4 0b3e
00000330: 910a 3f3c 02ee cf3d c97b 9ebd 98e6 cf3d
00000340: a390 31bc 18be d73d bcd9 1fbd e155 fd3d
00000350: 3c56 10be aab0 843d 41be 1bbe 80f6 2cbe
00000360: 729e 02be 6813 5abb 9bdb 32bd 3bfd f43c
00000370: 0c39 1b3d 82c0 98bd 4e77 7d3c c051 e1bd
00000380: 28e0 babb d744 b43d a9cb a03c 41f1 62ba
00000390: 3f45 983d ed96 8abd 2a2b eebd 4c5e 0f3e
000003a0: 44e2 f1bd 4714 cdbc b518 0c3e 327e b0bd
000003b0: 1680 833c f0f2 57bd b2d1 7fbb a15d b6bc
000003c0: ba37 08bd c6f8 8bbd 3742 b83d 8d72 683d
000003d0: 1105 aabd 9ecd 3ebc f68d 443d 3ddd 31be
000003e0: a4a0 a1bc 84c4 de3d 32a3 003b b696 133e
000003f0: cb39 bcbb fb06 823d 46bd 8cbd ccd6 083e
-0.001507453 0.013482719 0.05229997 0.11674702 -0.010091509 0.05708279 0.028780427 0.11013201
0.05097765 0.03405585 -0.11714295 0.0032260858 -0.06317601 0.082341075 -0.11093088 -0.06126258
-0.03875982 -0.0037031493 0.12142474 -0.101749234 -0.04240714 0.0056438725 -0.06480406 0.12782137
-0.004308742 -0.0019014218 0.14514424 -0.023207605 -0.07549105 -0.029285887 0.13733734 -0.12278981
0.0686638 -0.12267204 -0.059503715 0.04803618 -0.00655669 -0.17020682 -0.0003911718 0.033920776
-0.05546217 0.050595917 -0.07754618 -0.1416765 -0.124632046 -0.15708701 0.062088273 -0.08912648
-0.0071180556 -0.11151377 -0.09992943 -0.03753082 0.046867486 0.039040733 0.003891563 0.09252898
0.0048069144 -0.009232731 0.0021260313 0.105135016 -0.039685283 0.08308929 -0.07889084 -0.03244485
0.07443072 -0.06876945 -0.099642836 0.06364735 0.11091791 -0.0536523 0.07684572 -0.0066063018
0.0075771143 -0.08848448 0.032338537 -0.07067315 -0.03268965 -0.08168288 0.07868439 -0.07635058
-0.13454801 -0.07452861 0.054055028 -0.12286787 0.11368097 0.07867695 -0.1417921 0.100776985
0.089974724 0.06767755 -0.008460515 0.0856112 -0.0146989515 -0.09126768 0.12872927 0.08059218
-0.06689087 -0.049917538 0.091313176 0.09511802 -0.024890196 -0.063361205 -0.07749096 0.100740284
-0.10297957 0.09424989 -0.084918596 0.008634461 -0.118410386 -0.10357203 0.11650644 -0.09275172
0.10119488 -0.03400546 -0.07573905 -0.13081414 -0.0632962 -0.036336843 -0.1554595 -0.08706004
0.027311755 -0.055111833 0.090517946 -0.028389623 0.003668368 -0.05023924 0.11913237 0.04328556
-0.079264596 0.057418156 -0.032762792 -0.10501194 -0.03506645 0.065825306 0.060017064 -0.013997939
0.01286996 0.11866073 -0.10305133 -0.027101906 0.07013613 -0.09261474 0.10018751 -0.022653155
0.020674525 -0.06115004 0.1070373 -0.06285968 0.114013106 0.060437758 -0.07928046 0.057068586
-0.013752546 -0.085699886 -0.03204893 0.052007105 -0.022233903 0.1151353 -0.049018826 -0.117274225
-0.057045896 0.0673285 0.00087849057 0.096542746 -0.04019736 -0.049876925 -0.05214993 -0.015466634
0.09185304 -0.070844285 0.0632378 0.010778781 0.023415998 -0.1328576 -0.09924641 0.090669885
0.045773614 -0.003272946 0.115653105 -0.107389696 -0.0021682887 0.010693826 -0.08892846 -0.0666926
0.12115163 0.08795544 0.100259 -0.0709381 -0.030309683 -0.14026923 -0.09417305 0.028286936
-0.084722444 -0.07375498 -0.03722057 0.11187931 0.09523666 -0.122811966 -0.115005486 -0.10891985
-0.13403958 -0.033437964 0.0046187104 0.13642955 0.011660234 0.10152818 -0.07738454 0.10151404
-0.010837707 0.105343044 -0.039026007 0.12369896 -0.14095396 0.064790085 -0.15209295 -0.16890907
-0.12755755 -0.0033275727 -0.043666463 0.029905906 0.0378962 -0.07458593 0.015470339 -0.11001921
-0.005702991 0.08802193 0.019628363 -0.00086571655 0.07435083 -0.06767068 -0.11629327 0.14000815
-0.11810735 -0.025034083 0.136813 -0.0861782 0.016052287 -0.052721918 -0.00390349 -0.022261443
-0.03325627 -0.06834559 0.089970045 0.05674987 -0.083017476 -0.011645703 0.047986947 -0.17369552
-0.01972992 0.10877326 0.0019628522 0.1441296 -0.005744194 0.06348988 -0.068720385 0.13363189

gru.bias_ih_l0 f4 [96]
00000000: 98d5 ecbd 4cbd 503e 95e9 8937 8698 c5bc
00000010: 07d0 10be 7afd 02bd 5f1f 02bc 4d81 a1ba
00000020: 9ff9 9cbd 756a b2bd aba4 973d 7527 8bbd
00000030: b8d4 9ebd f013 cb3d 5527 963d 2792 4c3d
00000040: c63f 073e 7daa c83c 6ced 863d 1e78 57bd
00000050: 906b 723d dfc7 f2bd 63b2 5abd c598 26bd
00000060: b3f7 9f3c 4f14 5b3d 21f5 88bd 2609 0abd
00000070: 2ad3 db3c 58e6 f43d 7b43 393e 0adf ff3d
00000080: 2673 5a3c 6ae8 54bc 8b2f 183e 8be6 d73d
00000090: 891a 06bd 36fb 183e 1a09 36bc 2e17 ed3d
000000a0: b666 653e a2bd 0b3d 3e68 503e bc97 403e
000000b0: 2c4e a73d 42d7 133e 2113 013e 071d ba3d
000000c0: 394b de3d 5a0d 263e 2000 c13e c251 2abd
000000d0: d379 dcbc 01fa a0bd 617b 5fbe 5f85 5b3e
000000e0: 31ac 0e3f fcd1 5d3e 7236 873e f565 62bd
000000f0: 4a81 44bb b0dd 123e 3bb3 4b3e 215e abbd
00000100: 0c81 9a3e e1c8 cdbe 0ccf bf3d cfcd 4e3e
00000110: 88e1 b6be 6a6b dd3e 484a f53e 33f3 e6be
00000120: 9112 203e e17c 2f3e ba30 c3bc 66ca 9bbe
00000130: 0b7c 923e 8005 f1bd f39e 80bd 7220 42bd
00000140: 0320 cebd c942 643e 0445 eabd 877a 433e
00000150: 1ccc 2f3c 1c33 a03c dc7c 0dbc 8ca9 123e
00000160: a787 cdbe ad62 ae3d b8ef 95bc 06c7 c4be
00000170: b354 c0bd eea9 ab3d 4796 07be c396 71bc
-0.11564177 0.20384711 1.6440443e-05 -0.02412058 -0.14141856 -0.031980015 -0.00794205 -0.001232186
-0.07664799 -0.08711711 0.07404455 -0.06794635 -0.07755417 0.09915912 0.07331721 0.04994407
0.13207921 0.024495358 0.065882534 -0.052604787 0.05918461 -0.11854529 -0.05339278 -0.040673036
0.019527292 0.053486165 -0.0668738 -0.03370013 0.02683409 0.11957997 0.18092148 0.12493713
0.013333118 -0.012994865 0.14861886 0.105420195 -0.03274015 0.1493958 -0.011110568 0.11576687
0.22402462 0.034116395 0.20352265 0.18807882 0.08169207 0.14437583 0.12604953 0.09087568
0.10854191 0.1621603 0.37695408 -0.041581877 -0.026913559 -0.078601845 -0.21824409 0.21437596
0.55731493 0.21662134 0.26408726 -0.055273015 -0.002998429 0.1434238 0.1989259 -0.08367563
0.3017658 -0.4019232 0.09365663 0.20195697 -0.35718942 0.43246013 0.47908235 -0.4510742
0.15632083 0.17137481 -0.023826946 -0.30427855 0.28610262 -0.11768627 -0.06280317 -0.047394224
-0.100646995 0.22291102 -0.11438945 0.19089709 0.010729816 0.01955562 -0.008635726 0.1432249
-0.40142557 0.08514915 -0.018302783 -0.38433093 -0.09391155 0.08382021 -0.1324092 -0.014745417

gru.bias_hh_l0 f4 [96]
00000000: 4b11 42b8 4ef2 88bd a89c 133e 12c9 8bbc
00000010: 36c6 02bd 28ff 193e 015c ee3d f885 9a3d
00000020: 0086 c93d 78d5 e33c 6278 c1bd b0d4 e0bc
00000030: 927f b63d 6618 dfbd 8d63 77bd 7cc5 e83d
00000040: f1a2 d13c acee b6bd 2486 d63d b2d7 ad3a
00000050: 8301 d73c 117b 063d 6257 0cbc 5e1c a3bd
00000060: df08 d23d a9c2 1a3d 30bd ed3d d26a 2f3e
00000070: 2320 453d 2aa2 05bd f10c ed3d 5b8f cdbd
00000080: 38e9 b3bb 9a87 fcbd 6cb0 043e fd79 6ebc
00000090: ced9 c83d cc99 5b3e e957 59bc ccdc 873e
000000a0: 1de6 943d 06e6 023e 850f 613d 84d4 ac3d
000000b0: 2900 913c fe13 e93d 208b 3a3d 6b99 2c3e
000000c0: 4dfd 6b3e 46ad 803d 94c5 963e bd15 90bc
000000d0: 0e50 103d 4581 77bd 0b60 a73c 7ed8 82ba
000000e0: e8ed e03e 026a 233e 94cb 813e 952d a4bd
000000f0: 0182 123e 9601 17bd 3755 553e 371b 023e
00000100: 75a5 e33d c0b3 3dbe 068f a8bc 8a9d c3bd
00000110: 13c3 693d 4838 913e 3072 b83d e5e4 b0be
00000120: 0d91 a53d f236 ba3d 90a3 b13d f373 49be
00000130: 1fc6 c43d 0dce 25be 3462 e83d 9bf6 3abe
00000140: 562e 1a3e df71 fabc 2e9c 953c 1414 04bd
00000150: a835 97bc 6826 1dbd 935c afbc 5004 f1bd
00000160: 4f0b c63c df9c 803b 525d 57bd 2f5e c3bd
00000170: 32b1 4d3b 6a35 ddbd 0070 e7bd 6ec6 9c3d
-4.626931e-05 -0.06686841 0.14415228 -0.017063651 -0.03192731 0.1503874 0.11638642 0.07545084
0.098400116 0.02781175 -0.09446789 -0.027445167 0.08911051 -0.108933255 -0.060397673 0.11365792
0.025590392 -0.08932242 0.10474804 0.0013263135 0.026245838 0.03283221 -0.008565756 -0.07964395
0.10255598 0.0377833 0.1160835 0.17130592 0.04812635 -0.032625355 0.11574734 -0.100371085
-0.0054904483 -0.123305514 0.12957925 -0.014555451 0.09807168 0.21445388 -0.013265588 0.26535642
0.07270453 0.1278306 0.05494644 0.08438972 0.017700272 0.11380766 0.045542836 0.168554
0.23045845 0.06283049 0.29447615 -0.01758849 0.035232596 -0.060426015 0.020431539 -0.0009982733
0.43931508 0.15958408 0.2535063 -0.080165066 0.14307405 -0.036866747 0.20833288 0.12705694
0.11115543 -0.185256 -0.020576011 -0.095515326 0.057070803 0.28363252 0.090061545 -0.34549633
0.08084307 0.09092511 0.08673775 -0.19673137 0.09608101 -0.16191883 0.11346856 -0.18258135
0.15056738 -0.030571876 0.018262949 -0.03224571 -0.018458202 -0.038366705 -0.021406448 -0.11768401
0.024175314 0.0039249505 -0.05257923 -0.095394485 0.0031386134 -0.108012035 -0.11300659 0.07655035

gru.weight_ih_l0_reverse f4 [96, 171]
00000000: bf6b 12be 8b6b 8bbd ff5a 15be 8ad8 3abe
00000010: e8f3 cfbd faa6 4ebd ee1b b83c 6748 adbc
00000020: ad9b 0cbc f2ff 2dbe 4176 35be 2540 cbbc
00000030: 6a24 b0bd b483 9b3d 8789 bd3d d421 a5bb
00000040: 3972 97bd bf37 4e3d bf6a 5bbd 7ddc 7e3d
00000050: 041c ccbd 9797 eb3c 18e9 a93d ade5 2dbd
00000060: 3d40 803d 2269 a93d ab3d f63d b347 09be
00000070: c3b9 b2bd 69c0 f4bc 43fa a9bd 69c3 3e3d
00000080: 5d3b cc3b d6b8 d83d b868 b2bd 9c2a b83c
00000090: 66eb 8fbd 7d4d 82bc 54a9 0f3d dce0 473e
000000a0: 56a3 b6bd 1d56 053e 71ba 103d 061f bbbc
000000b0: 8af5 fb3d 6241 01be 1fe3 c43d d34d d1bd
000000c0: ab81 ec3d 64c8 0d3e eab3 83bc a0d7 df3d
000000d0: 38f0 3c3d a918 19be 4d65 dcbd 15e0 483d
000000e0: a8e7 06be ccfd 6dbd c105 7dbd 7874 373d
000000f0: 7d3c 62bd 9a21 29be 86c0 903d a76f b23c
00000100: fcfa 83bd c9d8 583d fe6a 8dbc 4643 023e
00000110: 5dd6 a8bc b78e f9bd 383b 3a3d 9969 0cbd
00000120: e8d8 2d3c 48c3 8f3c 4fe1 a1bd b229 82bd
00000130: 41d4 cf3c bbdc bb3d 8c5c d23d 7eb1 67bd
00000140: 405b 08bd 9412 963d e9f8 3c3d bbe6 1cbd
00000150: ab46 8ebd beac 153e f6c9 efbd e899 353e
00000160: 705a 073e 0d01 5abd 37a8 9b3d 8c14 a3bb
00000170: 4291 403d 17da d63d b412 dabb 336b 173d
00000180: 4989 08bd 2b89 883d 519c c33d 1120 02be
00000190: f178 2abd b86f d03d 8b49 d63c 6594 47bd
000001a0: a3a3 fd3c 8bed 09be b87c bfbc e501 333d
000001b0: b4f0 063d f4fc e33d 17de e23d 1600 c8bd
000001c0: 8b0e c53c 4ceb df3d 861b a43d 404c e33d
000001d0: 469d e0bd 0d4c e9bd 4ece dc3d 4aa8 723d
000001e0: fc9e 633c b8e5 5fbb 4d23 0a3e 13df e5bd
000001f0: c032 03be 2c14 dabd b664 2c3d 6a3d 113e
00000200: d7bd 5dbd 6d6c 21be 2f99 103e 9c8b 1dbe
00000210: 0762 a53d 3e21 ad3c 8508 f93d 80a4 fcbd
00000220: 2e14 03be 96a1 23be 1962 febc da76 5fbd
00000230: 961c 1abd 5b66 babb e175 583d 5b8d 3f3d
00000240: 2e06 9c3b 2618 6e3c d00d bd3d 4a1a 25bd
00000250: 4de6 8cbc a2f7 22bd e534 d9bd 16e1 69bc
00000260: 6cf8 a3bd 84b6 abbc 9e25 d83d 716a ad3d
00000270: 4ab2 dfbc a02c bc3d 3102 edbc d002 5ebc
00000280: 8eac a2bd d0fb e1bd c6cb 15be c609 743d
00000290: 238a 33bc 2530 a5bc d834 b33d 3d96 a2bd
000002a0: 26aa e7bd c020 f53d 5a83 213d 41d6 0ebe
000002b0: 777e 70bc 9083 783d 9587 fc3c 97e6 203c
000002c0: 0ad1 ec3d cb38 833d 8466 22be faae 8bbc
000002d0: 990b 99bd 7f77 02bd 7a72 153e 437f 7e3d
000002e0: d49e d1ba efd3 923d 70e6 e7bd 723e c43d
000002f0: 5473 06bd e3b5 c13d a502 82bc 5276 833d
00000300: 65a0 01bd e421 b7bc e6f5 bf3d 1c58 e43d
00000310: af42 d6bd 89c3 ba3d 9963 073d 092f 133c
00000320: 6b63 96bc 46b3 c43d e857 edbd 5f1a 423d
00000330: 3a5f 603d 2f5e 87bd 2e41 55bb 33b0 d8bd
00000340: f77d dd3c ff02 52be 12cd de3c 3c95 033e
00000350: 535f 53bc 182c a53d 0365 d63d 17fe e13d
00000360: 168a 0a3d 45b1 25bd d3aa c43c 2f48 d33d
00000370: 2de2 f13d 7343 b4bd 1c48 d2bd 8611 d23b
00000380: fd75 e53d 9bb6 1f3e 67af 0d3d 1aa6 7dbd
00000390: 9442 95bc c64a efbc c44e 2dbc 6648 84bd
000003a0: 4518 8cbc d316 babb 21bf d2bc 8941 ae3d
000003b0: 8623 6ebc 8229 d83c f35b fd3c 05c9 e0bd
000003c0: 6bbf f53d e3a4 4cbd 7a73 e33d f95a 25be
000003d0: ca30 203d aef0 873d 61e0 f1bb d85d 92bd
000003e0: f07e 00be 02f2 5c3d 3446 f2bd fd16 0cbe
000003f0: e5a4 f43d 9f45 6a3c a0ae 8b3d 4acc e6bd
-0.14298914 -0.068076216 -0.14585494 -0.18246666 -0.10153943 -0.05045221 0.022474255 -0.021152688
-0.008582038 -0.16992167 -0.17720892 -0.02481086 -0.086006954 0.0759348 0.09254747 -0.005039433
-0.07394833 0.050346132 -0.053568598 0.062221993 -0.09966281 0.028758807 0.08296412 -0.042455364
0.062622525 0.082720056 0.12023481 -0.13406257 -0.087268375 -0.029876905 -0.08299687 0.046573076
0.0062326626 0.1058213 -0.0871138 0.022481255 -0.070273206 -0.01590609 0.035073593 0.19519371
-0.089178726 0.13021131 0.035334054 -0.022841942 0.12302692 -0.12622598 0.096136324 -0.10219922
0.1154817 0.13845974 -0.016077 0.10929799 0.046127528 -0.14950813 -0.10761509 0.049041826
-0.13174307 -0.058103368 -0.061773065 0.044788808 -0.055233467 -0.16516724 0.07067971 0.021781756
-0.06444356 0.052941117 -0.017262932 0.12720975 -0.020610029 -0.12185424 0.04546663 -0.034280393
0.0106107965 0.017549172 -0.07904302 -0.06355609 0.025369765 0.0917296 0.10271558 -0.056565754
-0.033290148 0.07327762 0.046135817 -0.03830598 -0.069470726 0.14616677 -0.11708443 0.17734492
0.13218093 -0.05322366 0.07600444 -0.0049768146 0.04701353 0.10490816 -0.0066550616 0.036967468
-0.03333405 0.06666788 0.09551299 -0.12707545 -0.041619245 0.10177559 0.026158115 -0.048725504
0.030961817 -0.13469522 -0.0233749 0.04370298 0.032944396 0.11132231 0.110775165 -0.097656414
0.024054786 0.10933551 0.08013062 0.11098528 -0.109674975 -0.11391459 0.10781537 0.059242524
0.013892885 -0.0034164023 0.13490029 -0.11224189 -0.12812328 -0.10648379 0.042088233 0.14183584
-0.054136124 -0.15764017 0.14120935 -0.15385288 0.08075338 0.021134015 0.12159828 -0.123360634
-0.12800667 -0.15979609 -0.031052636 -0.054556705 -0.037624918 -0.0056884713 0.052846793 0.046765666
0.004761479 0.014532125 0.0923115 -0.040308274 -0.01719966 -0.039786942 -0.10605792 -0.014274856
-0.08006367 -0.020961054 0.1055405 0.08467568 -0.027306695 0.09188199 -0.028931709 -0.013550475
-0.079430684 -0.110343575 -0.14628515 0.059579633 -0.010958227 -0.020164559 0.087503135 -0.07938812
-0.1131175 0.11969137 0.039431907 -0.13948919 -0.014678589 0.060672343 0.03082637 0.009820602
0.115633085 0.06407317 -0.15859419 -0.017051209 -0.07472915 -0.03185224 0.1459445 0.062133085
-0.0015992769 0.071693294 -0.11323249 0.09582223 -0.03282483 0.0945852 -0.015870402 0.06419052
-0.031647105 -0.022355027 0.09373073 0.11149618 -0.10461938 0.091193266 0.033053968 0.008983382
-0.018357953 0.09604506 -0.115890324 0.04738843 0.054778315 -0.06609761 -0.003254007 -0.10580482
0.027037604 -0.20508955 0.027197395 0.12849897 -0.012901145 0.08065051 0.10468485 0.11034792
0.033823095 -0.04045226 0.024007237 0.10316502 0.11810718 -0.088019274 -0.1026766 0.0064107804
0.11204145 0.15597002 0.034591105 -0.061925985 -0.018220223 -0.02921046 -0.010577861 -0.064591214
-0.017101416 -0.0056789904 -0.025725903 0.085085936 -0.014534837 0.02638698 0.030927634 -0.109758414
0.11999401 -0.049961936 0.1110601 -0.16147985 0.03910903 0.06637703 -0.0073814844 -0.071468055
-0.12548423 0.053941734 -0.118297964 -0.13680644 0.11945514 0.0142988255 0.068204165 -0.11269434

gru.weight_hh_l0_reverse f4 [96, 32]
00000000: a0b2 913d 37da cdbd 4706 c6bd a100 2e3d
00000010: 0798 8f3d a1da fcbd 930a 103d b880 f3bc
00000020: cb66 013e 6d01 e1bd 20b7 ebbd 468e 003b
00000030: 2d36 f93b 74f3 76bd 9bd2 53bd 868c 45bd
00000040: ce1d 08bd 3f1e 013e 80d6 073e e01c 9b3c
00000050: 4eae 0c3d 636d e8bc 54fe 7abd c582 83bd
00000060: 8838 073e 9a55 3cbc de44 eb3c b128 04be
00000070: 900c 9e3d ba24 88bd 67eb 0a3d 752b bb3d
00000080: 2473 d53c 4866 8c3d 9fde 263e 243c 2fbc
00000090: 63a3 a63c 95f9 0b3e 1772 17be 4239 b1bc
000000a0: 1b7e d53d 6b01 1abc af9c 903b 50c8 11be
000000b0: 4218 a1bd e54a 27bd c8a0 813c fd47 043d
000000c0: bede 4a3d b28c a03a 9abb b73d 775f e53d
000000d0: c489 1f3d ea3a e13c 03a8 92bc cdf7 3ebd
000000e0: e8ac d33d 0ffc 1a3d 4dd3 0c3e 6fd9 8c3d
000000f0: 3d5c b93d a2f0 10be 68dd e63c d32f 863d
00000100: 7186 ca3d 6b01 97bd bfae 8dbd fd66 933d
00000110: 28bd 973d 3cdd f5bc eb96 30bd 26f4 6bbd
00000120: 5c8a 2dbd ce77 04be d1b6 5d3d 4021 133d
00000130: 31af 953d 18a1 903d 490f 003e 84c7 49bd
00000140: 8b12 953d 0a8a edbd e8de ea3b c5b7 eebd
00000150: ec6d acbd 80c3 45bc 439a ddbd a84d fcb9
00000160: 2e11 1cbe abe8 0c3e 30a4 e03d f455 d43d
00000170: 9e86 a9bd d3d5 c3bc 8f07 883d 8ee6 a83d
00000180: 586e 873d 60f5 08be dd1e d43d 5128 1f3d
00000190: 743a ebbc 85b9 b8bd 46c7 903d 5ce3 3c3d
000001a0: ef14 1ebc 27a8 b2bd 2bd3 e53c 26c0 013d
000001b0: 58bc 953d a7eb 053e 50e1 ba3d b60d 733d
000001c0: ee2f 9bbc df5a e33d 313e 693d 2127 093e
000001d0: bbbd e83d 3b93 09be fcb9 5d3d 5743 203d
000001e0: adef b73d f2fc c33d 070b ea3d d48c 803b
000001f0: 6125 19bb 8799 51bd e299 cbbc 4450 423d
00000200: c07b 323d e3b3 413c 9068 17be a65b 663d
00000210: 4c47 fbbb b17f b1bc 02c1 c23d b833 b83d
00000220: 6803 1abd 85f4 e23d fa94 ee3d 921b 41bd
00000230: b093 363d 251a fd3c dfe0 933d 912b b73d
00000240: e964 563d 4b51 37bd 526b 10be b278 bbbd
00000250: 6605 aebd 3c2e 873b f2ed e1bc 44d5 213d
00000260: ccbb cbbd ae03 e23d ed86 ef3d c81f 743d
00000270: 6366 91bd e380 d43c 7283 eabd e7dc de3d
00000280: b2b5 16be 8a07 ba3d 6a86 cb3d 5df1 033e
00000290: d00a 18bd 8808 12bd 158a 413d 2c7d 9dbd
000002a0: c37e a23d 80f7 b83d c55d 213e 9454 243d
000002b0: c338 d4bd dc7a b83a 1cb4 893d 95f4 4c3d
000002c0: c06b a03c 3224 31bd fc0f 0abe f65f 403d
000002d0: 7bae 08be fce5 a7bc a0d5 063d 399e 02be
000002e0: 8104 a0bd 5dcc 8b3d 74ac cabc 6ed1 3bbd
000002f0: 2b39 fbbd dc8c dc3d d8bd debc a879 293d
00000300: 1154 d6bc 0235 723d 0d29 ecbd 2988 c6bd
00000310: 40d6 ce3c 1632 4cbc 6625 713c 9d93 0ebd
00000320: ad76 ef3d d0f9 abbd 453a 28bc 4c68 fabd
00000330: 8f3d abbd d569 6bbc 99b6 223d c6cf 12be
00000340: 94cd 8a3d 148c 3e3c 043f 02be 0f3f fabd
00000350: 7e79 c1bd 6077 a1bd fbaa ef3d ffac 743d
00000360: 576e d83d 9525 34bc 64c6 cabd c3e4 38bd
00000370: aaa7 c9bd e3af 8e3d 2be6 e3bd fe8f 863d
00000380: a87e 89bb d40c 3cbe c5e9 9b3d 6acd 8c3d
00000390: ae3b b7bc 2cf4 0abe c657 043e bf9d 133e
000003a0: c61a 78bd a47f 283e 3191 c7bd 320a 6cbd
000003b0: bbbf 1b3d 3533 c0bd 7efc 61bc ad4a 39bd
000003c0: d799 f0bc 718c e9bd 65f2 e0bd 76d3 013e
000003d0: 4167 c73d 0313 9fbd 61f4 01bd 751f 8bbd
000003e0: 0c55 b3bd b29f 433d f489 b53c 9569 99bd
000003f0: 6702 cb3d 7ead 9cbd 2cbb ee3d a9a8 a7bc
0.07114148 -0.10051387 -0.09669166 0.04248107 0.07011419 -0.12346388 0.035166334 -0.029724464
0.12636869 -0.109866 -0.11509538 0.0019616052 0.007605335 -0.06029077 -0.05171452 -0.048229717
-0.03323155 0.12609194 0.13265419 0.018934667 0.034345917 -0.028372472 -0.061277702 -0.06421427
0.13205159 -0.011495018 0.028719362 -0.12906148 0.0771724 -0.0664763 0.033915903 0.09139148
0.02605588 0.06855446 0.1629586 -0.010695491 0.02034158 0.13669427 -0.14789616 -0.021633748
0.10424443 -0.009399752 0.0044132094 -0.1423657 -0.07865955 -0.04084291 0.015823737 0.032295216
0.04952883 0.0012248962 0.08971329 0.11199849 0.038949743 0.027493913 -0.01790238 -0.04662304
0.103357136 0.037838038 0.1375248 0.0687741 0.09050796 -0.14154294 0.028181747 0.065520905
0.09888924 -0.07373317 -0.06918096 0.07197378 0.074091256 -0.03001272 -0.043112677 -0.057605885
-0.042368278 -0.12936327 0.054129425 0.03592038 0.07308806 0.07061976 0.12505831 -0.04926254
0.072789274 -0.115985945 0.007167686 -0.11656145 -0.084194034 -0.012070537 -0.10820439 -0.00048123044
-0.15240929 0.13760631 0.10968816 0.10367957 -0.08277629 -0.02390567 0.06642067 0.082471
0.06612843 -0.13374853 0.10357449 0.038856808 -0.028714396 -0.0901976 0.070692584 0.046115264
-0.009648546 -0.08723479 0.028054794 0.031677388 0.07311314 0.13078175 0.09125006 0.059339248
-0.018943753 0.11101317 0.056944076 0.13393833 0.11364313 -0.1343507 0.054132447 0.03912672
0.089812614 0.0956973 0.114278845 0.003923038 -0.0023368227 -0.051171806 -0.02485365 0.04743983
0.04357505 0.0118226735 -0.14785981 0.056239747 -0.0076684114 -0.021667333 0.095094696 0.089942396
-0.037600905 0.11081795 0.11649509 -0.047145434 0.04457444 0.030896256 0.07220625 0.089438565
0.05234233 -0.04475526 -0.1410344 -0.0915388 -0.084971234 0.0041253846 -0.027579281 0.039510027
-0.09947929 0.11035858 0.11695657 0.05960062 -0.07099607 0.025940364 -0.114508525 0.108819775
-0.14717749 0.09083469 0.09937747 0.12885042 -0.037119687 -0.035652667 0.047250826 -0.0768989
0.07934334 0.09031582 0.15758426 0.040119722 -0.10362389 0.0014074701 0.06723806 0.05003794
0.01958263 -0.04324741 -0.1348266 0.046966515 -0.13347809 -0.020495407 0.032918572 -0.1275567
-0.07813359 0.068260886 -0.024740435 -0.045854025 -0.12266763 0.10769054 -0.027190134 0.041375786
-0.026163133 0.059132583 -0.11531267 -0.09693939 0.025248647 -0.012463113 0.014718389 -0.034808744
0.116925575 -0.08397257 -0.010267799 -0.12226924 -0.08361351 -0.014368494 0.03972492 -0.14337072
0.06777492 0.011630077 -0.12719351 -0.12219059 -0.09447001 -0.07884097 0.11702534 0.059735294
0.10567921 -0.010995288 -0.09901121 -0.04514004 -0.098464325 0.069671415 -0.111278854 0.06570433
-0.004196007 -0.18364269 0.076129474 0.06875117 -0.022367325 -0.13569707 0.12924108 0.14415644
-0.06057241 0.16454941 -0.0974449 -0.05762691 0.038024645 -0.09384767 -0.013793109 -0.045237232
-0.029370232 -0.1140374 -0.10983733 0.12678322 0.09736491 -0.07767298 -0.0317272 -0.06793109
-0.08756456 0.04775972 0.022160508 -0.07490841 0.099125676 -0.076502785 0.11656794 -0.020466166

gru.bias_ih_l0_reverse f4 [96]
00000000: e928 6abd afe8 083e 6adf fd3d 0d8f d5bd
00000010: be7c 093e 3b15 28bb a16f 9e3c 7c74 003e
00000020: adda 07bd c570 00be b22f 94bd 5fa5 d03b
00000030: 719b c5bd 92ec 043d faca e33d 517a 9d3c
00000040: 3f40 a9bb 4173 3dbd da2e ddbd a57c b3bd
00000050: 96c8 7c3c e096 3cbd 0369 1bbd 0a88 063d
00000060: b143 0abd a13c 00bd 4238 a73d 8ea9 ef3d
00000070: f84e 3a3d 3e13 52bc 8364 dcbb 0a41 fe3d
00000080: 72f7 adbd 4398 233e 8a34 263e f45f 3abe
00000090: a3d9 bd3e d200 16be 2341 653e 7cab 9abd
000000a0: 7930 8a3d b04f 903c 9bc1 98bc e2e6 21be
000000b0: 1bee af3d 2fec 16be 4895 bf3e 7426 ddbc
000000c0: 8271 80be aaff 4a3e 8e3d 203e 42d1 f03d
000000d0: 22dc e2bd a03d fa3e 46e4 003e 6913 a73d
000000e0: f599 2f3e a11f 9c3e f155 933e 9d05 c33d
000000f0: ae05 9abb 6cd3 67bb af1d 4c3d c8cb 4abd
00000100: e2d4 ae3e 52d5 1cbe 4f9d 293e 62a5 943d
00000110: 5fa1 cb3c d8e8 593e 5c6a 5dbc 47bb c0be
00000120: 59ac 56bd 7fa1 b7bd 3918 34be b965 d53c
00000130: 2734 88b9 ad5a dfbc b24a e4bd db4d 93be
00000140: dc87 133e 176e b5bb 475d 91be 6ad0 02be
00000150: e50b c63d c63f 823e aca4 31bd 9cee 96be
00000160: 2379 2abe cb2b a63d 5fa6 b23e fea9 a53e
00000170: 4708 8fbc ab5d 3fbe 6546 5d3e 9aef bf3d
-0.05716792 0.13370012 0.123961285 -0.104276754 0.13426492 -0.002564742 0.019340338 0.12544435
-0.03316753 -0.12543018 -0.0723566 0.00636737 -0.09648789 0.032452174 0.11122699 0.019223364
-0.0051651294 -0.046252493 -0.10799952 -0.087640084 0.015428683 -0.046042323 -0.037941944 0.03284458
-0.03375596 -0.03130782 0.08165027 0.11702262 0.045485467 -0.0128219705 -0.006725849 0.12414749
-0.08494462 0.15976052 0.1623098 -0.18200666 0.37080106 -0.1464875 0.22388129 -0.07552239
0.06747527 0.017616123 -0.018647006 -0.15810731 0.08590337 -0.14738534 0.3741858 -0.026995875
-0.250866 0.1982409 0.15648481 0.11758663 -0.11077143 0.4887514 0.1258708 0.08157999
0.17148574 0.3049288 0.28776506 0.09522555 -0.004700384 -0.003537382 0.049832996 -0.049510747
0.34146792 -0.1531575 0.16563915 0.07258107 0.024857221 0.21280229 -0.013514128 -0.3764288
-0.052410457 -0.0896635 -0.17587365 0.026049482 -0.00025978798 -0.027264917 -0.111470595 -0.28770337
0.14407295 -0.0055368054 -0.28391477 -0.12774816 0.096702375 0.2543928 -0.043369934 -0.2947892
-0.16647772 0.081138216 0.34892556 0.32356256 -0.017460002 -0.18688075 0.21608885 0.09371872

gru.bias_hh_l0_reverse f4 [96]
00000000: f092 0b3d f835 d4bd 4b32 1fbc c83f 9ebd
00000010: e198 923a aabd a33d 6e03 ef3d 04e6 303e
00000020: 0aa0 643d 0b9d 04be eca8 d93d 7d4f 94bd
00000030: 0753 d53d d59a eb3d 52fb 663d 71e2 cfbd
00000040: daa2 eb3d a289 6c3d 2e59 f13d 0ce8 6a3d
00000050: f819 f9bc b134 e73c 8905 193c f15a 1abd
00000060: 4ca9 483e fd51 d53d 520d aabd 555a 9f3d
00000070: 80db f8bd add1 f73d b5df 313d 8e96 babd
00000080: a7ce 44bc 9276 e9ba 0eee 7e3e 5bd9 a5bd
00000090: 281a cb3e 9c2b c1bd b42e 993e c5f0 f0bb
000000a0: 8078 8f3d 8e59 97bd a185 03bd a629 9d3d
000000b0: d909 ed3d 4c54 46be ed7d 4c3e bf1d 43bd
000000c0: 81b3 d3bd a75c 07ba 49e1 ee3d ecb8 233e
000000d0: 7d50 0ebd cd56 c23e c2c0 053d 383c f3bc
000000e0: 8399 e43d 6b39 b73e a67a b23e 063e 8b3e
000000f0: a7c5 f53d 3417 96bc 5db7 9cbd 2647 d8bb
00000100: a457 873e 9ccd 913d f3ab 803e 7d03 d1bd
00000110: bd48 4f3e 4ea8 d53d 1a0c 18be a22c 48be
00000120: bcbc cfbd 7ac3 71bc 9d7a 0dbe 53e8 c23d
00000130: a081 883d d7a4 253e 2dbd 4abe 2be7 d3bd
00000140: d956 58bc afc4 fe3c e0f0 6ebe 02c9 c8bd
00000150: d9ab 58bc 555b aabd 0ad6 a13d 16e6 c43c
00000160: 5c9f 76be 58fc b8bd 28ad 953c 5fc4 873d
00000170: f201 a93d c6bb 2dbd a420 883e fe60 563e
0.034075677 -0.10361856 -0.009716581 -0.07727009 0.0011184477 0.0799516 0.11670576 0.17275244
0.055816688 -0.12950532 0.106279224 -0.07241724 0.10416227 0.11504141 0.05639202 -0.10150612
0.11505671 0.057748444 0.11784588 0.057350203 -0.03040789 0.028223367 0.009339699 -0.037684385
0.19595832 0.10416029 -0.08303322 0.07780901 -0.12151241 0.12100539 0.043426234 -0.09110747
-0.01201216 -0.0017811826 0.24895498 -0.08098098 0.39668393 -0.09432146 0.29918444 -0.0073529207
0.070054054 -0.07390128 -0.03210986 0.076739594 0.11574144 -0.19368094 0.19969912 -0.04763579
-0.10336972 -0.00051636476 0.116640635 0.15988511 -0.03474473 0.3795685 0.03265453 -0.0296918
0.111620925 0.35785994 0.34859198 0.27195758 0.1200059 -0.018321611 -0.07652161 -0.0066002784
0.26434052 0.07119295 0.25131187 -0.102057435 0.20242591 0.10432492 -0.14848366 -0.19548276
-0.1014342 -0.014756078 -0.13816305 0.095169686 0.06665349 0.16176163 -0.19798727 -0.10346826
-0.0132043 0.031099645 -0.23334074 -0.09803964 -0.013224565 -0.083182015 0.07902153 0.024035495
-0.24084228 -0.09032506 0.018271044 0.06629252 0.08252324 -0.042415403 0.26587403 0.20935437

gru.weight_ih_l1 f4 [96, 64]
00000000: 187f 2cbe 8784 e4bd 3f28 f9bd 46b3 c23d
00000010: b64c 5ebd 878d cb3b 4e0d 733d a16a f3bc
00000020: 8c6e 36be 5d56 22be f0e4 eabb ddd9 e63d
00000030: c59a 753d a0fa 87bd 2340 95bd 3173 d03d
00000040: da20 afbd c24f 863d 61ab 043e f141 f4bd
00000050: 207f b83d a6a5 233d ed46 9bbd 258e 5b3d
00000060: 598b f93d da94 bbbd ac5e 81bd 3e2a cebd
00000070: b673 33bc da8e cabd 55eb 3c3d 6c54 82bd
00000080: b8e3 b2bd c710 853d 1230 4f3c 8988 b5bd
00000090: 3e31 ad3d 6e3c 69bd 5702 1abd fd6e ea3d
000000a0: f4d6 003e 3570 24be 7391 4b3e 0833 df3d
000000b0: cacc cf3d ec8f 32bd 3037 a03d 5edf a23c
000000c0: 0ad5 9b3d 4e7f 98bd bcb9 e53d 7d5b 5b3d
000000d0: b5cd 2c3e d2b7 eb3d e62d 34bb 0935 4ebd
000000e0: 97ae a13d 4934 4bb8 9260 1f3c 9555 65be
000000f0: cc3c 0cbe fe8c d03d e426 e9bb 3bec c23c
00000100: 7993 203e 868f cdbd 2827 073e 926e 973d
00000110: 7428 d43d b315 a53d 868b cf3c 1e0b 043c
00000120: ee7b 1d3d 1d3f bf3d 6b64 d3bd baf5 07be
00000130: a4b1 e2bd 7e59 4d3d 2599 24bd 8a20 2cbe
00000140: 0a31 a13d e2d8 95bd 16fb 8abd 7415 82bc
00000150: 21cc eabc d91d 103e 9ebd 853d 3f02 b03d
00000160: 69a7 e2bc c4ad 38be 8490 7b3c 94c2 a9bc
00000170: 1ecf f5bd 6a91 b83d 148c a9bd dd85 9ebd
00000180: 7a80 5abc 952f ab3d d886 7f3d 1afe a73d
00000190: c4a2 f8bd 26df 34bd 580c e2bd 4ce9 043d
000001a0: 6d82 7e3d 695d a93d 4ae7 09be 1afa 1dbe
000001b0: 8872 cebd 0244 283c a984 15be 553f c03d
000001c0: de4d cbbd c87b 33bc 4bc5 ff3d c35a 323e
000001d0: 751c 28be 1da4 e43b 5244 d63d a422 aa3d
000001e0: 104e b5bd 2223 11bc f555 353d 3d6b b63d
000001f0: 0025 b33d 4d09 613d a61d c83a 7ebb d93d
00000200: 4df9 19be d232 263c b999 9abd 0768 0dbe
00000210: adeb f0bc 6c3a a93d 3a09 09be ac64 b5bd
00000220: 183f 0e3e ec91 3d3d 5c6a 1cbe 5483 a6bd
00000230: 4521 ac3d add9 d23d 53a2 d8bd b959 953d
00000240: e762 92bd 3e4d b93d 73dc a4bd 487d 543d
00000250: 1208 dc3c fc52 b0bd f84d 823a 74a0 043e
00000260: 9012 42bd 5da0 03be f715 1b3e f83b 2f3e
00000270: c0dd de3d e621 a63c 7071 993c 8910 c0bb
00000280: 3134 c93d 70bf 1b3d 4a29 aebd dafb ca3d
00000290: 10ea 2cbd 4cb9 1fbd f347 9fbd 053b 86bd
000002a0: 70f2 293e 2d6e febc d579 9a3c 00be 9c3d
000002b0: ba0d f73d 2f43 ccbd 6382 ee3c a1d6 6dbb
000002c0: aec9 9b3b 98d3 7cbc 96f5 bebd 4fa9 ab3d
000002d0: e20b b3bd b123 b0bd c39f 67bc 5c02 fb39
000002e0: 0d48 3ebc 5172 dfbd e1c4 ddbd 86e9 4abc
000002f0: 73b9 73bd 0777 86bd 5ee4 863d 4a31 e33c
00000300: 2918 c43d b59a 9abd 3356 2a3d cdc5 0d3d
00000310: b7b0 293e 0839 94bd ff3c 1d3e 6601 e33d
00000320: 3b12 0d3e dcb8 443c 1325 b7bd db8f ea3d
00000330: a7a2 973d 0eff 92bd 01a7 a3bd 1b89 4c3d
00000340: 0cad d63d 6d96 19bd 7ed2 e7bc 3cca 26be
00000350: 2b3e 9bbd d8f3 8ebd e24f 7dbe 00f9 d93a
00000360: 0499 1a3d c2d0 b43d b34b 173e adca 7fbd
00000370: bbbe b8bd 24f4 a7bb bccb 2e3e 3281 fb3d
00000380: 6a17 d63d 7775 0fbe 325b ed3c 36d2 2d3d
00000390: b9d0 13be af6b 65be bfd0 3cbd 9ef3 72bd
000003a0: 57d1 c8bd d8f5 daba 1815 b5bd c7b8 d7bd
000003b0: f005 7bbd 23c2 9b3d 46b7 76bc ce1c 473e
000003c0: 113d bfbc 1d4f dabd 097e 293d 5efb b43d
000003d0: 8799 963c 6a6a 58be 01f0 09be e08d 84bd
000003e0: fb6b 2ebe 9d43 f4bc faf9 d03b dbd4 213e
000003f0: 1c1a 35bd 5fe2 4e3d e4ca 5c3d 84e9 82bd
-0.16845357 -0.1115809 -0.121658795 0.0950685 -0.054272376 0.0062119397 0.05933886 -0.02971393
-0.17815608 -0.15853257 -0.0071684048 0.11272023 0.059962053 -0.066396 -0.07287624 0.10178221
-0.08551188 0.06558181 0.12956001 -0.1192664 0.09008622 0.039952897 -0.075818874 0.053602356
0.121847816 -0.091592506 -0.06316885 -0.10066651 -0.010952881 -0.09890528 0.046122868 -0.063637584
-0.0873484 0.06497341 0.012645738 -0.08863933 0.08456658 -0.056942396 -0.037599888 0.114469506
0.12581998 -0.16058429 0.19879703 0.10898405 0.10146482 -0.043594286 0.07823026 0.0198819
0.07608993 -0.074461564 0.11217067 0.053554047 0.16875346 0.1150967 -0.0027493178 -0.050343547
0.078946285 -4.8447666e-05 0.009727614 -0.22395928 -0.13695067 0.10183142 -0.007115232 0.023794284
0.15681256 -0.100371405 0.1319853 0.073941365 0.10359278 0.080607794 0.025335085 0.008059291
0.038448267 0.0933821 -0.103218876 -0.13277331 -0.110690385 0.050134175 -0.040185113 -0.16809288
0.078706816 -0.07316758 -0.06786172 -0.01587937 -0.02866179 0.14073886 0.06530307 0.085941784
-0.027667718 -0.18035036 0.015354279 -0.020722665 -0.12002395 0.090121105 -0.08278671 -0.07740376
-0.013336295 0.08358685 0.062384456 0.08202763 -0.1214042 -0.044158123 -0.11037511 0.03244905
0.062136102 0.0826977 -0.13467136 -0.15427437 -0.10080439 0.010270121 -0.14601387 0.093870796
-0.09926961 -0.010954805 0.124888025 0.17417435 -0.16417105 0.0069775716 0.1046225 0.083073884
-0.0885278 -0.008858474 0.04427143 0.08907173 0.087472916 0.05494051 0.0015267625 0.106314644
-0.15036507 0.010143952 -0.075488515 -0.13809215 -0.029409254 0.08263096 -0.13382426 -0.08857092
0.13891256 0.04628174 -0.15274948 -0.081305176 0.08404783 0.102954246 -0.10577836 0.07292504
-0.071477704 0.09047936 -0.0804986 0.05187729 0.026859317 -0.08609578 0.0009941449 0.12951833
-0.047380984 -0.12854142 0.15145098 0.1711272 0.10882139 0.020279836 0.018730849 -0.005861346
0.09824408 0.038024366 -0.08503969 0.09911318 -0.042215407 -0.038995072 -0.07777395 -0.06554226
0.16596389 -0.031058395 0.018856922 0.07653427 0.12063165 -0.09973752 0.029114908 -0.003629126
0.0047542667 -0.015431307 -0.093241856 0.083819024 -0.08742501 -0.086005576 -0.014137211 0.0004787621
-0.011613858 -0.10910476 -0.10828567 -0.012384778 -0.05950303 -0.065656714 0.06586526 0.027733464
0.09574921 -0.07549039 0.041586112 0.034612466 0.16571318 -0.0723744 0.153553 0.11084251
0.13776486 0.012006965 -0.08942618 0.114532195 0.0740407 -0.07177554 -0.07990838 0.04993544
0.10482225 -0.037496973 -0.028298613 -0.16288084 -0.07580217 -0.06980103 -0.24737504 0.0016629994
0.037743583 0.0882888 0.1477497 -0.062449146 -0.09020754 -0.0051255394 0.17069906 0.122805014
0.10453685 -0.14009653 0.02897415 0.0424368 -0.1443509 -0.2240436 -0.046097513 -0.059314363
-0.098055534 -0.0016705347 -0.08841914 -0.1053329 -0.06128496 0.07605388 -0.015058344 0.19444582
-0.023344548 -0.10659621 0.041379962 0.08837007 0.018383754 -0.21134344 -0.1347046 -0.06472373
-0.17033379 -0.029817397 0.006377456 0.15803854 -0.044214353 0.050508853 0.05390443 -0.06392196

gru.weight_hh_l1 f4 [96, 32]
00000000: 319f 7c3d 1399 de3d 8bd4 7a3d adc7 3d3e
00000010: 2333 2f3e 07e5 4fbe fac3 9c3c 6466 ab3d
00000020: fa5b c9bd 5a1a d1bd e34d c6bc 232a 123c
00000030: f6dd b4bd 3c3f 473d baa9 24be f1fe 283e
00000040: a31c 99bd 3dad 52bd 5a24 f5bd 906f bfbd
00000050: 9c90 f23d 2def 703d 1eee 983d 28fa f7bc
00000060: 3820 d93d 0500 063e 230e 473d 3f7f 0d3e
00000070: c9ff 41bc e991 e53c 8bcc 77bd beaa 87bd
00000080: 6b2e f5bd 3fd7 1e3d b163 193e 76b9 bebd
00000090: c48f 3e3d d4bb 8c3c 5d0a 6bbd 96dc d63c
000000a0: f80e b1bd 0469 54bd c693 923c a702 a7bd
000000b0: cba1 e5bb 0d51 54bd 72d1 bf3d 5af7 29be
000000c0: af19 443c 3486 2cbd ff72 46bc 1bdd 553d
000000d0: 2bef 18be 4971 e83d bce6 cbbd ad7c 253e
000000e0: 0432 123d e069 93bd 3da4 d63d 497c 963c
000000f0: 6100 29bd 0211 ce3d 2d06 06be fae4 a5bd
00000100: d8a5 4cbd 9a9e d33d 2230 9b3d 7b8c a5bd
00000110: fd2e b53d 36de 053e 3a0e 95bd 18dd 293d
00000120: fa9c debd 93aa 87bd 5af6 623d 25a9 adbc
00000130: 865e 823c b624 b3bd 096e 113d 70db 4e3d
00000140: 6ab4 6e3c 059b 00be 5e2e 423d c3f7 32bd
00000150: 29e7 35bd 9318 38bd 4a92 da3d 4ec1 8cbd
00000160: 6338 b33d dbda a53d 890e 8cbd a753 103e
00000170: e0f3 e63d 07d1 1dbe d04c dabd c3da 32bc
00000180: 1795 c43d 9c30 bc3d fdef e13d fcd3 fc3d
00000190: 2d68 723d 940a e13b 5da3 52bd 8170 823d
000001a0: 2f84 883d 132a c0bd 66fe 4ebc ae0c 993d
000001b0: b8f0 d23d ed99 a83d 46d9 26be d3ad 42be
000001c0: 695f 653d eff8 a5bc 012e e53d 0a0f 90bd
000001d0: 5704 1bbe 1219 993c f8a0 5dbc ec64 d3bd
000001e0: 1444 d5bd f3ef 943b d136 ad3d 9143 a13d
000001f0: 9385 b539 b7f5 0dbd 774d 16bd b861 4abd
00000200: 8018 febc 3d6d bb3d 7ba5 a1bc 3d6e 433e
00000210: caab ac3d 2293 703d db6f 993d 5feb d13d
00000220: e533 b3bd 7e72 483d efe1 3b3b 5942 2e3d
00000230: 1e98 0f3c 3857 4a3d 0c64 e13d f890 333d
00000240: 92cc 013d 0a57 c3bd 6347 0bbe f280 03bc
00000250: f9d2 d4bd 7c45 95bd 8a1d a7bd 17f1 703d
00000260: e5e2 ccbd 0731 fabd e72c e03d 8ca2 913d
00000270: af0c ea3d 2d40 3abe 8a0b d23d 3620 c4bd
00000280: ae92 53bd fab0 283d b6ca c43d ff7d db3d
00000290: af11 c23c 7173 fbbd e675 b53d b0b0 00bd
000002a0: 2c02 b03d 8093 b6bd cac6 f13d 0245 af3d
000002b0: a7fc 033e 2061 173c cb78 6f3d a1c8 c4bd
000002c0: 605f aebc 8bbd b1bc 0e06 eebd e7ca 05be
000002d0: 0dc8 39bd a897 013c a476 bd3c 719d 22be
000002e0: 9d00 ec3d 6436 fa3d 520a fd3d 77e9 703d
000002f0: 7ede 223e 8ccb cc3d fbec c4bd 7f18 043e
00000300: 944a ad3d bcfe d5bd 2abb 193e ce49 84bd
00000310: a98b 52bd e861 9dbd 6f64 0c3e 434d a03d
00000320: 8744 fd3d a42f 143e 30d9 c9bd eeb4 903d
00000330: f185 6d3d 8b5d b83d ed99 093e 71d0 f33d
00000340: 5dc9 a33d 4cf4 103d f25f c3bd a921 d93d
00000350: cc65 9cbd 20f7 f5bd 5ee2 6e3d b010 cf3d
00000360: ff46 9fbd 7499 59bd 45cd cfbb d24e 11be
00000370: c68f adbd 2c1d 283c b012 8d3d 2b49 943c
00000380: c9fa 97bd 558f 5a3d 3557 f33d ec05 93bd
00000390: b50c e53d f328 86bd 98be 1abc 915e fb3c
000003a0: efcb dcbd d9f0 edbb 210c df3d 0949 163d
000003b0: ded2 00bb 3e7e abbd 0421 debd a96e 3c3d
000003c0: 1c17 a03d 524b d7bd 3442 eb3d 4d40 f13d
000003d0: c453 00bd 20d8 2ebd 0474 8d3d fd53 db3d
000003e0: 8e1e e43d 0f05 d03d a7cd e1bd 38c9 063e
000003f0: 0709 113c aad4 e03c d97e 2a3d 9fc3 cabd
0.061675254 0.1086904 0.061237853 0.18533202 0.17109351 -0.20302211 0.019136418 0.08369139
-0.09831996 -0.10210104 -0.024207061 0.008921179 -0.08831398 0.04864429 -0.1608037 0.16503502
-0.07476165 -0.051434744 -0.11969824 -0.09347451 0.11843988 0.058821846 0.07467292 -0.030270651
0.10601848 0.13085945 0.048597466 0.13818072 -0.011840769 0.028023677 -0.0604978 -0.06624363
-0.11971744 0.038779493 0.14979436 -0.093127176 0.046523824 0.017179407 -0.05738293 0.02622823
-0.08645433 -0.051857963 0.01789273 -0.08154803 -0.0070078126 -0.05183511 0.093661204 -0.16598263
0.011969014 -0.042120174 -0.012112378 0.052212816 -0.14934985 0.113497324 -0.099561185 0.16160841
0.03569223 -0.071979284 0.10480545 0.01836981 -0.041260127 0.10061838 -0.13088293 -0.081003144
-0.04996285 0.10332985 0.0757754 -0.08083435 0.08846853 0.13073048 -0.07278104 0.041470617
-0.10869785 -0.06624331 0.05541072 -0.021198818 0.015914213 -0.087472364 0.03550533 0.05050224
0.014569381 -0.12559135 0.0474075 -0.043693315 -0.044409905 -0.04494531 0.10672434 -0.068728074
0.08750989 0.08098384 -0.0683871 0.14094411 0.11276984 -0.15411769 -0.10659182 -0.010916415
0.09598749 0.09188959 0.11032102 0.1234512 0.05918138 0.006867716 -0.051425327 0.06369115
0.06665837 -0.09383025 -0.0126338955 0.074731216 0.1029982 0.08232484 -0.1629382 -0.19011621
0.055999193 -0.020260302 0.11190415 -0.070341185 -0.15138374 0.018688712 -0.0135271475 -0.10321984
-0.104133755 0.0045452057 0.08457721 0.078742154 0.0003462253 -0.03465816 -0.03669497 -0.049409598
-0.031017542 0.09151695 -0.019732228 0.19085021 0.08431204 0.058734067 0.07492038 0.102499716
-0.087501325 0.048937313 0.0028668602 0.042543743 0.008764295 0.049399585 0.110054106 0.043839425
0.031689234 -0.09538086 -0.1360145 -0.008026348 -0.10391802 -0.07288644 -0.08159931 0.05882367
-0.10004214 -0.122163825 0.109460644 0.071110815 0.114282005 -0.18188544 0.10256107 -0.09576456
-0.051653557 0.041184403 0.096089765 0.10717391 0.023690073 -0.12277878 0.08860378 -0.031418502
0.08594164 -0.08914852 0.11805494 0.08558084 0.12889348 0.009239465 0.058464807 -0.096085794
-0.021285713 -0.021696826 -0.116222486 -0.13065682 -0.0453568 0.007909693 0.023127861 -0.15880372
0.115235545 0.122174054 0.12355484 0.0588164 0.15905187 0.09999761 -0.09615513 0.1289997
0.0846149 -0.10448977 0.15012804 -0.064593896 -0.05140272 -0.0768469 0.13710187 0.078272365
0.12366586 0.14471298 -0.09855878 0.070657596 0.057989065 0.09002217 0.13437624 0.119049914
0.079973914 0.03538923 -0.095397845 0.10602123 -0.07636604 -0.12010026 0.05832135 0.10110605
-0.07777213 -0.05312486 -0.0063416087 -0.14190224 -0.08474688 0.010260861 0.0688833 0.018101295
-0.0742088 0.05335935 0.11881868 -0.07178864 0.11184064 -0.06550779 -0.009444855 0.030684741
-0.10781085 -0.0072613773 0.10890985 0.036690746 -0.0019656937 -0.08373688 -0.10846141 0.04600397
0.07816908 -0.10512413 0.114872366 0.117798425 -0.031329885 -0.04268658 0.06906894 0.10709379
0.1113864 0.10157215 -0.11025553 0.13162696 0.00885225 0.027445156 0.041624878 -0.09900593

gru.bias_ih_l1 f4 [96]
00000000: d96f e43d 7c31 c43d a0e6 f2bd 0ed9 bbbd
00000010: e03d b33b 1f66 913c c069 273d 305b 443b
00000020: 3952 1ebd 267a fe3b 0050 d63d 2b7f a93c
00000030: 4e67 19bd d5d2 00be 8f1d d63c 4746 d6bb
00000040: fffd e0bd e83f ccbd 5c1d f7bd 8e91 393d
00000050: a1dd 89bd 77c5 8dbd feb9 c83c b1fc 663d
00000060: 2a6e 0ebe f316 cb3d 14fd 083e 910f c3bd
00000070: 0fce f63d 6fd7 eabd a116 bc3d b237 833e
00000080: 46d3 6dbd 04b0 82bd 7ca9 603e cf54 69bd
00000090: 3ac3 a63c 9f5c ef3d 7488 473b 21d4 133d
000000a0: 48f1 993d 9cb7 a83d 7159 e13b 4448 633b
000000b0: 6950 c53e 2fae e63d f802 003e c217 033d
000000c0: 17d7 c3bc 99f1 adbd b5c7 153e 0698 19be
000000d0: 973a 02bd 09b8 363e 88cc d53c a301 093e
000000e0: 12ed 543e c3d7 62bd f52d 3a3e cf1d 373d
000000f0: 7148 693e 73e8 2ebd 613c 38bc 18b6 ed3d
00000100: 7944 d43e 866a e43c 0b03 613e 3025 a43e
00000110: 3977 ffbd 31a0 c43d d022 77bd f150 cc3e
00000120: 54aa f83d f2ef 3d3d 0361 efbc 7d92 e13d
00000130: 88dc 063f ed6c b0bd 8a0f 323e eed3 593d
00000140: d4f9 28be da56 313e b896 6a3d a862 ffbd
00000150: 24e2 2b3e 19f4 92be 2a47 213e c016 5d3d
00000160: ceb4 9b3d 3f63 183e 3dde 00bb f777 983e
00000170: 3186 2c3e 5a0d a6bb 3920 d4bd 9fbc debd
0.11154146 0.09579751 -0.118603945 -0.09172259 0.0054700226 0.01774889 0.040872335 0.0029961579
-0.038652632 0.007766026 0.104644775 0.020690521 -0.037452035 -0.12580426 0.026137142 -0.0065391394
-0.10985946 -0.09973127 -0.12066147 0.045304827 -0.067317255 -0.06922429 0.02450275 0.05639333
-0.13909212 0.099164866 0.13377792 -0.095244534 0.12051021 -0.11466872 0.091840036 0.2562843
-0.058062814 -0.063812286 0.21939653 -0.056965645 0.020356763 0.11687588 0.0030446323 0.036090974
0.07516724 0.08238146 0.0068771173 0.0034680525 0.3853791 0.11263692 0.12501132 0.03200508
-0.023906274 -0.08493347 0.14626963 -0.14999399 -0.031794157 0.17843641 0.026098505 0.1337953
0.2079356 -0.055381548 0.18181594 0.044706162 0.2278154 -0.04270215 -0.011244864 0.11606997
0.4145849 0.027882826 0.21973817 0.32059622 -0.12473912 0.096008666 -0.060335934 0.39905503
0.121418625 0.046371408 -0.029221063 0.110142685 0.52680254 -0.08614526 0.1738874 0.053180628
-0.16501552 0.17318287 0.057272643 -0.12469989 0.16785485 -0.28701857 0.15749803 0.053976774
0.07602845 0.1488161 -0.0019663714 0.29779026 0.16848065 -0.0050675096 -0.103577085 -0.1087582
